DalekStepsR12/Assets/MyModels/R11DalekBehavior.onnx (onnx, 739093 bytes, 9 tensors)

action_model._discrete_distribution.branches.0.bias f4 [3]
000000 ba 5d c0 bd a5 23 89 3d d9 fd a6 3c
       -0.09392877 0.06696252 0.020384716

action_model._discrete_distribution.branches.0.weight f4 [3, 256]
000000 a3 58 59 bb e8 21 d4 3c f0 6c 83 3c c5 82 03 bd
       -0.0033164404 0.025895074 0.016043156 -0.032107133
000010 11 5d f1 3c 96 56 9b bd 68 87 53 bd 3a 6a a2 3c
       0.029463323 -0.07584874 -0.051642805 0.019826043
000020 1d 0b 19 3d 32 6e a2 bb 91 de 9d 3c 76 c0 8b 3d
       0.037364114 -0.004956984 0.019271167 0.068238184
000030 22 b4 1d 3d 29 4d 39 bb dd 70 fd 3c 6c d6 8e 3d
       0.038501866 -0.002827475 0.030937606 0.069744915
000040 be b3 e8 bc 60 97 05 bd 88 89 2c 3d 67 41 34 3c
       -0.02840602 -0.032615066 0.042123348 0.011001921
000050 94 4b d6 3b 64 e7 fa 3c f6 fa 6d 3c cd 6a e4 3d
       0.0065397713 0.030627914 0.014525166 0.11153183
000060 cd 07 c7 bc f7 87 b4 bc 65 18 69 bd 5e 2b 90 bd
       -0.024295712 -0.02203749 -0.05690803 -0.07039522
000070 b6 f8 78 3d 35 be e3 bc 4d 95 f4 3b 97 8f 9c bd
       0.060784064 -0.027800659 0.007464087 -0.07644575
000080 60 81 df 3b 85 cc 1d bd 73 22 f1 bb 56 b6 6e 3c
       0.0068208426 -0.038525123 -0.007358843 0.014569839
000090 59 76 e5 bc d0 68 89 3d c3 6d 0c 3c f4 76 ef bc
       -0.028010534 0.067094445 0.008571091 -0.029231526
0000a0 4d 05 03 bc 49 cb 8a 3c 51 df 43 bd ed 3f 89 bd
       -0.007996869 0.016942637 -0.047820393 -0.06701646
0000b0 5f 72 0d bd 04 b7 e8 3b 23 ec 60 bd 52 87 15 3d
       -0.0345329 0.0071018953 -0.054912698 0.036506005
0000c0 db ed e9 3c 24 8d 2c 3d eb 31 21 bc 8d 2b 28 bd
       0.028555801 0.04212679 -0.0098385615 -0.04105716
0000d0 4d af fe 3c 21 bf 0e 3d b0 76 e4 bb c5 72 97 3d
       0.03108945 0.034850243 -0.0069721565 0.073949374
0000e0 67 1c e2 3c 01 cc d4 3c aa 7a 46 bc 48 04 0e 3a
       0.027601434 0.025976183 -0.012114206 0.0005417508
0000f0 02 2c 14 3d 06 e1 84 3d e8 0d 89 3d 16 fe 1c bd
       0.03617478 0.06488232 0.066921055 -0.038328253
000100 f6 7e 67 bb 12 07 6a bc 74 36 92 ba a6 77 49 3d
       -0.0035323477 -0.014283912 -0.0011155144 0.04918637
000110 03 36 ef 3c e2 9e 51 bc 34 dd 43 bd 42 e8 60 bd
       0.02920056 -0.012794228 -0.047818378 -0.054909
000120 91 05 41 3c 8a fc 40 bd 3f ec c8 3d e3 e9 aa bc
       0.011781112 -0.04711584 0.09810685 -0.020863479
000130 0d b3 9e bd ca 30 e0 3c b2 dc b7 bc 0a 53 24 bb
       -0.07748995 0.027367014 -0.022444103 -0.002507391
000140 59 a9 07 bd 4a 10 02 bc 53 91 8e bc e9 d2 3e bc
       -0.033120487 -0.007938454 -0.01740328 -0.011646965
000150 63 15 25 3d 90 60 ac bc 5c fa fb 3c ac 86 14 bd
       0.0403036 -0.021042138 0.03075903 -0.036261246
000160 e6 62 8a 3d 24 22 fe 3b cc dd ff bb ea 05 6a 3d
       0.06757145 0.0077555347 -0.0078084227 0.057134546
000170 cd c3 cc 3b 8f ea ca bd cf a7 c7 3c b7 d8 95 bc
       0.006248927 -0.0990802 0.02437201 -0.018291814
000180 ed 2b 88 3d d1 eb 89 3c a6 31 6f 3d 68 43 98 bb
       0.06649003 0.016836079 0.058396958 -0.0046467073
000190 72 72 15 3b a7 d5 6b 3b 8c 53 fe bc 1e e2 86 bc
       0.002280381 0.00359855 -0.031045698 -0.016465243
0001a0 8f 0b 2c bd ad b0 7f 3d 24 3a 82 3c ee b2 cf bc
       -0.04200321 0.06242435 0.015896864 -0.025353875
0001b0 b5 3d c3 3c 46 d8 94 3c 6a 2b 5c bd 67 84 0d 3b
       0.023833135 0.018169533 -0.05375234 0.002159381
0001c0 11 a2 13 3d 23 81 1e 3d c5 13 2e 3c a4 ce 7a bc
       0.03604323 0.038697373 0.010624831 -0.015308056
0001d0 a3 6a ef ba 61 6a 45 bd 7e 54 e5 bc ed a7 07 bd
       -0.0018266033 -0.048197154 -0.02799439 -0.03311913
0001e0 d6 b4 20 3d ad 4b 6c bc e6 98 92 bc f8 b4 34 3d
       0.03923496 -0.014422339 -0.017895173 0.044117898
0001f0 06 5e 32 3d 25 b9 ca bc a5 21 8a 3c 94 a8 52 3c
       0.0435467 -0.024746487 0.016861746 0.012857575
000200 f7 bc 5c 3d 06 f7 51 bd d9 12 e1 3c 45 f3 e1 3c
       0.05389115 -0.05126097 0.027474808 0.02758182
000210 1c 4d ee 3b d6 4f fb 3c f9 22 57 3c db c2 f7 3c
       0.0072723757 0.030677717 0.013130897 0.030244282
000220 2b a5 0e 3c 19 04 d7 bc a3 8e c6 3c 55 21 a4 bc
       0.008706371 -0.026247071 0.024237936 -0.020035425
000230 85 8e 36 3d 63 da 3f bc 33 af 80 3d 7e 6a 1a 3d
       0.04456951 -0.011709782 0.062834166 0.037699215
000240 8f 39 2c 3d 7e c6 06 3c a5 48 f3 3c cc 93 07 3d
       0.04204708 0.008226035 0.029697726 0.033099934
000250 19 46 c4 3c 01 8e 03 bd 42 5b b8 3b 62 93 a6 bb
       0.023959206 -0.032117847 0.005626113 -0.0050834874
000260 fc 17 16 3d 40 aa 95 bc d1 86 0d 3d 22 d0 e5 3b
       0.036643967 -0.018269658 0.0345524 0.0070133368
000270 01 5a a7 3c 88 8d 5f bc 30 fb ec 3c 25 68 80 bc
       0.02042866 -0.0136445835 0.02892837 -0.01567466
000280 f5 13 d2 bc 0c 1f 37 3d ad 7c 25 3d 37 3e 18 3d
       -0.025644282 0.044707343 0.040402103 0.037168708
000290 51 7b f3 3a c1 38 21 bb b0 25 85 3d 9f 39 7a 3d
       0.001857618 -0.0024600478 0.06501329 0.061090108
0002a0 bb 1e 8a 3d 73 6b 81 bd b4 33 a1 bc 9c 1e 16 3d
       0.067441426 -0.063193224 -0.019677974 0.036650285
0002b0 e6 7a 64 3d c3 c7 4e bd f7 1b 33 bd 62 20 34 bc
       0.055781268 -0.050483476 -0.04372784 -0.010994049
0002c0 42 24 45 3d e1 01 68 bd 86 2b bb bc aa 9f dc 3c
       0.04813028 -0.056642417 -0.022847902 0.026931603
0002d0 c6 68 2a 3d 41 96 7d ba f5 89 f2 bb 56 9f bf 3c
       0.041603826 -0.00096735737 -0.0074016997 0.023391407
0002e0 51 4e 1d bd 2b 24 69 3c dc b0 24 bd 58 39 32 3d
       -0.038404766 0.0142298145 -0.04020773 0.04351172
0002f0 86 02 14 3d a9 f5 6c 3c 57 b4 af 3d 2a a3 ff 3b
       0.03613522 0.014462867 0.08579319 0.007801433
000300 5e ac 8a 3d 02 c3 5e 3d 7d dc 26 3d 42 fe ff 3c
       0.06771158 0.054385193 0.040737618 0.03124917
000310 f5 4a 3e 3d 38 e5 d5 bc 02 d8 6e bd f4 58 99 3d
       0.046458203 -0.026110277 -0.05831147 0.074876696
000320 f6 5e 73 3c 2c 59 fc 39 7c d3 13 3d c7 7a 65 3d
       0.014854183 0.00048131624 0.03609036 0.056025293
000330 2a 21 20 3d 69 41 6d 3d 9f 30 be 3c 46 34 9f 3b
       0.039094128 0.057923708 0.023216544 0.0048585264
000340 c9 6b 83 3d 87 77 83 3d b4 79 bc 3c 3f c2 31 3c
       0.06417043 0.064192824 0.023007251 0.0108495345
000350 b0 05 af bc d1 40 79 bb b2 6e cd 3b 64 af 02 bd
       -0.021365017 -0.0038033018 0.0062692994 -0.031905547
000360 87 e9 9e 3b 19 c7 23 3c 9e cc 91 3d e2 90 93 bc
       0.004849616 0.009996199 0.07119106 -0.018013421
000370 79 a2 85 3c 85 3b 2c bd c9 ae 76 3c ab 23 25 3c
       0.016312825 -0.04204895 0.0150563205 0.010079305
000380 97 a4 1d bc c6 9b 91 bd cf 4b af 3c a7 fa b3 3c
       -0.009621761 -0.071097896 0.021398453 0.021970106
000390 67 aa f6 3a d1 83 10 3d 3c 39 14 bd ce a1 4a bb
       0.0018819094 0.03528196 -0.036187395 -0.0030919197
0003a0 1a e9 ff bc c4 6c e7 bb 79 68 8c 3d 8f ed 0a 3d
       -0.031239081 -0.0070625264 0.06855864 0.03391796
0003b0 b5 18 1e bd f5 77 e2 bc 1d bc 1d bd d4 c8 5c 3d
       -0.03859778 -0.02764509 -0.038509477 0.053902462
0003c0 a7 ee 8d 3d dc 80 19 bd 3a fa aa 3c 3a 73 5f 3d
       0.06930285 -0.037476406 0.02087127 0.054553248
0003d0 a9 04 b6 3c 4e 44 13 3c 2c b2 4a bd d9 1a 73 3d
       0.022219019 0.008988453 -0.049486324 0.059351776
0003e0 d2 df 89 3c 07 3e 1e bc 6a 81 91 3c 3b 84 08 bd
       0.016830359 -0.009658343 0.017761905 -0.03332923
0003f0 e2 85 44 bc 33 1a da 3c bb 63 c6 bc 25 a5 d2 3c
       -0.011994811 0.02662382 -0.024217477 0.025713513

action_model._discrete_distribution.branches.1.bias f4 [2]
000000 9d 85 65 bc e8 85 65 3c
       -0.014008907 0.0140089765

action_model._discrete_distribution.branches.1.weight f4 [2, 256]
000000 36 1b 7e 3d e4 e6 22 bd 51 1e 02 bd 98 bb d3 3c
       0.06203767 -0.039770976 -0.031767193 0.025846288
000010 ae fa 3c bc 49 ee 20 bd 88 45 9c 3d 0f 26 70 3b
       -0.011534376 -0.039289746 0.076304495 0.0036643778
000020 57 0a 3d bd 6b b3 da bd c8 7f a0 3c 0f ad ec bc
       -0.04615244 -0.106787525 0.01959218 -0.028891115
000030 ec df 56 3c 47 d1 eb 3b f2 f3 27 bd 57 dd 16 bd
       0.013114911 0.0071965787 -0.04100413 -0.03683218
000040 81 7b 5d 3d 62 bd e7 bc f7 97 5b bd c0 43 f7 3c
       0.05407286 -0.028288547 -0.05361172 0.030183673
000050 b5 4a 72 bc 9f 88 0a bd 18 45 62 bd cc 7a 36 3d
       -0.014788319 -0.0338217 -0.055241674 0.044550702
000060 6b 67 87 bd 49 2d fd 3c 15 85 93 3c af 35 e6 3b
       -0.06611522 0.030905383 0.018007794 0.0070254426
000070 43 0b e1 bc c0 59 a7 3d 16 4a b5 bd fb c5 4f bc
       -0.02747119 0.08171415 -0.088520214 -0.01268148
000080 0b c7 39 bc b8 3e 08 39 b0 50 e9 3c dc 27 98 bd
       -0.011338959 0.00012993335 0.028480858 -0.074294776
000090 e7 a8 b6 bd 37 2b ba 3c 12 4f c5 3c b5 5b 4f 3c
       -0.08918934 0.022725685 0.024085555 0.012656142
0000a0 ab bd b2 bd bb 7d 1c 3d 56 9e 96 3d 92 ba 1c 3d
       -0.087275825 0.038205843 0.07354419 0.038263865
0000b0 7c a3 9b 3c f3 19 b9 3c d7 46 91 bc f2 a0 ac 3c
       0.018998854 0.022595381 -0.017733974 0.021072838
0000c0 ac 63 3d 3d 4d 0b 38 bd 3b e8 3d 3c 1a 85 12 3d
       0.046237633 -0.044932652 0.011591013 0.035771467
0000d0 5e 16 4a bc 7d f6 fc 3c 5a 2d a4 bd e0 a8 bc 3c
       -0.012334434 0.030879254 -0.080164626 0.023029745
0000e0 59 ef f2 bc 89 7f 62 bb c8 61 4b bd 6c 3e d9 ba
       -0.029655145 -0.003456088 -0.0496538 -0.0016574389
0000f0 fe 18 e1 bb 4a b6 ad bc c6 97 2d bd 9f 06 fe bc
       -0.0068694344 -0.021205086 -0.04238107 -0.031009017
000100 18 8a e5 bd 63 40 a9 3c 71 26 3e bb 81 a4 64 3d
       -0.1120798 0.020660585 -0.0029014612 0.055820946
000110 5f 07 95 3c 86 be f5 bc 80 d8 df bc c7 84 67 bc
       0.018191991 -0.029998075 -0.027324915 -0.014130778
000120 5e 32 8e 3d f1 f9 c0 bb 0a 1b aa 3c 8a ac 15 3d
       0.069432005 -0.0058891703 0.020764846 0.0365415
000130 4d 56 ef bc 7c fc f4 bd 83 43 ac bd d9 84 c6 3c
       -0.029215956 -0.1196222 -0.08411314 0.024233269
000140 9b 03 2f bd 41 ee 34 bb 9e 06 f6 bc 69 66 d4 3c
       -0.042728048 -0.002760783 -0.030032452 0.02592774
000150 11 c5 50 bc 99 f6 d3 bb 38 50 ac 3c 26 60 4d 3d
       -0.012742297 -0.0064686057 0.021034345 0.050140522
000160 45 6f 72 bd fa 4b c8 bb 2f cb bf 3c 83 ce e6 bc
       -0.059188146 -0.0061125727 0.023412315 -0.028174644
000170 95 e6 c7 bb 81 14 01 3d dd 3b 14 bd 5a f9 0e be
       -0.0061004856 0.031513695 -0.036189903 -0.13962308
000180 61 89 20 bd cf a5 00 bd 90 be 69 3c 3a 1b f7 bd
       -0.039193515 -0.031408127 0.014266625 -0.1206574
000190 89 d5 19 3d fe 82 db bc 04 1e 0c 3d bc 2b 9c 3c
       0.03755716 -0.02679586 0.034208313 0.019063823
0001a0 44 fd 1c bd cb 2d 27 3c a2 85 f2 bc b0 f7 44 3d
       -0.03832747 0.010203789 -0.029604737 0.048087776
0001b0 ed a0 0b bc 6d c7 df bc 09 96 4e bd 4c 4e 97 bd
       -0.008522254 -0.027316773 -0.050436053 -0.07387981
0001c0 17 a7 c5 bb 49 b2 94 bd f8 06 e4 bd 52 1b 2a bc
       -0.0060318816 -0.07260568 -0.11134142 -0.01038249
0001d0 ef 98 ab 3c a9 ff a1 bd fd 5f b2 3b 8d 77 e8 bc
       0.020946948 -0.079100914 0.0054435716 -0.028377319
0001e0 1e 0f 3f bc a7 30 57 bc 41 c2 0a 3d 17 a7 6d bc
       -0.011661319 -0.013134158 0.03387666 -0.014505169
0001f0 8d 39 37 bd 40 26 36 3c 3c 4d 56 3c 61 08 ab bd
       -0.04473262 0.011117518 0.013079938 -0.083512075
000200 d4 f2 6a bc 25 58 04 3c 84 8c 82 3c f4 32 a4 3c
       -0.014340121 0.008077656 0.015936144 0.020043828
000210 40 52 4c bd f3 0f 89 bd 94 1e 0a bc 33 28 22 bd
       -0.049883127 -0.06692495 -0.008430142 -0.03958912
000220 8e 93 eb bc 97 98 c2 3c 40 16 dd 3b ad e6 9d 3d
       -0.028756883 0.023754401 0.006747037 0.077100135
000230 65 8d 88 bd e6 25 96 3c 58 12 a9 bc 3b 45 2e bc
       -0.06667594 0.018328618 -0.02063863 -0.010636623
000240 88 c1 1c 3d 89 40 42 3d c5 4d 20 3d 32 d9 ee 3c
       0.038270503 0.047424827 0.039136667 0.029156301
000250 bf 58 5f 3d ae 24 b7 bc e1 68 3f 3c f8 4c 9a bb
       0.054527994 -0.022356357 0.01168272 -0.0047088824
000260 31 9b cd 3c 34 bc 28 bd f3 70 31 3c 00 b6 f3 3c
       0.025098415 -0.04119511 0.010830152 0.02974987
000270 80 88 6f 3c f5 3d 13 bd c9 f2 c3 3c e1 5f fe 3c
       0.0146199465 -0.03594776 0.02391948 0.031051578
000280 a5 9e 1e 39 81 65 f3 3c 89 30 41 3c ba 64 04 3d
       0.00015127154 0.029711487 0.011791357 0.032322623
000290 6e e7 9e bc d3 32 b3 3c fc 63 66 bd bd 97 df bc
       -0.019397464 0.02187482 -0.056247696 -0.027294034
0002a0 72 62 d5 bb 5a 61 66 3d c9 a6 af 3b f9 76 62 bd
       -0.0065119797 0.056245185 0.0053604585 -0.055289242
0002b0 86 9e 02 bd a6 e4 9e 3d 22 6a a1 3c 7d 66 0f bc
       -0.03188946 0.07758455 0.019703928 -0.008752462
0002c0 6a 9d 0f bd 1b a2 99 bc 0c 2b 2a bc dd 08 f7 ba
       -0.03506223 -0.018754056 -0.01038624 -0.0018847246
0002d0 77 8d 80 bc c6 97 09 3d 5a 9c 89 3c 22 2c 2e bc
       -0.015692456 0.033592008 0.016798187 -0.010630639
0002e0 c8 c6 99 3c 94 a1 67 bb cc 91 0e bc ad b8 da 3c
       0.018771544 -0.003534411 -0.008701753 0.026699388
0002f0 b3 e1 ef 3b 89 38 0b bd 01 b6 23 3c b6 da 11 3d
       0.0073206066 -0.033989463 0.009992124 0.03560897
000300 d2 25 24 3c 96 f6 d4 bd e5 00 0a 3c 94 ff 91 3c
       0.010018783 -0.10398595 0.008423065 0.017822064
000310 eb 5e 4f bc 4b c4 ed bc 30 96 4f 3b 7d d5 17 bd
       -0.012656908 -0.029024264 0.0031675212 -0.037068833
000320 38 7f f0 3c 04 89 92 bb 18 06 92 3b d1 2a 0c bd
       0.029357538 -0.0044719 0.004456293 -0.03422052
000330 7e a3 01 3d a5 b0 a3 bc cc e2 be 3c 01 57 f2 3b
       0.03165006 -0.019981692 0.023301505 0.0073956256
000340 20 01 b3 3c 66 27 99 bd 48 e3 a4 3c 30 57 3c 3c
       0.021851122 -0.07478218 0.020127907 0.0114953965
000350 29 7c 81 3c 01 ef 92 bd 8f 76 7a bd 8b ca 32 bd
       0.015806274 -0.071744926 -0.061148223 -0.04365019
000360 31 ee 8a bd 3c 28 ea bc 57 97 49 bd 9c fc 9d 3c
       -0.06783713 -0.028583638 -0.049216595 0.019285493
000370 01 9d 4e bb 8b 2e 22 3c e8 91 ef 3b 74 2b 0b bb
       -0.0031526687 0.009898792 0.0073110946 -0.0021235617
000380 ef 22 94 3c de c6 35 3d a6 ee 99 bd 83 0d f1 bd
       0.018083064 0.044379108 -0.07516222 -0.11770155
000390 62 10 04 3d 8f 3a 8b 3c 1d 4d 3c 3d b3 dd d2 3c
       0.032242186 0.016995696 0.04597198 0.02574048
0003a0 04 c1 55 3d e6 03 4f bd a9 01 ba bb 6b a4 6b bd
       0.052186027 -0.050540827 -0.0056764674 -0.057529848
0003b0 4a 1e 1a 3d b4 4a 41 bb 91 5c bb bc b5 f9 fb bc
       0.037626542 -0.002949399 -0.022871288 -0.030758718
0003c0 28 44 dd bc 1a cc 12 3d a1 ae f0 bb 69 4f 8b bb
       -0.027010038 0.035839178 -0.007345036 -0.00425141
0003d0 6e 32 23 bd d6 37 36 bc 28 7e 9d 3d 43 10 8d 3c
       -0.039843015 -0.011121711 0.07690078 0.017219668
0003e0 7e f7 d9 3b 7a 44 83 3d 10 27 2f bd 4f 2c 16 bd
       0.006651818 0.06409545 -0.042761862 -0.03666335
0003f0 09 cf 9c 3c a0 d4 94 3b 44 a2 cd 3c d8 74 2a bd
       0.01914169 0.0045419484 0.025101788 -0.041615337

discrete_action_output_shape f4 [1, 2]
000000 00 00 40 40 00 00 00 40
       3.0 2.0

network_body._body_endoder.seq_layers.0.bias f4 [256]
000000 12 f7 34 3d 60 69 98 bc 87 98 87 3c 73 fe aa 3c
       0.044180937 -0.018604934 0.016552223 0.020873284
000010 d3 83 b9 3c 79 5c d1 bc 2a d2 dc bc f8 3d e2 bc
       0.022645866 -0.02555679 -0.026955683 -0.02761744
000020 99 2a 12 3c 36 5c df 39 b4 5a 50 bd bc 98 8f bc
       0.008921289 0.00042602577 -0.05086775 -0.017528884
000030 10 32 99 bd 35 72 cf bc 15 d0 96 3c 97 7d 38 bd
       -0.07480252 -0.025323013 0.018409768 -0.045041647
000040 44 24 3d bc 76 e8 dc bc 77 61 81 bc 97 c3 1e 3c
       -0.011544291 -0.026966315 -0.015793545 0.009690187
000050 ab 11 ba bb e4 f6 16 bd 6d 20 9f ba d3 26 76 bc
       -0.0056783757 -0.036856547 -0.0012140401 -0.015023905
000060 cf 17 07 bd 25 d9 e2 bb a2 8f c8 3b d9 0e 96 bc
       -0.03298169 -0.0069228583 0.006120638 -0.018317627
000070 69 f3 e8 bc 37 e0 5a bd f2 e9 f2 bc e9 85 94 3b
       -0.02843638 -0.053436484 -0.02965257 0.004532565
000080 8f c2 dc bc f0 66 e1 bc 72 9e d1 3c bc 92 bc bc
       -0.026948242 -0.027514905 0.025588248 -0.023019187
000090 d5 ae 29 bc 29 33 cc 39 79 c8 21 bc d0 df 60 bc
       -0.010356625 0.0003894803 -0.009874457 -0.013725236
0000a0 44 3d 5a bd bf 19 0c bb 7f 99 f8 3b 2a 66 0b bd
       -0.053281084 -0.002137765 0.0075866575 -0.034032978
0000b0 5c 13 dc bc da bd f9 bc 18 f2 be bc 6d 8d 69 bc
       -0.0268647 -0.030486036 -0.023308799 -0.01425491
0000c0 26 a9 79 bb 9d a3 43 bd 69 4e c7 bb 09 27 a2 bb
       -0.0038095205 -0.047763456 -0.0060823453 -0.004948501
0000d0 53 b7 6d bc 8b 6a 94 bb bc 73 d4 3a e6 dd 87 bc
       -0.01450904 -0.0045293025 0.0016208808 -0.016585302
0000e0 34 73 f4 3a 8a 90 8e bc 62 e6 10 ba 14 c4 23 3b
       0.0018650056 -0.017402906 -0.0005527494 0.0024988698
0000f0 81 99 92 bc 89 72 ab 3c 08 b8 1b bd 7d 58 ad ba
       -0.017895462 0.020928638 -0.038017303 -0.0013225224
000100 59 88 45 3b fc bd 8a bc 0b 79 08 bd a0 8f ba bc
       0.0030141084 -0.016936295 -0.03331856 -0.022773564
000110 f4 f3 a7 3c 7d bf df bc af 85 7e bc d4 f7 b4 bc
       0.020502068 -0.027312988 -0.015534802 -0.02209083
000120 0d 6a dc bc 86 ab fe bc 6e c9 1d bd c5 bb 6f bc
       -0.026906038 -0.031087648 -0.038522176 -0.01463217
000130 f2 a2 bf bc e3 e3 b3 bd b5 95 6f bc 47 15 97 bc
       -0.023393128 -0.087837 -0.014623095 -0.018442763
000140 cf e3 85 bc a1 19 3b bd f8 2c c5 ba 25 19 64 bc
       -0.01634398 -0.04567874 -0.0015043309 -0.013922011
000150 e6 22 da bc d5 25 8c bc d1 25 5e bd 8a 87 0b 3c
       -0.026627969 -0.017107883 -0.054235283 0.008516202
000160 d6 3b 9e bc 05 f0 45 bd 5a ad 16 3c 30 21 04 bd
       -0.019315641 -0.048324604 0.009196604 -0.032258213
000170 ee 27 5b bd 93 b5 20 bd 4c f7 54 bc 41 34 e1 3b
       -0.053504877 -0.039235663 -0.012998413 0.006872684
000180 1f 3f 90 bc 67 50 03 bd 7f 98 c6 3b 7d 10 9e bc
       -0.017608223 -0.0320591 0.0060606594 -0.019294972
000190 06 ce e0 ba bd d9 24 ba 1b 65 d8 bc f5 4b d9 bc
       -0.0017151244 -0.0006288549 -0.026415398 -0.026525477
0001a0 03 26 7f bc b5 e2 9b bc 6d e4 01 bd d9 d5 26 3c
       -0.015573028 -0.019029 -0.031711984 0.010182821
0001b0 00 15 90 bc a4 8f ac bc 47 bf 70 bc 3a af 16 bd
       -0.017588139 -0.021064587 -0.014694042 -0.036788203
0001c0 0a a8 97 3b 6c 8a 63 bd ea 74 ae bc 9e 33 e6 bc
       0.004628186 -0.05555193 -0.021295983 -0.028100785
0001d0 06 25 6f 3c 8a e3 12 bd 77 cf 56 3b 6f c2 32 bc
       0.014596229 -0.03586153 0.0032777467 -0.010910614
0001e0 e1 58 a1 bb 00 56 f4 bc de 99 6d 3b 54 30 f3 bc
       -0.0049239253 -0.029826164 0.0036255042 -0.02968613
0001f0 8b d6 99 3b d6 e4 73 bc 85 b5 cf 3c 2a 38 86 3c
       0.004694765 -0.014886102 0.02535511 0.016384203
000200 b1 78 73 3a 32 ac a4 bd c0 99 ce bc d0 55 d8 3b
       0.0009287699 -0.08040656 -0.025219798 0.0066020265
000210 73 4d 86 ba ff 30 b9 bc 4f ce d7 bc e7 6a 6f 3b
       -0.001024647 -0.022606371 -0.026343493 0.0036532225
000220 39 46 5c bd 4a 5e 98 3c 49 29 12 bd 32 d2 fb bc
       -0.053777907 0.018599648 -0.035683904 -0.030739877
000230 33 0b ed bc 3f 9e 91 bc a7 65 39 bd b9 a5 2a bd
       -0.028936004 -0.017775653 -0.04526296 -0.04166195
000240 92 51 3f 3d c0 6f 63 bc 46 06 ef 3c 37 53 23 bd
       0.04670865 -0.013881624 0.029177796 -0.03987428
000250 9a 51 07 bb 3d 8a ca 3a ca 91 ce bc a4 51 e1 bc
       -0.0020648004 0.0015452575 -0.025216002 -0.02750475
000260 60 7b 44 bb 87 f3 1c 3b e0 c3 0e 3c 7f 03 a5 3b
       -0.0029980764 0.0023948865 0.008713692 0.005035817
000270 66 fe fa bc ef d9 05 bd 35 80 93 bb 8c 35 84 3c
       -0.030638885 -0.03267854 -0.0045013675 0.016138814
000280 e0 34 57 bc 83 15 b7 3c 5e b9 83 bc 24 3f 01 bd
       -0.013135165 0.022349125 -0.0160796 -0.031554356
000290 8e 0a 75 3c dd e5 17 bd 8d d7 5f bc f7 c1 4e 3c
       0.01495613 -0.03708445 -0.013662231 0.012619487
0002a0 53 77 43 3b 9c d1 dc 3b 32 94 31 bc 2e e6 b8 3a
       0.0029825761 0.0067388546 -0.010838555 0.0014106685
0002b0 2d b4 0c 3c fb 7b 7a bb 79 c5 39 bb 8e fb 2e 3d
       0.008587879 -0.003822087 -0.0028346463 0.04272037
0002c0 09 38 0c 3c 30 e3 1f bb 4f ec 0e bd 3b 07 b5 3c
       0.008558282 -0.002439689 -0.03489333 0.022098174
0002d0 84 82 52 bb 25 2c 32 3c 14 70 fb bc 50 fa 96 3a
       -0.003212125 0.010874783 -0.030693091 0.0011518691
0002e0 d9 94 a1 bc 10 51 1f bd 6b 13 67 bc bb 24 5f bc
       -0.019724296 -0.038895667 -0.014103751 -0.013619597
0002f0 d2 ac 52 bd 0a a8 83 3c 5a 1a 25 bd e9 ff d6 bb
       -0.051434346 0.016071338 -0.040308334 -0.0065612686
000300 f9 37 00 3c 65 6d b3 bb cf a3 e2 bd 15 d8 0f bb
       0.007825845 -0.0054756873 -0.110664 -0.0021948863
000310 4e c5 59 bc cf 23 cb bb a8 2a a3 3c f9 5c 15 bc
       -0.01329167 -0.006199337 0.019917801 -0.009116405
000320 c9 02 00 bd 1f cf 0b bd 96 26 0f 3d 77 bf 2c 3c
       -0.031252656 -0.034133073 0.034948908 0.010543696
000330 51 19 3d bd 81 63 e1 bc c5 aa 34 3b 51 8b 0f bd
       -0.04616672 -0.027513267 0.0027567607 -0.03504497
000340 04 1e 44 bc ba db 6c 3b 31 2d ce bb 73 e4 e8 bc
       -0.011970047 0.003614171 -0.0062920083 -0.028429246
000350 cc 8c 8c bc 4a df dc 3c 3e c9 13 3b 38 43 1e bd
       -0.017156981 0.026961941 0.002255037 -0.038638324
000360 7e 80 11 bb 91 56 85 bc b5 dc 87 3c e3 71 99 bc
       -0.0022201831 -0.01627663 0.016584734 -0.018731063
000370 87 52 5f bc d7 59 2c bc a2 0c 23 bd 5d fa 92 3b
       -0.013630516 -0.010519466 -0.03980697 0.004485412
000380 8c 51 37 bd b1 c8 81 bd 72 77 6b bc 83 5f ea bc
       -0.044755504 -0.06337107 -0.01437174 -0.028609997
000390 bf 34 23 bd 01 a3 fe bc 81 42 d8 bc fd 6e b9 bd
       -0.039845224 -0.031083586 -0.026398899 -0.090543725
0003a0 6a 3a 66 ba d8 cf a1 bc 76 e6 00 bd 11 12 a3 3c
       -0.0008782508 -0.019752428 -0.031469785 0.019906076
0003b0 ba 8a 31 bc a0 c0 09 3d 8a d4 96 bc 22 69 f7 3c
       -0.010836298 0.033630967 -0.018411893 0.030201498
0003c0 ec 84 83 bc 6e b4 bb bc bc c1 64 bb c5 53 b1 3b
       -0.016054593 -0.022913184 -0.0034905514 0.0054115974
0003d0 30 e1 95 bc b6 f2 9a bc 6b dc 96 bb bf 9f d8 bc
       -0.018295854 -0.018914562 -0.0046039126 -0.02644336
0003e0 35 6d bd bb 42 b0 43 3c 8d 3c bc bc 39 ed 53 3c
       -0.0057808408 0.011943879 -0.022978092 0.012934976
0003f0 9f 24 98 bc 20 73 f9 bc a3 ee 81 bb 00 68 a9 35
       -0.01857215 -0.030450404 -0.0039652153 1.2621749e-06

network_body._body_endoder.seq_layers.0.weight f4 [256, 456]
000000 19 22 00 3d 7f 64 2f be 1b 96 39 bc 44 6d e0 3d
       0.031282518 -0.1712818 -0.011327292 0.10958341
000010 89 88 e9 bb 98 00 92 3c 2c 7d 26 bc 7e 3a f5 bd
       -0.007126872 0.017822549 -0.010161679 -0.11974047
000020 9d ea 00 3d 57 1c b3 bd 53 5f 66 3d 06 ea 55 3d
       0.031473745 -0.0874564 0.056243252 0.052225135
000030 71 de 76 3d d8 c8 d4 bc 58 8b 38 3c 32 38 5c 3d
       0.06027073 -0.025974676 0.011263691 0.05376453
000040 5a e3 0f be 38 54 ac ba 0e 76 32 3d f0 3d 94 bd
       -0.14051571 -0.0013147658 0.043569617 -0.07238376
000050 8c 16 cf 3d 04 81 3f 3d fd 1d 63 3d 5f 86 bf 3d
       0.10111722 0.0467539 0.05544852 0.09351801
000060 52 4f 52 bd fc 7e bf 3d 2e 48 ec bd 91 c2 b2 3d
       -0.051345177 0.09350392 -0.11537205 0.08728517
000070 3b b5 a5 bd 06 7c fe bd 69 18 fd 3d c4 a7 68 3c
       -0.080912076 -0.12425999 0.123581715 0.014200155
000080 e0 91 ac bb f1 83 03 3e cf 1c 44 3d 25 3e c5 3d
       -0.005266413 0.128433 0.047879037 0.09630994
000090 a8 2f 51 3d 02 68 87 bd 92 a4 2c bd 3b 1f dc bc
       0.05107084 -0.06611635 -0.042149134 -0.02687036
0000a0 25 63 8f 3d 3d a8 84 3d 40 0e 84 3d b0 49 8d 3d
       0.07001332 0.064774014 0.064480305 0.068988204
0000b0 67 ed b5 3d dd ba 3a bd 19 10 ff bd 6f 8f fb bc
       0.088831715 -0.045588363 -0.12454242 -0.030708043
0000c0 6f 80 ef 3c 32 be 69 bc 05 65 7b bb 40 cc 62 bb
       0.029236047 -0.0142665375 -0.0038359773 -0.0034606606
0000d0 86 ad ad bc f3 74 76 bd b9 32 59 3d 53 c0 91 3d
       -0.021200906 -0.060170125 0.05302689 0.07116761
0000e0 05 8f 01 3c 7d ae ca 3c a9 bc 04 be 96 00 fa bd
       0.007907634 0.024741406 -0.12962593 -0.12207143
0000f0 d1 16 f9 3d f8 2a d2 3d d5 d8 93 3d 96 23 22 3e
       0.12162555 0.10262102 0.07219092 0.15833887
000100 5d d3 cd bd 7e cc f8 bd 54 7d 93 3d 36 33 2b 3c
       -0.1005008 -0.12148379 0.07201639 0.010449221
000110 86 23 21 bc 14 8b 47 3c f6 0c ac 3c 1b 3a 58 3d
       -0.00983513 0.012179155 0.021002274 0.05278979
000120 4b 1d 8e 3d c1 f2 62 be 32 9d c4 3c 46 ea 38 3d
       0.06939181 -0.22162916 0.024000738 0.045145296
000130 ce 2c 40 3d 3a 28 93 bd 83 e9 31 bd 81 35 fc 3b
       0.04691773 -0.07185407 -0.043435585 0.007696808
000140 ff 49 4f bd 05 d7 0e 3d 90 50 e1 bb 91 e4 b8 bd
       -0.050607678 0.034873027 -0.006876059 -0.090279706
000150 5c 9e 02 3d ff ea 86 bd 34 d6 10 39 da 20 9b 3a
       0.031889305 -0.06587791 0.00013812707 0.0011835352
000160 90 06 32 3d 12 91 03 3d 17 92 02 3c eb 8d 27 bd
       0.04346329 0.03212077 0.007969401 -0.040906828
000170 23 28 c9 bd 55 08 bd 3d c9 a4 53 3c c6 18 19 bd
       -0.098221086 0.09230105 0.012917706 -0.03737714
000180 61 f4 f0 3d 75 40 02 bd 6a b7 ef bc 00 29 c1 3d
       0.117653616 -0.031799752 -0.029262263 0.09431648
000190 87 87 0a 3e 68 8c 8e 3d bd de 7c 3d cf f3 c1 bb
       0.13528262 0.06960374 0.061735857 -0.005918957
0001a0 e9 20 46 bd 54 b3 b0 3d fd 02 67 3c 63 3c c6 bc
       -0.04837123 0.08627954 0.014099834 -0.024198717
0001b0 65 55 b3 3d 73 16 99 3d 46 00 00 3e d9 d9 83 bd
       0.08756522 0.07474985 0.12500104 -0.064380355
0001c0 87 50 81 bd 26 fc 38 bc ec af 6c 3c e7 cf fb 3d
       -0.063141875 -0.011290586 0.01444624 0.122955136
0001d0 18 b7 67 3d 60 d4 e5 3d a5 cb d0 bd df 63 28 bc
       0.056571096 0.11222148 -0.10195092 -0.010277717
0001e0 04 b6 41 3e 97 48 3f 3e d4 dc 54 bc c5 47 d4 bd
       0.1891709 0.18680035 -0.012992103 -0.103652515
0001f0 af 8b 15 be 3b d1 89 bd 28 da 74 3c 6f 3f ec 3d
       -0.14604066 -0.06729361 0.014944591 0.115355365
000200 bb 12 fb bd 61 cf de bc ed 08 b8 bc 1f 6a 1d be
       -0.12259432 -0.027198495 -0.022465194 -0.15372513
000210 a0 a6 c4 3b 31 ad 61 bc d5 cc 5c 3d f8 2f e7 bc
       0.0060013086 -0.013774202 0.05390628 -0.028221115
000220 e6 6a 7f bd c3 34 4e bd 4e 4c f8 bc 8a 3d 15 be
       -0.062357806 -0.050343286 -0.030309822 -0.14574257
000230 60 5b 1f 3d 39 cc da 3d 77 7c a8 3d 10 64 c8 3c
       0.0389055 0.10683484 0.08226865 0.024461776
000240 3d dd de 3b 3b 68 64 bd 13 bc 51 be 43 83 af 3c
       0.006801276 -0.055763464 -0.20481901 0.021424895
000250 d3 f8 d0 bd fa 4e c2 3c f9 28 1d 3d b2 4a 2e bc
       -0.102037095 0.0237193 0.038369153 -0.010637926
000260 53 36 1f bc 8b 1a 87 3d ae 62 0e 3d cd 43 be bb
       -0.009717542 0.065968595 0.034762077 -0.0058064223
000270 8e 45 fd 3b cd fb 9e bc 36 2f 13 bd d2 d6 40 3d
       0.007729239 -0.019407177 -0.035933696 0.04707987
000280 59 51 c0 bb a5 83 ad bb 98 15 81 3c e7 95 99 3c
       -0.0058690724 -0.0052952343 0.015757367 0.018748237
000290 75 19 df 3c d0 7f 05 bd 51 66 8b 3d ff 40 8b 3d
       0.027233819 -0.032592595 0.06806625 0.067995064
0002a0 40 73 ec 3c 4b cd 9c bd 77 b1 80 bd 29 88 c3 3d
       0.02886355 -0.07656344 -0.06283849 0.09547455
0002b0 3b cc da bd 56 26 c3 bd eb 53 38 3e 2c 90 0b 3e
       -0.10683485 -0.095287964 0.18000762 0.13629216
0002c0 f3 c0 01 3c f5 a8 37 bc 38 35 0c be 06 60 11 3c
       0.007919538 -0.011209716 -0.13692176 0.008872991
0002d0 3c 4b 57 3d f2 87 26 3c 66 85 0e bc ee b5 13 3e
       0.052561983 0.010164248 -0.008698797 0.1442487
0002e0 cf be 35 be 27 49 47 be fb e2 ae 3d 95 d2 00 3e
       -0.17748569 -0.19461499 0.08539387 0.1258033
0002f0 3a 5e 05 be 06 de 7d bd d6 db d8 3c ba df 81 bc
       -0.13024226 -0.061979316 0.026472013 -0.015853751
000300 58 af a2 3d ec c4 b1 bd 9c c2 0e be 57 e3 a7 3d
       0.079436004 -0.08680138 -0.13941425 0.081976585
000310 29 20 16 be 9d df 1c be 97 e4 db 3c 14 2e 85 bd
       -0.14660706 -0.15319677 0.026842399 -0.06502929
000320 e7 ba ec bd f2 3a 8a 3d b5 fc 1e 3c 18 cd 1b bd
       -0.11559086 0.06749524 0.009703805 -0.03803739
000330 97 e3 d8 bd 18 b5 bc bd d7 b8 d0 3d b3 f5 fe 3d
       -0.10590284 -0.092142284 0.101915054 0.12449207
000340 8c 02 05 3c fa 83 ee 3d b3 d3 ab bd 3e 82 59 be
       0.008118283 0.11646266 -0.08389988 -0.2124109
000350 35 4e 57 3b 8b d8 08 3e 77 ff 95 3c 23 ee e5 3d
       0.0032853012 0.13363855 0.018310292 0.112270616
000360 4c e0 7e 3d f6 83 e2 bd c2 30 a1 3d ef 54 ec bc
       0.062225625 -0.11060326 0.07870628 -0.028849093
000370 f0 99 be 3c 53 07 50 bc 1f 77 92 3d fd 71 84 be
       0.023266762 -0.012697059 0.07151627 -0.25868216
000380 aa 46 52 3d dc c5 b7 3d 7d 53 9a 3d 4a d6 b3 3c
       0.05133692 0.089732856 0.075354554 0.021952767
000390 82 d8 d2 3c cc 8d 9a 3b d9 29 c2 3d 3d 6b 75 3d
       0.025738005 0.0047166105 0.09480638 0.059916724
0003a0 7a 47 e1 bb 48 e7 5e 3c f2 07 c6 3d 1c 01 b1 bd
       -0.0068749757 0.013604946 0.09669484 -0.0864279
0003b0 f4 fa 04 3d 31 bd 13 3e 35 00 8e 3d e0 c0 40 3d
       0.03246589 0.1442764 0.06933633 0.04705894
0003c0 78 93 b4 3d 24 6e 4a 3d 76 a4 d9 bd ad a7 6e bd
       0.0881719 0.049421445 -0.106270716 -0.058265377
0003d0 6b f9 1e be 24 c2 cd bb a0 1f 54 bd e1 a1 09 3d
       -0.15524833 -0.006279247 -0.051787972 0.033601645
0003e0 fd f3 80 3d ab 49 28 3e 47 cf 05 be 9f 27 3b be
       0.06296537 0.16434352 -0.13067351 -0.18276833
0003f0 a7 97 cf 3c 61 5c 7f 3e 18 c6 4e be 1d 9f 11 3e
       0.025340868 0.24937584 -0.20192754 0.14220853

network_body._body_endoder.seq_layers.2.bias f4 [256]
000000 32 b5 55 bc ab ae 45 bd ec 28 42 3b f4 c3 a6 3a
       -0.013043689 -0.04826228 0.0029626442 0.0012723194
000010 01 29 ac bc ff ef 22 3c fe ba b4 bd b3 14 74 bd
       -0.021015646 0.009944915 -0.088247284 -0.059590053
000020 20 6f 30 bc ed 86 18 3d 37 40 ce bc 4d d5 1a bd
       -0.010768682 0.03723805 -0.025177104 -0.037801076
000030 6a 30 e4 ba 56 2e 9f bc 00 ef 95 bd 63 f1 83 bd
       -0.0017409448 -0.019431274 -0.07320976 -0.06442525
000040 cc be d1 bc a9 08 fd 3c 85 91 ea bc 1e 61 39 bd
       -0.025603674 0.030887919 -0.028633842 -0.045258634
000050 71 f3 25 bd 4f c2 cf bd 55 c2 91 3c ff 4c 21 bd
       -0.040515367 -0.10144483 0.01779286 -0.03938007
000060 f8 21 c0 bc 21 6b 8d bd 96 09 e2 bb 37 a6 b3 bc
       -0.023453698 -0.06905199 -0.0068981154 -0.021929843
000070 29 c7 cd 3c c0 b6 66 bd 45 15 6f bc 96 91 7b bc
       0.025119381 -0.056326628 -0.014592473 -0.015354535
000080 e9 20 cd bd 1b 14 98 bd 0f 1f 05 bd a2 58 a3 bc
       -0.10016043 -0.0742571 -0.032500323 -0.019939724
000090 7f ea 2b 3d ed ea 7a bd a2 96 17 bd c2 ab 66 3c
       0.04197168 -0.0612592 -0.03700889 0.014079036
0000a0 88 a9 cd 3c d6 0e bf bd 7a e6 af 3c f7 2d 14 bd
       0.025105253 -0.093290016 0.021472204 -0.036176648
0000b0 9c 1a 46 3d 98 5d b5 bd c9 50 9b 3c 36 b4 44 bd
       0.04836522 -0.08855742 0.01895942 -0.048023425
0000c0 d3 49 b9 bc b4 12 60 bd f5 d1 88 bc 88 85 5a bd
       -0.02261821 -0.054705337 -0.016701678 -0.05335
0000d0 b2 5c 2e bd 5b 27 8b bd 67 78 6c bc 26 dd 4b bd
       -0.04256887 -0.06794616 -0.014433003 -0.04977145
0000e0 99 3a e8 bc 87 41 9b bd 1c 48 cc bc b2 cc 9e bd
       -0.028348254 -0.07580858 -0.024936728 -0.07753886
0000f0 ac 5a ab bb ac 87 54 3c d0 27 ba 3b 53 12 d7 bc
       -0.005229315 0.0129718 0.0056810156 -0.026253855
000100 7b 37 71 3c 81 69 5d bc 27 64 7e bd 8c 7c 9d bd
       0.0147227 -0.013513924 -0.06210723 -0.07689771
000110 33 98 b8 bd 0f 89 ff 3b be cc 2c bc 10 fc ee bb
       -0.09013405 0.007798321 -0.010546861 -0.007293232
000120 75 ce c0 bc 2a 46 a4 3c fc 8f 96 bc 15 02 71 bd
       -0.023535946 0.020052988 -0.018379204 -0.058839876
000130 21 77 73 3c 92 e7 f8 3c 4c 18 ad 3c 5a ad 7b bd
       0.0148599455 0.030383859 0.02112975 -0.061444618
000140 59 f8 c7 3c 83 4e b9 bc 1f a1 05 bd 35 ba 93 bd
       0.024410414 -0.022620445 -0.03262436 -0.072132505
000150 69 51 7f bd 62 72 06 bd 22 cc 04 bd 86 96 a8 bd
       -0.0623335 -0.032823928 -0.03242124 -0.08231835
000160 4d 4b 28 bd 7d 7d a6 bd ef 37 41 bd 0b 81 f4 bc
       -0.041087437 -0.08129404 -0.047172483 -0.029846689
000170 35 5f 81 bd ab cb 8c bc 2f 1e 89 bd 8f 3b 5b 3d
       -0.063169874 -0.01718696 -0.0669521 0.053523596
000180 53 3d 76 bb ed ad 10 bd bd 54 dc bc 08 71 a8 3c
       -0.0037573173 -0.03532212 -0.026895875 0.02056171
000190 71 63 a8 bd e6 7c a8 bd 11 0d ba bc 06 34 2a bd
       -0.08222092 -0.082269475 -0.022711309 -0.04155352
0001a0 3d cf de 3c 8d 29 4c bd 32 d9 6d bd a6 5a ec bc
       0.027198428 -0.049844313 -0.05806846 -0.028851818
0001b0 35 1a f7 bc d5 8a 58 bd f4 44 13 3c ff 71 01 bd
       -0.030163864 -0.052866776 0.008988608 -0.031602856
0001c0 fb 53 c0 bc 53 99 9a 3c f4 2b 24 3c d4 51 74 3c
       -0.023477545 0.018871939 0.010020245 0.0149120875
0001d0 89 8e 2f 3d ec 65 ed ba 03 64 f3 bc 08 ac 3f bc
       0.04286054 -0.001811204 -0.029710775 -0.01169873
0001e0 af 8a 55 bd 36 50 a4 bc 09 77 87 bd 95 8c 98 bd
       -0.052134212 -0.020057779 -0.06614501 -0.07448689
0001f0 18 4d 49 bd 24 34 8e bd 6d 04 98 bd d9 f6 95 bc
       -0.049145788 -0.06943539 -0.07422719 -0.018306183
000200 d4 79 8b bd d5 c6 4e bd 13 1d 99 bd a5 3b 1f bd
       -0.06810346 -0.05048259 -0.074762486 -0.03887524
000210 8d bf d6 bc f3 a1 e6 bc 21 21 92 bd 6f d4 3d bd
       -0.026214385 -0.028153395 -0.07135225 -0.04634517
000220 21 e7 0c bc ca 3b 4b bd de b0 d7 bc 19 56 07 bd
       -0.008600027 -0.049617566 -0.026329454 -0.033041093
000230 cc 89 4e bc 48 8a 56 bc be a4 2d bd e1 54 72 bd
       -0.0126060955 -0.013094492 -0.04239344 -0.059162978
000240 69 f8 b9 bd 94 c8 ee bc a7 c4 c1 bb 8a d8 80 bd
       -0.090805836 -0.029148377 -0.0059133354 -0.062913015
000250 3a ea 38 bc b0 37 9d 3c 2b 3d 48 bd 9e a4 24 3c
       -0.011286313 0.019191593 -0.04888646 0.010049013
000260 7e dc ea bd cc 5c f2 bb 0d fd 32 bd 9d a8 e6 bc
       -0.11467837 -0.007396316 -0.04369836 -0.028156573
000270 84 37 6f bd b7 f5 0d bd 85 8f a9 bd 9f d8 36 bd
       -0.058402553 -0.03465816 -0.08279327 -0.04464018
000280 f2 4e 69 bd 0a a2 3e bd 82 59 59 bd 3e 3b 17 bd
       -0.056960054 -0.04654125 -0.053063877 -0.036921732
000290 c8 9a 1d bd 32 f9 f0 bc 59 09 49 bd ef fa b3 bc
       -0.03847769 -0.0294157 -0.04908118 -0.02197024
0002a0 d4 a8 b4 bd 59 f1 dc bc ef 14 44 bb 67 fd 08 bd
       -0.08821264 -0.026970552 -0.0029919704 -0.03344479
0002b0 b6 36 1e bd b3 40 c3 bc 35 69 c6 bb a0 e3 40 bc
       -0.038626395 -0.023834562 -0.006055022 -0.01177302
0002c0 d6 90 8d bd 3c 0d bb bc 10 5d bf bb c7 ce 8a bd
       -0.06912391 -0.02283346 -0.0058399513 -0.06777721
0002d0 da e9 60 bd dd a3 a9 bd 52 b1 57 bd 35 08 34 bd
       -0.05491052 -0.082832076 -0.05265934 -0.04395314
0002e0 16 0d 20 bd eb 92 be 3c cd f8 7c bd 50 58 95 bd
       -0.03907498 0.023263415 -0.061760712 -0.07292235
0002f0 b6 83 75 bd 1b b2 6e bd 5a 97 13 bd b2 5c 4a bd
       -0.059940062 -0.058275323 -0.036033012 -0.049404807
000300 41 88 3e bc fc 40 ca 3b b5 e9 9f bd 75 14 92 bc
       -0.011629165 0.0061722975 -0.07808248 -0.01783202
000310 3d b9 ec bc f9 6b 08 bd 13 40 00 bb a8 0c 02 bd
       -0.028896922 -0.033306096 -0.0019569441 -0.03175035
000320 d6 57 60 bd 40 63 8c bd 66 31 f7 bc 94 94 aa bd
       -0.054771267 -0.06854868 -0.030174922 -0.0832912
000330 14 3a 41 bd ea f4 ac bc 85 43 6c bd ff 0d c2 bb
       -0.04717453 -0.021112878 -0.05768158 -0.0059220786
000340 ca 77 0a bd 2f bb 9a bd 75 33 c6 3a b4 43 d6 bc
       -0.033805646 -0.07555234 0.0015121537 -0.02615533
000350 22 9e 43 bd 8e a7 1c 3c 3b 04 94 bc 7a a2 00 bd
       -0.04775823 0.0095614325 -0.018068423 -0.03140495
000360 3b a8 96 bc e4 d6 7d 3b ad b5 28 bd b4 69 2c bd
       -0.018390765 0.003873282 -0.041188885 -0.042092994
000370 08 bd a1 bd a9 0e 37 bd 5d 6b e3 bc c6 04 1e bd
       -0.07897383 -0.044691715 -0.027761156 -0.03857877
000380 40 f6 5a bd f5 ba f8 3b df f6 80 3c 93 b9 75 3c
       -0.0534575 0.0075906464 0.015742717 0.014997858
000390 ac 13 2e bc e1 ff 39 bd 22 3a c0 bc d9 1d e8 bc
       -0.010624807 -0.04541004 -0.02346522 -0.028334545
0003a0 cb bd 7d bc fe d7 e2 3c 26 3b fc bc d1 73 6e bd
       -0.015487145 0.027690884 -0.030789923 -0.05821592
0003b0 b2 2f 8b bc 00 dd 6c bd f2 f3 5d bd 08 e8 82 bc
       -0.016990516 -0.05782795 -0.054187723 -0.015979782
0003c0 6a 88 1d bd d6 5b 2c bd 33 16 bb bc 84 2b 1b bd
       -0.038460173 -0.04207977 -0.022837734 -0.037883297
0003d0 50 25 2c bd 67 17 0b bc 87 99 c2 3b 01 81 a6 bd
       -0.04202777 -0.008489466 0.005938712 -0.08130074
0003e0 00 23 6f bb 5a 05 b7 bd aa 30 5a bc 4d 69 2d 3c
       -0.0036489367 -0.089365676 -0.0133172665 0.010584188
0003f0 59 99 89 bc 90 40 9a bd aa 1c cd bc 85 be 6f bd
       -0.016796755 -0.075318456 -0.025038082 -0.058531303

network_body._body_endoder.seq_layers.2.weight f4 [256, 256]
000000 60 0a 41 3d 86 1b 7b 3d b9 a4 c0 bd 07 c1 78 3d
       0.047129035 0.061305545 -0.09406418 0.06073096
000010 ef a9 99 3d 25 e8 3b 3d 07 6e cc bd db d7 18 bd
       0.075031154 0.045875687 -0.099819236 -0.03731523
000020 0a 33 f7 bc c6 c1 da bd 55 2a 9f 3c 9a 58 65 3e
       -0.030175705 -0.106814906 0.019429365 0.2239708
000030 08 17 79 3d 87 90 97 3e 36 53 e1 3c c7 53 d1 bd
       0.06081298 0.29602453 0.027505498 -0.102210574
000040 5a 58 38 bd e6 b6 46 3d e0 2b f1 bc c6 eb c5 bb
       -0.045006134 0.04851427 -0.029439867 -0.0060400693
000050 60 73 db 3a b5 3c d5 bd 77 45 4c 3c 80 c9 df 3d
       0.0016742758 -0.104119696 0.012467734 0.10927105
000060 6d 17 89 bc ed 94 d3 3b b7 12 fb 3d 19 1d c4 bd
       -0.016734803 0.0064569623 0.12259429 -0.095758624
000070 1c a1 05 3d 2e 24 cc 3c 04 c0 d4 3d 30 36 db 3d
       0.03262435 0.024919596 0.103881866 0.10703695
000080 5f 3a ce 3d e5 dd 2d 3d 37 e7 1b 3e ac d2 3d bd
       0.10069727 0.042447943 0.1522492 -0.04634349
000090 e5 cd 8c bd 5c 94 16 bd d9 ee 71 bd 6e c6 3c bd
       -0.06875209 -0.03676258 -0.059065674 -0.046087675
0000a0 8d b2 9e 3d d1 8d fc bc 42 ea aa bd e4 5e 80 bc
       0.077488996 -0.030829342 -0.083454624 -0.015670247
0000b0 f6 91 37 3e 19 55 18 be f1 7b 49 bc 51 80 47 bd
       0.17926773 -0.14876212 -0.012297616 -0.048706356
0000c0 c3 c4 d5 3d 5c 2e 3a bd 3b e0 dd bd fb 5e 4c 3d
       0.1043792 -0.045454368 -0.10833784 0.049895268
0000d0 5a 52 e4 bc af 7d 4f 3e 14 a8 dd 3b db 7c c2 bc
       -0.0278713 0.20262788 0.0067644212 -0.023741176
0000e0 be b0 48 be ed 07 02 3e 04 92 d9 bb 7e 03 50 be
       -0.19598672 0.12698336 -0.006639721 -0.20313832
0000f0 b4 fe 98 bd b0 0d fb 3d 7e a2 d4 bd 4f 88 8c 3c
       -0.07470456 0.1225847 -0.103825554 0.01715484
000100 2a 9e 08 bd a9 50 9c 3c a1 b2 2e bd b1 75 0b be
       -0.033353962 0.01908143 -0.042650823 -0.13619114
000110 3f bc 22 3e f1 7a 16 3d e6 8a 6f 3d e1 f8 24 3d
       0.15892123 0.03673834 0.058482073 0.040276412
000120 25 9a 88 bd f5 74 df 3d 1e 25 6e bd ff 18 8e bd
       -0.06670026 0.1091098 -0.058140866 -0.069383614
000130 da e6 05 3e d7 e0 2a 3e c4 5a 99 bd bd fb 4f 3b
       0.13076344 0.16687332 -0.07488015 0.003173574
000140 b1 f2 2d 3e 3e 98 d9 bc c6 bb 0d be 2e ac fa 3b
       0.1698711 -0.026561853 -0.13841161 0.00764992
000150 11 5e 8f 3c c3 c7 f3 bd 18 e0 f7 ba e4 46 8a bd
       0.017500909 -0.11903336 -0.001891139 -0.067518026
000160 9a 56 59 3d 40 c2 f3 bc b8 2e d0 39 d4 ed 51 bd
       0.053061105 -0.029755712 0.0003970766 -0.0512522
000170 1c 99 af bd 98 fa c3 bd 2e 91 2b 3e 6c 73 24 bd
       -0.08574125 -0.09569281 0.167546 -0.040149137
000180 7b 53 51 bb 42 c8 b8 ba 3a 3f 81 bd 62 a8 09 3d
       -0.0031940627 -0.0014097767 -0.06310888 0.033607848
000190 d9 2d 1a 3e a7 43 a1 bd a5 49 22 be 47 f9 2d 3d
       0.15056552 -0.07874232 -0.15848406 0.042474058
0001a0 ee bf 47 bd b4 ca 4f be ca 38 9a bd 3f d6 17 be
       -0.048767023 -0.20292169 -0.07530363 -0.14827822
0001b0 96 5e ae 3d ee a4 d8 bd 43 dc e9 bd b7 4a 84 bc
       0.085141346 -0.10578333 -0.11418965 -0.016148908
0001c0 0d 1b 6b bc 7b 42 98 bc 8e 4c 30 3d c4 3f ed 3d
       -0.014349711 -0.018586388 0.04304176 0.11584428
0001d0 71 96 a9 3d a8 d4 32 3c 07 bb 3e 3e ff c4 90 3c
       0.082806475 0.010914959 0.18626033 0.01767206
0001e0 94 d9 a2 3d a6 41 05 bc 72 71 b4 bd 43 ec b8 3b
       0.07951656 -0.008133328 -0.088107005 0.005643399
0001f0 09 c9 c8 bd 37 81 c9 bd de 1a 90 bd cd a3 4a bd
       -0.098039694 -0.09839099 -0.070363745 -0.04947262
000200 0a 58 d0 bd 52 33 0e 3d c8 ed bc 3d a9 ac 2f 3d
       -0.10173042 0.03471691 0.09225041 0.04288927
000210 9f 74 32 3d 68 8d 98 3c e2 38 1a be b1 a0 bb 3d
       0.04356825 0.018622115 -0.15060762 0.09161509
000220 51 97 48 bd 8f 5d 83 be 99 f3 3b bd de 0e 9a bd
       -0.04897243 -0.25657317 -0.04588661 -0.07522367
000230 9a 76 8a bd 6c 09 1c 3d a4 b4 e2 bd d8 7e 1d 3c
       -0.06760903 0.038094923 -0.11069611 0.009612761
000240 d1 09 ea 3b 50 31 1f be 82 3a 01 3e 3a 90 ae 3c
       0.0071422835 -0.15546155 0.12619975 0.021309007
000250 c5 a4 f2 3d 94 6c c0 3d 3d 31 e2 3c 83 5c b7 bc
       0.118478335 0.0939571 0.02761137 -0.02238298
000260 0a e1 95 3d 83 0c 8f bd fd 0c c3 bd 6f db 33 bd
       0.073183134 -0.06984808 -0.09523962 -0.04391044
000270 17 f5 13 3e 04 d1 0f 3d 0c a6 6b bc 6f bc c3 bd
       0.14448963 0.035111442 -0.01438285 -0.09557425
000280 4e e9 29 38 ef 76 b3 3d 7d 58 93 bd 9b 17 2a bd
       4.051002e-05 0.08762919 -0.07194612 -0.04152642
000290 53 19 3b be 5f 73 8d 3d d4 fa 6a 3e 3c ae c7 bc
       -0.18271379 0.06906771 0.22947246 -0.024375074
0002a0 3d 16 d0 3c 03 e3 55 be 0a 93 8d bd d3 f4 98 3d
       0.025401229 -0.2088738 -0.06912811 0.074685715
0002b0 f2 5e 19 3b 18 ef 52 be 54 e8 9f bc ac 57 d4 bd
       0.002340254 -0.2059902 -0.019519962 -0.103682846
0002c0 50 6d 82 3c 82 5a 90 bb 7c ef 00 3e 1d ad e5 bd
       0.015921265 -0.0044053206 0.12591356 -0.11214659
0002d0 d1 a4 87 bc bb bb 64 3c 80 d3 88 3d fb 45 89 3d
       -0.016558083 0.013960774 0.066809654 0.06702801
0002e0 26 f3 03 3e 1c 06 ee bd 39 28 20 3d 79 7a 03 3e
       0.12885723 -0.11622259 0.03910086 0.12839688
0002f0 55 ef 06 3e f6 9d f7 bd 72 7f 49 bd 66 d9 8e bd
       0.13177235 -0.120906755 -0.049193807 -0.06975059
000300 eb 09 3b 3e 51 e9 92 3d 26 ef 8c 3c 8f 61 b6 bd
       0.18265502 0.07173408 0.017203879 -0.089053266
000310 cb 17 c3 bd c1 80 68 3d 7e 5d 0a be b3 fa 34 bd
       -0.095260225 0.056763414 -0.13512227 -0.044184398
000320 79 45 88 bc 15 c9 b1 bd 56 c1 b7 3d b0 ea c5 bd
       -0.01663469 -0.086809315 0.08972423 -0.09663904
000330 26 b8 07 bb 4b 96 18 be d7 1e 9b bb 4a 1a cc bc
       -0.0020709126 -0.14901082 -0.004733901 -0.02491488
000340 73 cb 0e 3e fe 44 a6 bd 6f 82 20 3c 75 32 09 3e
       0.13944797 -0.08118628 0.009796723 0.13398154
000350 a2 1c 09 3d 92 3f d4 bd 17 01 fd bd ee 9d 4c be
       0.033474572 -0.103636876 -0.123537235 -0.1998212
000360 98 57 78 bd 9c 53 80 3d 59 48 dc bd 45 07 97 3d
       -0.06063041 0.06265947 -0.10755987 0.073744334
000370 17 67 35 3d 14 61 06 bd f6 09 3a bd 2f dc b9 bd
       0.044287767 -0.032807425 -0.045419656 -0.090752
000380 40 10 2e bd 78 2a 08 bd 13 ce 6f 3c 6a e5 71 bd
       -0.042495966 -0.033243626 0.014636534 -0.059056677
000390 52 cf 0d 3d 20 23 a9 bd c5 6f 65 bd af 16 dd bc
       0.034621544 -0.08258653 -0.056014795 -0.026988355
0003a0 3f 76 ee 3c 2f fa 57 bd 45 c3 ce bd d6 3e 16 be
       0.029109119 -0.052728828 -0.100958385 -0.14672408
0003b0 f5 07 6f bd 11 f5 ad 3d f3 21 5b bd 34 31 02 3c
       -0.058357198 0.08494008 -0.053499173 0.007946301
0003c0 6b b4 90 bd e7 93 9b 3d 8b 85 9b 3c be 01 79 bd
       -0.07065662 0.075965695 0.018984577 -0.060792677
0003d0 5a 9a 7f bc 9a 88 dd bd a7 68 f1 3c 19 35 a5 bd
       -0.015600765 -0.1081707 0.029468847 -0.08066768
0003e0 5d 59 2e 3d c8 c3 44 be e4 f8 e8 bd 3f 70 f6 bb
       0.042565692 -0.1921531 -0.11375597 -0.007520705
0003f0 eb 14 34 3e 63 4f dc bd f4 12 6c bd 14 89 16 be
       0.17586105 -0.10757329 -0.057635263 -0.14700729
