DalekStepsR12/Assets/MyModels/R4DalekBehavior.onnx (onnx, 739093 bytes, 9 tensors)

action_model._discrete_distribution.branches.0.bias f4 [3]
000000 3a aa 29 bc fc 71 94 bc 6a 23 f7 3c
       -0.010355527 -0.018120758 0.030168254

action_model._discrete_distribution.branches.0.weight f4 [3, 256]
000000 1b 98 1a bd 35 16 c6 3c 8a 7a 82 bd aa 1e 9f 3c
       -0.037742715 0.024180511 -0.06371029 0.019423801
000010 4c 30 0c 3c df ed d9 3d ee b8 a2 3c 66 82 e8 3c
       0.008556437 0.106410734 0.019863572 0.028382491
000020 73 44 95 bd b8 21 cc bc a9 fa 0a 3d 91 77 7a 3d
       -0.07288446 -0.024918422 0.033930454 0.061149184
000030 18 f9 7c bd 5d 0f 8c 3d 35 35 74 bc 8c d0 06 3d
       -0.06176099 0.06838868 -0.014905264 0.03291373
000040 6b b7 8e bd f9 a8 9b 3b 2a ea 2a bd 1c a6 4b 3d
       -0.06968578 0.0047503677 -0.041727223 0.04971896
000050 e5 d8 fe bd 20 a0 d6 bc 01 bd 37 bd 1f 9d 33 3d
       -0.12443713 -0.0261994 -0.044857983 0.043851014
000060 5f f1 50 bc 31 14 01 be 7f e4 90 bd 29 c3 55 bd
       -0.01275286 -0.12605359 -0.07074832 -0.052188072
000070 54 d5 96 bc c1 92 af 3d 96 fe 36 bc a3 65 84 bb
       -0.01841227 0.08572913 -0.011169096 -0.0040404364
000080 60 36 b9 3c 62 f1 24 bc 80 97 8c bc e5 ea a7 3b
       0.022608936 -0.010067316 -0.017162085 0.005124437
000090 7a 29 9a 3d bf 66 81 bc a7 18 52 3d d5 80 ad 3c
       0.07527442 -0.015796063 0.05129304 0.021179596
0000a0 76 ba f6 bd d6 98 d9 bd e7 2e 92 bd 9c 4b 13 3d
       -0.12047283 -0.10624854 -0.07137852 0.03596078
0000b0 3f aa 28 be 2f 6e c4 bd 83 df 26 3d 19 5d 5e bd
       -0.16471194 -0.09591328 0.0407405 -0.054288004
0000c0 0c 96 95 bd 49 86 38 3d 84 b4 73 3d 42 5e ea 3b
       -0.0730401 0.04504994 0.059498325 0.0071523497
0000d0 9d 90 36 3c 7e 3d 11 3d 49 79 83 bc b1 66 7d 3d
       0.011142877 0.035459034 -0.016049044 0.061865512
0000e0 6e a6 1b be 7e 20 af bc 5e 53 92 3d 21 0a 43 bb
       -0.15200207 -0.021377798 0.07144807 -0.0029760676
0000f0 6a ed 65 3c 11 ab c8 3c 0b fe 6f 3b e8 40 c9 bc
       0.014033655 0.024495633 0.0036619927 -0.024567083
000100 01 2b 9f bd 5d aa cf bd 8e 57 21 bb e6 e5 05 be
       -0.07771874 -0.10139916 -0.0024618837 -0.1307598
000110 f1 0a c9 bc c0 3c 06 be 43 99 a2 bc 33 aa 36 be
       -0.02454135 -0.13109112 -0.019848472 -0.17838363
000120 bc 82 1e bd 0b 5b 23 be be dd 0b 3d 7e 1b e1 bd
       -0.038698897 -0.15952699 0.034147017 -0.10991572
000130 61 dc 5d bc 56 91 15 3d 92 01 66 3d 93 bf 82 bd
       -0.013541312 0.036515556 0.05615384 -0.06384196
000140 f0 df 7a bd 46 04 f6 3d a8 1d 12 bd 90 4b 48 3d
       -0.06124872 0.12012534 -0.035672814 0.048900187
000150 cc 61 32 bd ea a5 75 bc 0f 96 fc 3c ec 41 7a 3b
       -0.043550298 -0.01499317 0.030833272 0.0038186265
000160 96 1d 8f 3c 00 a8 d4 b8 1d 40 b9 bd 61 32 3c 3c
       0.017470162 -0.0001014024 -0.09045432 0.011486621
000170 53 75 7b bd e8 36 3c bd 72 6a 21 3d 2e 00 08 bd
       -0.061391186 -0.0459508 0.039408155 -0.033203296
000180 a0 5b f0 3b 83 05 15 3c 92 12 75 bd 63 2e 56 3c
       0.0073351413 0.009095552 -0.059832163 0.013072583
000190 fd 75 58 be 58 a1 55 bd b7 1c 11 3b 9b 17 d3 bc
       -0.21138759 -0.052155823 0.002214236 -0.025768092
0001a0 a6 4b 82 3c 27 a9 04 be d8 8f 88 3c 1b 34 70 bc
       0.015905213 -0.12955151 0.016670153 -0.01466086
0001b0 c8 4b 3b 3a ba 07 d3 3c 72 66 1f be 02 91 b5 3c
       0.0007144776 0.02576052 -0.15566424 0.022163872
0001c0 48 44 b3 3d 89 bc 7d 3d 90 26 c6 bc 0e 8b 24 bd
       0.08753258 0.06194738 -0.02418831 -0.040171675
0001d0 a1 3b 15 be c5 e3 84 bd 19 bb 35 3c 5c 3d a4 3c
       -0.14573528 -0.06488756 0.011091971 0.02004879
0001e0 ef cf e7 3b cb c5 9f bd ab a3 b4 bd 1a 4b fb 39
       0.007074348 -0.07801398 -0.0882028 0.00047930406
0001f0 50 38 15 3d bf 83 b9 3c d3 eb 98 bd 68 10 0d 3d
       0.036430657 0.02264583 -0.07466855 0.034439474
000200 6f 58 f6 b9 17 07 1e 3d 8c 24 e0 3c 58 22 e4 3c
       -0.00046986665 0.03858098 0.027361177 0.027848408
000210 82 ff 31 3c 6c ec b3 3c 0a e4 d1 bd 4a 53 39 bb
       0.0108641405 0.02196332 -0.10248573 -0.0028278404
000220 a9 31 b2 3c 12 b3 ba bc 2f af 39 bc 94 f9 92 bd
       0.021752195 -0.022790466 -0.011333271 -0.071765095
000230 dd 05 c2 bd 28 cf 07 bc a4 28 e6 bd c8 d4 46 bd
       -0.094737746 -0.008289136 -0.1123822 -0.048542768
000240 43 96 79 bb b1 27 b3 bb 03 fc 97 bb 79 f2 0f bd
       -0.0038083948 -0.005467378 -0.0046381964 -0.03514335
000250 7f 41 58 3d 3c 98 00 be c3 f1 85 3c 30 d9 5d 3b
       0.052796837 -0.12558073 0.016350633 0.0033851378
000260 3a 8f 28 3c 8f 2c 9a bc a8 ef 12 3c 04 03 a1 3c
       0.010288054 -0.018820075 0.008968271 0.019654758
000270 20 44 ed bd 23 a8 c6 bc 17 c0 b9 3c 89 5f 08 bb
       -0.115852594 -0.024250096 0.022674603 -0.0020808897
000280 19 eb 4d bd 3c 35 fd bd 51 c0 04 bd b6 e7 98 bc
       -0.050273035 -0.12363669 -0.03240997 -0.018665176
000290 53 21 36 3c 4d 4e da bc cd 01 a1 3c 68 38 ae b9
       0.011116344 -0.026648665 0.019654179 -0.00033229892
0002a0 8f ed 2a bc 76 50 d9 bc e0 27 af bd 0f 27 ce 3c
       -0.010432615 -0.026527625 -0.085525274 0.025165109
0002b0 ad 87 d8 3a 39 8e 30 be 14 36 dc 3d 50 96 12 bd
       0.0016519927 -0.17241754 0.10752502 -0.03578788
0002c0 70 46 00 bd 3c 40 08 3d 52 f1 99 3c 0c 87 f4 bc
       -0.031317174 0.033264384 0.018791828 -0.029849552
0002d0 ca 4c d3 bb f7 d5 f4 bb 96 91 e4 bd c1 da 29 3b
       -0.006448363 -0.0074717957 -0.11160581 0.002591774
0002e0 2d ce a8 bd 6a 65 17 bc f6 55 69 bc c1 b0 91 bb
       -0.0824245 -0.009240488 -0.014241686 -0.0044461195
0002f0 7a d7 db bd 56 49 43 bc f7 55 09 bd 0b 7a fc 3d
       -0.10734458 -0.01191934 -0.033529248 0.12327965
000300 a4 02 0a bd f1 0f 59 bd f2 d8 61 3c 29 fe 12 3d
       -0.033693925 -0.05299372 0.013784634 0.035886917
000310 76 dc f6 bd 35 dd 19 bb e4 30 3f bc 4e c8 0e be
       -0.12053768 -0.0023477797 -0.011669371 -0.13943598
000320 bd 17 9f bc 95 fd d3 bd 7a 62 b1 bd bf 26 b0 bd
       -0.019420499 -0.10351101 -0.08661361 -0.0860114
000330 98 e0 b2 3d c4 cf c3 bd 50 fa 54 3d b6 72 ad bd
       0.08734244 -0.095611125 0.05199653 -0.08469145
000340 78 98 c6 bc ac 15 87 bd da 35 45 bd 9c d4 e9 bd
       -0.024242625 -0.065959305 -0.04814706 -0.11417505
000350 a0 81 e7 bd bb 97 34 3c b6 c6 41 3d 62 de 3f 3d
       -0.11304021 0.0110225035 0.047308646 0.04684294
000360 39 0a 7a bd a2 15 59 3c 7c 14 1c 3d 35 40 d1 3b
       -0.061044905 0.013249787 0.038105473 0.006385828
000370 79 99 3e bd 52 08 c2 bd b3 d4 fa bc 41 70 db 3b
       -0.04653308 -0.09474243 -0.030619001 0.0066967313
000380 5b 17 cd bb 76 23 26 3d bf d2 ac bc f1 3b 3c 3d
       -0.0062588877 0.040561162 -0.021096585 0.045955602
000390 13 c3 20 be 92 12 90 b9 bd f3 88 bd 7d e0 43 bc
       -0.15699415 -0.00027479656 -0.066871144 -0.011955378
0003a0 85 c5 fd 3b 18 16 2f ba d9 af 01 bd 36 d3 35 bc
       0.0077444934 -0.00066790124 -0.031661842 -0.01109772
0003b0 98 ff 28 3d 91 60 74 bd dd c4 e9 bd b7 5d 0f 3d
       0.04125938 -0.059662405 -0.11414502 0.035001483
0003c0 1c 72 31 be 17 df 5b 3c 79 e6 e8 bb 12 83 35 3b
       -0.17328686 0.013419888 -0.0071075526 0.0027696532
0003d0 ae 20 57 bc bd 77 59 3a 05 55 b1 bd 44 38 ab 3c
       -0.01313035 0.00082957355 -0.08658794 0.020900853
0003e0 f8 7b b1 bd fa 6c f1 bc 00 18 77 3d 8a 9f e4 bc
       -0.08666223 -0.02947091 0.060325623 -0.027908105
0003f0 16 6d b6 3d 6f f1 9c 3c b4 09 81 bd a3 c6 6e bd
       0.08907525 0.019158093 -0.06300679 -0.058294903

action_model._discrete_distribution.branches.1.bias f4 [2]
000000 e5 26 6c bd 79 28 6c 3d
       -0.05765428 0.057655785

action_model._discrete_distribution.branches.1.weight f4 [2, 256]
000000 ed 5b c2 bc d3 0d 94 bd 3a d8 9d 3d f3 aa 90 3d
       -0.023725474 -0.07229199 0.077072576 0.07063856
000010 04 ec 7c 3c 3c d1 87 3d b2 ca a2 3c b4 3b 99 bd
       0.01543713 0.06631705 0.019872043 -0.074820906
000020 a9 1a d0 3c ca 26 ec 3c 75 19 ac bc 0d ec 82 bd
       0.025403338 0.02882709 -0.021008233 -0.06392679
000030 cf 1f b1 3c cf f0 a8 bd e5 84 e2 bd c5 0a cb 3c
       0.021621613 -0.082490556 -0.11060504 0.024785409
000040 83 75 48 3d 55 e7 12 3d 93 89 41 3c a5 ce a1 3b
       0.048940193 0.035865147 0.011812585 0.004937964
000050 8f 52 c2 3d 2a 28 c8 bd 49 f6 6c 3c 63 e5 94 3c
       0.09488403 -0.09773286 0.014463016 0.018175786
000060 2e 6f fa 3b 77 9e 88 3d 98 3a 9a 3d 75 17 04 3d
       0.007642648 0.0667085 0.07530707 0.032248933
000070 78 60 07 3e 35 ae 82 bc 9e 38 82 3c 94 a3 01 be
       0.13220394 -0.015952209 0.015896138 -0.12660056
000080 91 4b 0e bd 0e 5d 0c be b2 37 26 3d 6c de c2 bd
       -0.034740034 -0.13707373 0.04058046 -0.0951508
000090 a6 0f 93 ba 26 66 5d bc 86 29 e1 bd 53 bd 0d bd
       -0.0011219874 -0.013513124 -0.10994248 -0.03460438
0000a0 33 85 06 3d 04 e8 27 3d f4 e8 b3 3b ae 8c 16 bc
       0.032841872 0.04099275 0.0054904167 -0.009188814
0000b0 ed 48 ad 3d f4 9f 9b 3d 3c 29 8d 3c a2 fe b9 3d
       0.08461175 0.07598868 0.017231576 0.090817705
0000c0 a9 e8 fa ba d5 2a 73 bc 5f c8 a8 3c 1a 52 eb bd
       -0.0019142824 -0.014841755 0.020603357 -0.11490269
0000d0 d1 5a 29 3c f7 3c 88 3c be 95 f4 bd 67 4a f3 bc
       0.010336594 0.016630633 -0.119426236 -0.029698564
0000e0 d7 e5 45 3b 77 81 58 bd 86 7e df 3c d8 1f 1b be
       0.003019681 -0.052857842 0.02728201 -0.15148866
0000f0 fb d8 10 3d b0 ca 34 3d e5 53 79 3d 95 29 0a be
       0.03536318 0.04413861 0.060871024 -0.13492425
000100 ea 0d b3 3c 6a 23 ae 3d 3f c2 21 be ac d3 1d 3d
       0.02185722 0.085028484 -0.15796755 0.038531944
000110 a8 cd 4c 3d 2a bf 8b 3b 48 5e c5 bd 01 db b7 3d
       0.050000817 0.004264732 -0.09637123 0.089773186
000120 f2 6c 36 bd b6 7c 9d 3c 19 e6 17 bc b2 81 48 3d
       -0.044537492 0.019224506 -0.009271168 0.048951812
000130 25 f2 12 be 67 9a 4e bd e3 14 74 bd 67 e1 4e 3c
       -0.14350183 -0.05044022 -0.05959023 0.012626982
000140 94 58 0b bc bc 71 8d 3d 45 63 85 3c 00 d3 b1 bd
       -0.008505005 0.06906459 0.016282687 -0.08682823
000150 21 75 ae 3d 2e 15 5e 3c 9f db 7e 3d 6d eb 21 bd
       0.08518434 0.013554854 0.062221166 -0.03953116
000160 99 d9 0e bc fc d8 23 bd f7 aa ff 3c 3f 2f b6 3d
       -0.0087188715 -0.040001854 0.031209452 0.0889573
000170 a7 bf 31 3d d2 dd 7f 3d 56 13 bf bd f0 6c 9f 3c
       0.043395665 0.062467404 -0.0932986 0.019461125
000180 e4 de 32 bd 12 41 86 3c d6 64 10 3d c1 c1 fd bc
       -0.043669596 0.01638845 0.035252415 -0.030976178
000190 52 ca 07 3e 66 87 84 3d a0 c8 2d be 3e 72 04 be
       0.13260773 0.06471138 -0.16971064 -0.12934205
0001a0 1f 6f 35 3d 3e 4f 04 3b 3c dc 16 bd 18 8e ea bd
       0.044295426 0.0020188834 -0.036831126 -0.114528835
0001b0 91 41 3f be 6f 83 03 3c 14 8b a1 3d 42 86 80 bc
       -0.18677355 0.008026942 0.07887855 -0.01568902
0001c0 c9 9e cb 3c cb 36 a4 3c 23 f1 af 3d 8c cd 49 bb
       0.024855988 0.020045659 0.08590915 -0.0030792682
0001d0 36 a1 9e 3d 91 08 38 3d 3f c4 6e 3d cc de 84 bd
       0.07745592 0.044930045 0.058292624 -0.06487808
0001e0 b7 7d 9b bc 38 a8 c2 3d 8c fb 25 3d e0 a9 65 bd
       -0.018980844 0.095047414 0.040523097 -0.05607021
0001f0 4b eb be 3a 0f a1 89 bc 51 06 9a 3c 46 52 fe bb
       0.0014565972 -0.016800432 0.01880184 -0.0077612726
000200 72 13 d5 bd a5 de 54 bd 51 6d 93 bd 6e 83 28 bd
       -0.104040995 -0.051970143 -0.07198585 -0.041140966
000210 a5 8f 7a bd 08 84 7e 3c b0 0d 5e 3b e9 e9 f3 bb
       -0.061172146 0.015534408 0.003388267 -0.0074436557
000220 a4 1d 6a ba 49 82 15 be f1 60 a3 bd c6 de 07 3d
       -0.00089308084 -0.14600481 -0.079774745 0.033171438
000230 99 84 d9 3c 8a d1 b0 3c 97 74 db 3d ed cf bb 3c
       0.026552485 0.021584291 0.10715597 0.022926295
000240 01 48 65 3c 27 11 77 3d 98 e2 fb bd 5f 5b b1 ba
       0.013994218 0.060319092 -0.12299079 -0.0013531259
000250 07 4e cc bd be 3f 98 3d 63 24 2c bd 9b 72 00 be
       -0.0997582 0.07434033 -0.04202689 -0.12543719
000260 44 62 23 be d5 eb bc bd 22 21 e9 bc a7 fc 27 bd
       -0.15955454 -0.09224669 -0.028458182 -0.041012432
000270 ed 52 3b 3c 43 47 d1 bd 84 14 44 3d 89 a2 5c bb
       0.011433345 -0.1021867 0.047871128 -0.0033666214
000280 c0 73 0c bb f9 9c cf 3d 98 3a 87 3d 1a 88 61 3d
       -0.0021431297 0.10137362 0.06602973 0.055061437
000290 7a 59 14 be 05 25 e1 bd 58 01 7b bd 78 bf 4a bb
       -0.14487258 -0.10993389 -0.06128058 -0.0030936878
0002a0 17 b4 aa 3c 20 90 59 bd 0d 9c fb 3c db 6f ba bc
       0.020837827 -0.053115964 0.03071406 -0.022758415
0002b0 e9 a3 80 3c ab eb d2 3d 6e e9 90 3d 56 45 05 3e
       0.015703158 0.10298856 0.07075773 0.13014731
0002c0 2d d6 eb 3c a4 41 9c 3c 94 17 9f bc 73 f9 2a bc
       0.02878865 0.019074269 -0.019420423 -0.01043545
0002d0 b1 84 25 bc 6e d5 0c bc 2b 13 a1 3d 27 86 ad 3b
       -0.010102437 -0.0085958075 0.07864984 0.005295533
0002e0 2a c3 0a 3c 1b af 98 bc 80 93 ff bd 81 e1 b5 b8
       0.008469382 -0.018638184 -0.12479305 -8.672756e-05
0002f0 ec 40 ac 3d c9 a1 9a bd fc ba 9b 3d 92 a2 df 3c
       0.0841082 -0.07550389 0.07604024 0.0272992
000300 e6 ab 4a 3c f2 d4 5d bc 64 5e fe bd 97 ab ab 3c
       0.012370085 -0.01353954 -0.12420347 0.020955844
000310 2b 12 65 3d 25 f7 e6 bd 5c cc 03 be 9f 43 06 bb
       0.05592553 -0.11277608 -0.12870926 -0.0020487083
000320 b3 d8 4d bd cb 3e d7 3d a4 1f b9 bc 33 07 c3 3d
       -0.05025549 0.10510024 -0.022598095 0.095228575
000330 2a 55 95 bd 39 71 ba 3d 51 26 09 be cf c3 1a 3d
       -0.072916344 0.09103627 -0.13393523 0.037784394
000340 a1 1d 32 3d 65 6e 82 3d ee 94 8a bd ae f1 de 3c
       0.043485288 0.06368712 -0.06766687 0.027214851
000350 a8 3d e2 3d e4 2b 49 3d 7a 65 c0 bd 60 d4 c4 bb
       0.11046916 0.049114123 -0.09394355 -0.0060067624
000360 2a d7 c4 3d 30 c2 77 bd 5d b5 e6 bd 7a 96 b8 3b
       0.09611352 -0.060487926 -0.11265061 0.0056331726
000370 2a 7b f1 3c 1d 0e 14 3d 94 2e 29 bd 75 2e e4 3c
       0.029477675 0.036146272 -0.041304186 0.027854184
000380 da 56 51 3c 68 06 26 bd 70 37 6f 3d eb be bc bd
       0.012777055 -0.040533453 0.05840248 -0.09216102
000390 17 0f f1 3d fa 7e 28 3c e5 3b c8 3c cd 04 1e be
       0.11770456 0.01028418 0.024442622 -0.15431519
0003a0 20 7b 4e bc a8 48 d2 bd 0a b8 31 3d ab 14 3f 3d
       -0.0126025975 -0.10267764 0.043388404 0.04665057
0003b0 ba af 9b bd f5 4d 13 bb f7 b9 eb 3a 81 fc e0 bc
       -0.076018766 -0.0022476886 0.0017984499 -0.027464153
0003c0 85 9a ab 3c 8d b8 45 be e0 97 e6 bb e6 36 24 bd
       0.020947704 -0.19308682 -0.007037148 -0.040091418
0003d0 e9 d2 ed 3c 0d 24 09 be d2 d0 62 bb d7 05 1a be
       0.029031234 -0.13392659 -0.003460933 -0.1504129
0003e0 3d ac ff 3c b5 d6 00 bd a5 f5 b7 3d 98 17 c4 3c
       0.03121006 -0.03145476 0.089824 0.023937032
0003f0 db 10 23 3c fe 17 14 bd db da 23 3d 5e f2 3b bb
       0.009952749 -0.036155693 0.04000364 -0.0028678398

discrete_action_output_shape f4 [1, 2]
000000 00 00 40 40 00 00 00 40
       3.0 2.0

network_body._body_endoder.seq_layers.0.bias f4 [256]
000000 23 14 97 bc a5 91 d7 b9 a9 2d 34 bc f2 a2 b8 bb
       -0.01844222 -0.0004111651 -0.010997214 -0.005634659
000010 07 6b d5 3c ce 78 b0 bb e5 ed de 3c f8 de 47 bc
       0.026052011 -0.005385495 0.027213046 -0.012199156
000020 bd 73 06 bc 47 4b e3 bb bb 61 ec 3c 6a d0 c1 bc
       -0.008206305 -0.006936464 0.028855195 -0.02365895
000030 7b 18 57 bb 79 f3 c5 3c 65 38 5b bb 54 a0 1c bd
       -0.0032820988 0.024163948 -0.0033450362 -0.03823884
000040 04 d8 8e bd 90 1c 2b bc 88 41 59 bc be 9f 52 bc
       -0.069747955 -0.010443822 -0.013260253 -0.012855468
000050 53 d9 11 3b 47 ef bc bb 33 ee f8 bb 46 7b 9a bc
       0.002225478 -0.005765829 -0.007596755 -0.01885761
000060 34 69 22 bc dc a9 59 bc 6e 6e 0a 3d 87 a3 80 bc
       -0.009912778 -0.013285127 0.03379672 -0.015702976
000070 b0 b5 cd bc 0b 7e f4 3b f4 96 8d 39 8b 12 c5 3b
       -0.02511105 0.0074613146 0.00027006085 0.0060141734
000080 45 68 91 3c a2 6b 4e bc c5 21 82 bc e0 92 8c bc
       0.017749915 -0.012598904 -0.015885243 -0.01715988
000090 75 74 f1 3c b9 1c 9d 3c 4e b2 87 bb f0 bb 68 bb
       0.029474476 0.019178735 -0.0041411286 -0.003551241
0000a0 60 5a 20 bc 65 53 7b bc 88 4d ad bc a7 eb cb 3b
       -0.009787172 -0.015339707 -0.021155134 0.0062231603
0000b0 47 62 5e 3c 3b 1e 5c bc 0e 32 56 bc ac 86 68 bc
       0.013573236 -0.013434942 -0.013073457 -0.0141922645
0000c0 17 e2 96 3c b9 a5 20 bd e1 74 23 bc a1 59 25 3c
       0.018418355 -0.039220545 -0.009976597 0.01009217
0000d0 b2 23 9c bc 8c 61 bc 3b f0 3a 95 bc 33 3f 0c bd
       -0.01905999 0.005748933 -0.01821658 -0.03423996
0000e0 2e f0 02 3b 54 b5 7a bc af 44 96 bc b5 1d 33 bb
       0.0019979584 -0.015302021 -0.018343298 -0.002733094
0000f0 77 20 4a 3c 11 5c 96 bc a7 e7 27 bd a3 a0 42 3c
       0.012336842 -0.018354448 -0.040992405 0.011879119
000100 e3 26 53 bc 72 93 71 ba 2a 0e 55 bc cf 29 d6 bd
       -0.012887689 -0.00092153915 -0.013003865 -0.10457193
000110 eb 1d c2 bb 4c 8e 29 bb 46 a7 64 bc 9a 32 23 bc
       -0.0059239767 -0.002587217 -0.013955897 -0.009960795
000120 c9 b3 a1 3c 74 6b 96 b7 b5 1f ea 3c 47 51 d8 bb
       0.019739049 -1.793143e-05 0.028579572 -0.006601486
000130 71 8d 38 3c 6f 02 b1 39 5b d7 2f bc 7a 5e a2 bc
       0.011264191 0.00033761884 -0.010732497 -0.01982044
000140 e4 3e e0 3c 4f 78 25 bc a8 83 96 3c ac 2a b9 3c
       0.027373739 -0.010099485 0.018373325 0.022603355
000150 e2 28 a2 bc 47 88 3c 3c b9 26 0b bd 66 b9 34 3c
       -0.019794885 0.0115071 -0.033972476 0.011030531
000160 cc 87 d1 3b 26 29 b8 bc 61 25 cd bc f4 f3 eb bc
       0.006394362 -0.022480559 -0.025042238 -0.02880285
000170 a3 ef 89 bc 75 dd 79 3c f9 2d 12 bb 32 9d ea 3a
       -0.0168379 0.015250553 -0.0022305234 0.0017899631
000180 db 95 20 bc 3b 42 ea 3c 40 c9 c5 39 5d 84 e0 bc
       -0.009801353 0.028596034 0.0003772471 -0.027406866
000190 a5 eb 88 bb 1a 8c c1 ba 2e 6f 61 bc 1c 1a cc bc
       -0.0041784816 -0.0014766485 -0.013759417 -0.024914794
0001a0 49 6e 9b bb 33 b2 fc b9 a3 d9 91 bd a0 21 14 3c
       -0.0047433716 -0.00048197954 -0.07121589 0.00904122
0001b0 2b fe cd 3c 9d 0f ad bb 78 b2 a7 bc 3c a0 13 3d
       0.02514561 -0.0052814023 -0.020470843 0.036041483
0001c0 07 8e 53 3c b6 a5 56 bb 56 ce 2f bc 69 c4 32 bc
       0.01291228 -0.003275258 -0.010730347 -0.010911086
0001d0 9d 95 a7 bc ae df a2 3c 2a a2 02 bb f0 a0 e7 bb
       -0.020457083 0.01988205 -0.0019933083 -0.007068746
0001e0 95 87 c4 3c 52 ae de bb 67 3f 05 bc e0 a6 24 3c
       0.023990432 -0.006795683 -0.008132792 0.010049552
0001f0 d1 9e 09 bb d8 ae 7c 3c fb e1 18 3b dd 10 3b 3c
       -0.0020999203 0.015422545 0.0023328054 0.011417595
000200 6e 1a 26 bc ee 88 60 bc 6c 4b 6f bc b7 00 a1 3c
       -0.010138137 -0.013704522 -0.014605384 0.019653661
000210 3d 63 00 bd 49 4a 31 bc 34 5d 01 3d 73 c5 ec bb
       -0.03134464 -0.010820934 0.031583026 -0.007225686
000220 38 3a 8f bc 09 3c 9a 3c 34 c8 8f bc 81 45 8a bd
       -0.017483816 0.018827455 -0.017551519 -0.06751538
000230 72 c1 98 3c 3b c9 2a bc 95 e2 ce bc 39 22 50 bc
       0.01864693 -0.010423954 -0.025254527 -0.012703472
000240 fa b4 66 3c 9d ac d0 3a 1e ec 7c bc 2f 91 3a 3d
       0.014081234 0.0015920583 -0.015437154 0.045548614
000250 8e f5 a9 3b 3a 16 69 3c 2a f3 36 bc 38 9e 3b bc
       0.005186743 0.014226491 -0.011166373 -0.0114512965
000260 2e d0 fd b9 ef cb 67 bb 38 21 18 bb 48 2e aa 3c
       -0.00048411026 -0.0035369357 -0.002321316 0.020774022
000270 c0 96 b3 bc cf 04 a6 3c 4d 83 06 bc bd 21 5c 3c
       -0.02192247 0.020265965 -0.0082100155 0.013435778
000280 b6 0d 8c 3c cd 17 ae bb a5 7d 8b bc 27 a9 28 bd
       0.017096382 -0.005312896 -0.017027685 -0.04117694
000290 00 b9 06 3d 54 9b 1e 3b 57 33 79 3c 9b b2 57 bd
       0.032891273 0.002420147 0.015209994 -0.052660566
0002a0 d6 8b 0c bc ef d5 7b bc 90 62 04 3c 67 83 25 3d
       -0.008578261 -0.01537083 0.00808014 0.04040852
0002b0 11 2b fc 3c a6 2a 19 3d 5b 2f 09 3d 33 7e c6 bb
       0.030782254 0.03739419 0.033492427 -0.0060575246
0002c0 3f da ba 3b 0f ab 3d bc 53 07 d3 3c f3 c0 cd 3b
       0.0057022865 -0.011576428 0.025760328 0.006279105
0002d0 59 e5 15 3d 18 39 f5 3a 62 df 01 bd e9 d2 f7 3c
       0.036595676 0.0018709032 -0.031707175 0.030251937
0002e0 a7 54 86 bc c5 d8 08 bc 41 a0 d5 bb 85 e4 36 bc
       -0.016397787 -0.008352463 -0.006519348 -0.011162882
0002f0 02 41 c6 bc 57 46 bf ba 69 4f 17 bc 65 82 b1 3c
       -0.02420092 -0.0014593106 -0.009235241 0.021668622
000300 99 73 c8 bc fa 72 4e 3c a5 30 fb 3b 09 aa 34 bb
       -0.024469184 0.012600655 0.007665711 -0.002756717
000310 3f 71 80 3c b6 ac c2 3c fc 71 a5 bc 75 13 4f ba
       0.015679 0.023763996 -0.020195954 -0.00078993227
000320 b8 fb 8c bd 4e bb b5 bb 8c a0 84 bc ee 01 aa 3c
       -0.06883949 -0.00554601 -0.016189836 0.020752873
000330 6a fb a9 bc a0 d4 0c 3d a5 e4 2f 3c c4 67 6d bd
       -0.020749766 0.034382463 0.010735665 -0.057960287
000340 e0 d5 1e bd 61 4d b3 3c c7 b4 9d 3b 7a 28 d9 bb
       -0.038778186 0.021887483 0.00481281 -0.0066271396
000350 81 49 78 bc 7d 8f 96 3c a4 25 bb bc d3 65 b3 3c
       -0.015154243 0.018378967 -0.022845097 0.02189914
000360 69 e9 4c bc f6 4b eb bc b4 e7 ac bc 36 c6 85 bc
       -0.012506821 -0.028722744 -0.021106578 -0.016329866
000370 40 4e 50 bc 7d 20 92 3b 16 04 8d ba de ac cd bb
       -0.012713969 0.0044594393 -0.0010758664 -0.006276711
000380 a3 05 aa 3c cf c7 1e bc 6d b1 de bb eb 52 af 3c
       0.02075464 -0.009691193 -0.006796053 0.021401843
000390 b8 1e d4 3c 57 af 52 3c c1 c5 76 bc 16 21 a7 3c
       0.025893554 0.012859187 -0.015061797 0.020401519
0003a0 c1 1f 93 bc c0 cc 92 3c 9c 84 32 3b 3f 69 9b bc
       -0.017959477 0.017919898 0.0027239686 -0.018971084
0003b0 23 0a 48 3d b3 bf e5 bb 28 eb 22 bd 08 13 c6 3b
       0.048837792 -0.0070113777 -0.039775044 0.006044749
0003c0 bf c1 80 bc a6 1c 9c bc 26 4c a7 3c b9 16 99 bb
       -0.015717385 -0.01905663 0.020422053 -0.004671898
0003d0 e1 c0 8b 3b a9 48 98 bc 35 bf ac bc 2c 08 f5 3c
       0.0042649363 -0.018589335 -0.021087268 0.029911123
0003e0 60 fe 51 3c 5d 53 21 bd 25 e1 48 bc c0 7e 46 3c
       0.012816995 -0.039386142 -0.01226071 0.0121151805
0003f0 17 83 4c bd 3e fa be bc fd 45 0c 3d 9c 13 b1 3c
       -0.049929705 -0.023312684 0.034246434 0.021615796

network_body._body_endoder.seq_layers.0.weight f4 [256, 456]
000000 29 46 20 3d fa 87 69 3c 16 39 48 3d a5 9a 65 3d
       0.03912941 0.014253611 0.048882566 0.056055684
000010 24 83 0a bd df 71 16 be 82 c6 e7 3d 40 2e a0 bd
       -0.03381647 -0.14691876 0.11317159 -0.078213215
000020 a0 33 05 bd c4 e5 30 3e 4e a5 0a bc d9 e5 00 3d
       -0.032519937 0.17275149 -0.008462263 0.0314692
000030 d4 0c a5 bd ca 02 b4 bd 3c 20 2c be 62 07 19 bc
       -0.080590874 -0.087895945 -0.16809171 -0.009340139
000040 ab 0e 96 3d 16 8b 0d 3d 8b 9f 80 bd e2 4b ef 3c
       0.073270164 0.03455647 -0.062804304 0.029210988
000050 69 61 b4 bd 11 20 94 bd 6c 3f cf bd 16 7f 1d 3d
       -0.08807642 -0.07232679 -0.10119519 0.038451277
000060 b9 f9 61 bb 35 76 a7 bd 1b 17 10 be e2 d9 e3 3d
       -0.0034481122 -0.08176843 -0.14071314 0.11125542
000070 29 3c 4f bd e3 3a 87 bd 7a 89 fa 3c 07 6f 45 bd
       -0.050594483 -0.066030286 0.030583132 -0.048201587
000080 eb 6c 33 bd 55 64 9d bc 4b 3e 6e bd 4f 25 33 3d
       -0.043805044 -0.019212881 -0.058164876 0.043736752
000090 cd f7 90 3d f2 dd b2 bd cc 2b 85 bd 9f 9a 1e bc
       0.07078514 -0.08733739 -0.06502494 -0.009680419
0000a0 9e af 1d bc 26 3a 0a 3d 3d 96 d1 3c 65 1e 0c bd
       -0.00962439 0.03374686 0.025584335 -0.034208674
0000b0 5a d3 5e bd b9 59 12 be 4a 4b f9 3c 33 bc 5c bd
       -0.05440078 -0.14292039 0.030431408 -0.05389042
0000c0 9d 94 af 3d 92 41 be 3d 2e 1b 03 bd 70 6e 30 be
       0.085732676 0.0928985 -0.032008342 -0.17229629
0000d0 63 db ff bd 40 37 33 39 8b 00 7f bd f1 07 83 bc
       -0.124930166 0.00017091352 -0.062256377 -0.015994998
0000e0 06 cc b8 3d 04 1c e3 bd 53 8f 25 3d 3e 69 c0 bd
       0.090232894 -0.11089328 0.040419888 -0.09395073
0000f0 f3 d3 02 3d 9d 46 6d 3c 38 63 a5 3c 88 0b 0c be
       0.03194041 0.014482168 0.020188913 -0.13676274
000100 12 bd a4 bd c6 8a a8 bd cc 89 6b bc df a4 9d 3c
       -0.08043875 -0.08229594 -0.014376115 0.019243656
000110 d3 d3 68 3d 5d 79 9c 3c 34 d8 d1 3c 32 c4 60 3d
       0.056842636 0.01910084 0.025615789 0.054874606
000120 b3 69 19 3a c8 34 f2 bd bf 39 50 be 95 ec c2 bc
       0.0005852237 -0.118264735 -0.20334528 -0.023794452
000130 3b 82 8b bd d4 e7 0c bd 9d 49 dd bd 31 1b 2c 3d
       -0.06811949 -0.034400776 -0.10805056 0.04201812
000140 95 8a 27 bd 93 7e a2 3d 97 88 1d bd d2 a6 af 3d
       -0.040903646 0.07934298 -0.03846034 0.0857674
000150 f5 a0 f7 3d 87 15 f7 bd 75 57 a1 bd 16 8c a8 3a
       0.12091247 -0.12064653 -0.07878009 0.0012859132
000160 51 27 87 bb a4 52 be bc af a7 ac bd d6 50 12 bd
       -0.00412456 -0.023232765 -0.084304206 -0.035721622
000170 2b 2b 61 3b 36 a8 b4 3d 6a 64 53 bd 98 d0 f6 3b
       0.0034358006 0.08821146 -0.051609434 0.0075321905
000180 c6 25 c1 bd 22 e9 85 3d f0 54 4c bd 66 bf 9f bd
       -0.09431033 0.06538607 -0.04988569 -0.07800178
000190 25 36 73 3d f3 d8 5a bc 85 60 bf 3b d1 1a 80 bc
       0.059377808 -0.013357389 0.0058403634 -0.015637787
0001a0 5e 51 00 bd 33 b5 72 be d6 7b 85 bd 26 f2 9c bd
       -0.031327598 -0.23701935 -0.065177605 -0.07663374
0001b0 ae 2d ce bc a3 13 8c 3d 28 e6 15 bd 21 46 22 bd
       -0.025168266 0.06839683 -0.036596447 -0.03961766
0001c0 ae 5f 04 be 7b b5 b0 bd 48 34 b0 bd 02 e0 dc 3d
       -0.12927124 -0.08628365 -0.08603722 0.107849136
0001d0 48 01 dd bb f9 56 93 be 00 83 8a bd ff c9 db bc
       -0.0067445375 -0.28777292 -0.067632675 -0.026829718
0001e0 a0 54 a5 3c da d3 bc bd 63 11 0a be 81 bd bb bd
       0.020181954 -0.09220095 -0.13483195 -0.091670044
0001f0 2f 67 ef bc 5a ea 1e bd f5 67 2c bd a4 67 c5 3d
       -0.029224006 -0.038797714 -0.04209133 0.096389085
000200 b2 a9 38 be 3d a3 df bd 9b 66 e6 bc 01 ae d3 bc
       -0.18033484 -0.10919807 -0.028125098 -0.025839807
000210 13 5d b2 3d 85 98 b2 bc 6c 7c 07 bd 21 cd e0 bc
       0.08709159 -0.021801243 -0.033077642 -0.027441563
000220 7f 70 7c bd dc 9b d1 bd fc 5f 33 3d 93 68 da bc
       -0.061630722 -0.10234806 0.04379271 -0.026661193
000230 d8 4d 72 be 4c 4c 71 3a 01 5c c1 bd d1 0d 89 bd
       -0.23662508 0.00092047895 -0.094413765 -0.066920884
000240 71 92 48 3d 77 5f 15 bc f2 aa 46 be 04 d8 91 3c
       0.048967782 -0.009116999 -0.19401148 0.0178032
000250 a8 38 a9 bd 10 11 91 bd 21 f8 a7 3d f8 64 86 bd
       -0.082627594 -0.070833325 0.08201624 -0.06562227
000260 4c 95 ac be 88 30 f2 3d 78 fd 2a bd 2f 05 8a bd
       -0.33707654 0.11825663 -0.041745633 -0.0673927
000270 ec f9 51 be 6d b5 f1 3d 59 cc 78 3d 55 22 32 be
       -0.20505494 0.11802182 0.060741756 -0.17395909
000280 84 02 ce bc 9d 1f d5 bc b1 ad 4d 3d 3b 9e 8d bd
       -0.025147684 -0.026016051 0.050214473 -0.06914946
000290 f3 0b 12 bd 26 67 a7 bc bf 04 0d bd 93 36 1a bd
       -0.035655927 -0.020434927 -0.034428354 -0.037649702
0002a0 29 83 5f bc c4 15 de bc 58 a8 a2 bd 47 13 19 be
       -0.013642111 -0.027109988 -0.07942265 -0.1494876
0002b0 2c 71 b4 bd c5 02 fa bc 51 90 a2 3d 15 0e 9e bc
       -0.08810648 -0.030518899 0.079376824 -0.019293824
0002c0 9e b6 d3 bd 72 16 89 bc b1 72 07 be ca c9 f9 3c
       -0.10337566 -0.016734336 -0.13227345 0.030491728
0002d0 6f a8 42 bd 9a ea de bc 68 91 5b be a4 fa e7 bd
       -0.047523912 -0.027211476 -0.21442187 -0.11327103
0002e0 5c 4f b4 bd 13 8b ab bd 42 2a 32 3e 22 f4 ed bd
       -0.08804199 -0.08376136 0.17398933 -0.1161883
0002f0 67 76 ba 3d 6c a7 e7 3c 77 6c c4 bd a9 48 ca bc
       0.09104615 0.028278075 -0.095910005 -0.02469285
000300 fc 8f 9d bd 19 c7 23 bd 8f 2f b3 bd b7 91 1b be
       -0.076934785 -0.039984796 -0.087493055 -0.15192305
000310 3e f2 37 3b 5c 70 9b bd 7d e1 23 be 79 79 dc bd
       0.0028067972 -0.0758979 -0.16003986 -0.107653566
000320 7c 49 d8 bd e2 ac 06 be 4a d0 41 3c 6a 3f 1e bd
       -0.10560891 -0.13151887 0.011829445 -0.038634695
000330 ea 1d 00 3e 45 41 43 3d 45 31 0c be 6a eb f4 39
       0.12511411 0.047669668 -0.1369067 0.00046714704
000340 62 05 86 3d ce 79 ac bd 0c fa a8 bd aa dc 90 3b
       0.065439954 -0.0842167 -0.08250818 0.0044208365
000350 89 21 53 3d 90 5b b5 bd c8 1a 95 bc 67 2d 3f bd
       0.051545653 -0.08855355 -0.018201247 -0.04667416
000360 77 84 3e 3e f5 57 b1 bc 46 ed 0c be 33 f9 8d bc
       0.18605219 -0.021648386 -0.13762388 -0.017330742
000370 ce 23 9a bd 2e fa 31 bb 51 77 a5 bd 12 86 9d 3a
       -0.075263605 -0.0027157175 -0.080793984 0.0012018105
000380 b0 5c 66 bd 6f 70 f8 bc 38 4c de bc ad 68 c0 bd
       -0.056240737 -0.03032705 -0.027135953 -0.09394965
000390 d8 6b 15 3e ad da 65 bc 33 1a e7 ba fd a0 05 3e
       0.1459192 -0.014029187 -0.0017631709 0.13049693
0003a0 3b c4 f5 bc 79 95 de bd 53 c3 9c bc 17 a2 9f 3d
       -0.030000797 -0.108683534 -0.019136107 0.07794588
0003b0 17 a6 86 be 9b 62 f8 3c af 52 0d bd 45 33 c9 bd
       -0.26298591 0.030320456 -0.03450268 -0.09824232
0003c0 99 77 74 3d e2 a7 bf 3d 83 85 bc 3d dd ac 6d bd
       0.05968437 0.09358193 0.09205153 -0.058026183
0003d0 03 5d e5 3b 9a 5f c3 bc 4e 90 6a bd e3 0b 32 bd
       0.0069996133 -0.023849297 -0.057266526 -0.043468367
0003e0 00 a7 89 be 54 6a 4e bd 07 4a ab bd 25 47 e3 3c
       -0.26885223 -0.05039437 -0.08363729 0.027743885
0003f0 55 05 4a 3e 13 e3 fa bd e9 df 9b bc 49 1f bc 3c
       0.19728597 -0.12250342 -0.019027667 0.022964137

network_body._body_endoder.seq_layers.2.bias f4 [256]
000000 f4 38 fb 3c 24 c4 98 3a b5 b3 ae bc c3 98 c0 bc
       0.030666806 0.0011655134 -0.021325925 -0.023510342
000010 e4 ea 9f bc 82 6c 7e bd 22 5b bb bc 37 1f 5d bc
       -0.019521184 -0.0621152 -0.022870604 -0.013496212
000020 cb 71 48 bd 55 cd 1e bb 78 4e c4 bc 12 7e 84 bc
       -0.048936646 -0.0024231274 -0.023963198 -0.016173396
000030 2b 4b 87 bc cf 33 11 3c 9a ec 66 3c 6e 30 88 3b
       -0.016515335 0.00886245 0.014094496 0.004156164
000040 5b ae 0f bd 22 bc 08 bd be 3d 8a 3a 20 11 2c bd
       -0.035078388 -0.033382542 0.0010546965 -0.04200852
000050 22 c3 35 bd c7 69 8b bc 9a 16 05 3d 05 40 6a bc
       -0.044375546 -0.017018212 0.032492258 -0.01429749
000060 0f 36 43 3b f9 14 72 bc a4 17 e8 b9 be 6c c0 3c
       0.002978686 -0.014775508 -0.00044268102 0.023489352
000070 89 29 a4 bc f6 97 c5 bb d0 94 ca bc 67 2a e0 3c
       -0.020039337 -0.006030078 -0.024729162 0.027363969
000080 e9 36 fd bc 74 1b 2a 3d f7 a9 42 bd 20 5a 48 bc
       -0.030909972 0.041530088 -0.047525372 -0.012228519
000090 1d d0 22 bb b2 09 10 3c 79 2f 05 3d 88 ff 0f bd
       -0.0024843283 0.008791374 0.032515977 -0.035155803
0000a0 17 26 0f bd 50 16 1a 3c a4 73 ee 3b 96 0d 94 3c
       -0.034948435 0.009404734 0.007276969 0.018072885
0000b0 7f db 8d 3b d2 c3 31 bc 17 4f 10 bb c4 cc d5 ba
       0.0043291445 -0.01084991 -0.0022019797 -0.0016311635
0000c0 74 07 ab 3c f6 bc bc bc 7e 02 82 bc 9f 51 2a 3c
       0.020877577 -0.023039322 -0.015870329 0.010395437
0000d0 fd ef 69 bc 87 05 a3 3b 1d 83 ba 3b 97 2c e3 bb
       -0.014278409 0.004975024 0.0056918995 -0.0069328058
0000e0 6c d7 10 bc 96 b8 1d 3c d0 c3 42 bd 5f c3 36 3d
       -0.008840423 0.009626528 -0.047550023 0.044619914
0000f0 d6 b4 a1 3c f2 63 83 bc dd c9 1f 3c 45 38 e1 3c
       0.01973955 -0.016038869 0.009752718 0.027492652
000100 a3 33 ae 3b 10 5d 23 bd 02 7b 15 bc ff ed 94 bc
       0.005316214 -0.039883673 -0.009123566 -0.018179892
000110 7d 4a 7e bd 32 43 cb bb 1a 2e bf 3a 25 26 46 bb
       -0.062082756 -0.0062030787 0.0014585883 -0.0030235138
000120 69 53 95 3c 93 99 bb 3c bb 40 04 bd a7 db 3d bd
       0.01822825 0.022900378 -0.032288294 -0.046352055
000130 36 69 84 bc b9 c2 71 3b 35 5c 64 bc 5c 05 3e bc
       -0.01616345 0.0036889745 -0.0139379995 -0.011597957
000140 37 81 de 3c 28 9e 9d bc ee 87 71 bc 96 bc e2 bb
       0.027161224 -0.019240454 -0.014741881 -0.006919454
000150 92 79 1e bd 89 a1 f6 bc a9 ec 62 bd 53 d6 c1 bc
       -0.038690157 -0.030106323 -0.055401478 -0.023661768
000160 ed 39 15 bd d1 e6 10 3c 4f 7a 72 bd 1e c4 72 3b
       -0.036432195 0.008844093 -0.059198674 0.0037043164
000170 4f 37 1a bd cd ae 07 bc 45 74 37 3c 53 06 5f bb
       -0.037650403 -0.008281422 0.011197154 -0.003403087
000180 22 fa ad bc 05 95 7c bc ad 4c 26 3c b3 0e 90 3c
       -0.021237437 -0.015416388 0.010150117 0.017585134
000190 20 c4 d0 3a 66 f7 2d bc a0 d2 7c 3d 7d 85 be 3b
       0.001592759 -0.010618066 0.061724305 0.005814253
0001a0 e3 e1 07 3c 2b 16 8f bc a3 56 32 bc 40 d0 da 3c
       0.008293602 -0.017466625 -0.010884914 0.02671063
0001b0 87 98 62 3d 7b a2 07 bc 53 9d 93 3c 09 4b d5 3c
       0.055321243 -0.008278484 0.018019354 0.026036756
0001c0 57 a0 63 bc 0d 87 ca bc b4 4b b4 3c 8d 56 8f 3c
       -0.0138932085 -0.0247226 0.022008754 0.017497325
0001d0 b4 62 93 bb 6d 63 c7 bc c1 f1 fb 39 a0 ac b2 bc
       -0.0044978503 -0.024339402 0.0004805457 -0.02181083
0001e0 81 62 c4 bc a1 68 d3 3c 0e b3 03 bb 13 88 c5 3a
       -0.023972752 0.025806727 -0.0020095739 0.001507046
0001f0 42 a4 bb bc 4c 54 3b bc 7f b0 79 bc 19 30 d5 bc
       -0.022905473 -0.011433672 -0.015239834 -0.026023911
000200 be 40 fb bb ae fe a0 bc ed d9 01 bc 3e 1a a0 bc
       -0.00766763 -0.01965269 -0.007925493 -0.019543763
000210 df 38 20 bc 9a 01 79 bd d1 da 8e 3c d4 c7 78 3b
       -0.009779184 -0.060792543 0.017438324 0.0037960904
000220 6c 71 83 bc 79 91 67 3d 8b fc 91 bc e7 c9 fe bb
       -0.016045295 0.056535218 -0.017820617 -0.0077755335
000230 7c 9e 88 3c da aa df 3c c3 33 81 bc 3e c9 c7 39
       0.016677134 0.027303148 -0.015771752 0.00038106175
000240 94 ca cd bb c2 4a 60 bc c4 72 dc 3c 78 8d 00 bd
       -0.0062802527 -0.013689699 0.026910193 -0.031384915
000250 be 89 23 bc d8 cd dc bc c7 12 af bc be 8b f4 3b
       -0.009981571 -0.026953623 -0.021371258 0.0074629476
000260 48 66 e1 3c 9b 83 0e bd d2 07 f3 bc 69 15 ca bc
       0.027514592 -0.034793478 -0.029666815 -0.024668412
000270 88 c4 26 3c 69 e3 97 3c b5 bd 24 bc 09 fa 11 bb
       0.010178693 0.018541055 -0.010054995 -0.0022274277
000280 51 e8 e6 3a 7f 8e f3 3c 6e ed d7 bb 82 0f 62 3c
       0.0017616843 0.029731033 -0.006589583 0.013797643
000290 fb cb bc 3c 04 d5 4c 3c 38 e8 0f bd fc 53 f5 3c
       0.023046484 0.012501959 -0.03513357 0.029947273
0002a0 30 0d d8 3b 48 1e c0 bc 69 88 56 bc 0c 3d f0 3c
       0.006593369 -0.02345194 -0.013094046 0.029325984
0002b0 3c 42 ca bc 9d 3c 10 bd ff ee 2c bc 59 ce 2d bd
       -0.024689786 -0.035214055 -0.010555028 -0.042433117
0002c0 83 b4 47 bc 70 e7 a3 3a df bd e4 bc 42 28 2a bc
       -0.012189033 0.0012504887 -0.027922569 -0.010385575
0002d0 0d 09 60 bd 94 76 a7 ba 3e 87 28 3b 81 6b 9a 3c
       -0.05469613 -0.0012776428 0.0025715376 0.01885009
0002e0 7a 77 a9 3c f3 a5 e4 bc 1d 55 4d 3d 24 0d 93 bc
       0.020686854 -0.027911162 0.05013 -0.017950602
0002f0 7c 4d 65 bd 18 ad 9d bb 2b 94 f1 bc e9 e7 a7 bd
       -0.055982098 -0.004811894 -0.029489597 -0.0819853
000300 64 03 03 3c 4a ba 12 3d df c8 a7 3c 40 c6 8e bb
       0.007996414 0.03582219 0.020481525 -0.0043571293
000310 3d 4c 0a 3c d1 d7 64 3c 43 7e 91 3c a2 5c f6 bc
       0.008441028 0.01396747 0.017760402 -0.030073468
000320 d0 68 3d bb 30 e5 d1 3b 09 1e 55 bd 58 c9 ef bb
       -0.0028901584 0.006405495 -0.052030597 -0.007317703
000330 ea 5e 15 bd af a4 10 bc 9f 17 1c bc 78 d7 13 3d
       -0.03646747 -0.008828326 -0.009527116 0.03609416
000340 23 76 16 3a 1f d0 0b bc f3 a7 3b bd ed 16 ed 3c
       0.00057396496 -0.008533507 -0.045814466 0.028941596
000350 96 b3 d0 bb 5a 17 80 bc 90 fe ec bb 17 a3 c1 3b
       -0.0063690646 -0.015636135 -0.0072324947 0.0059093344
000360 55 39 89 3c 25 37 af bc a1 61 f5 bc ed 85 e0 39
       0.01675097 -0.0213886 -0.02995378 0.00042824392
000370 23 43 91 bc e1 52 ab 3c 21 41 7d bc 38 57 69 3c
       -0.017732209 0.020913543 -0.0154574225 0.014241986
000380 a0 84 e4 bc 71 ac e9 bc f2 47 75 bd 7b 87 74 3c
       -0.027895272 -0.02852461 -0.059883066 0.014924879
000390 02 30 12 bd a1 ff b2 3c 41 01 c0 bc 1e 63 ba 3c
       -0.035690315 0.021850409 -0.023438098 0.02275234
0003a0 ba 90 3b bd 74 0b 93 3c 0d 1b 04 bc 82 ea 9e bc
       -0.04579232 0.017949797 -0.00806309 -0.019398931
0003b0 98 f0 0b 3b 60 e3 1d bd 33 e4 c2 bc a5 72 73 ba
       0.0021353122 -0.03854692 -0.023790454 -0.0009286798
0003c0 17 8c 33 3c f0 da 4b 3d 7a 5a 17 bc b8 3d 10 bd
       0.010958693 0.049769342 -0.00923788 -0.03521511
0003d0 31 95 13 bd 55 bd 06 3d 95 cb a5 3c fb 3d f9 3c
       -0.036030952 0.032895405 0.020238677 0.030425062
0003e0 28 7c 2b 38 c3 d2 4e bb 7c d4 13 bd d9 48 6c 3c
       4.0885207e-05 -0.003155873 -0.036091313 0.014421665
0003f0 31 cb 20 bd 95 24 2a bd 4b f0 2b 3b b9 28 a0 bb
       -0.03925628 -0.041538794 0.0026235755 -0.004887667

network_body._body_endoder.seq_layers.2.weight f4 [256, 256]
000000 cf b4 8b bc 48 85 35 be 41 12 02 be 5f 53 3a be
       -0.01705399 -0.17726624 -0.12702276 -0.18195866
000010 5e 79 13 bd f1 0f 06 3d 00 d5 72 bd 2d 5e 8d bd
       -0.036004417 0.032730047 -0.059285164 -0.06902728
000020 70 ef 92 3d 0e 65 10 be 4e f1 99 3d 61 b2 10 bd
       0.07174575 -0.1410105 0.07516728 -0.035326365
000030 b9 06 91 3c cf 86 c7 bc 8d 8a a2 3d da 8c a1 bd
       0.0177034 -0.024356274 0.07936583 -0.078881934
000040 1c e3 96 bc 7d 82 f4 3d a8 15 40 3c 99 0f 45 3c
       -0.018418841 0.11938951 0.011723913 0.012027645
000050 5a 8a b8 3d a5 b6 54 bd 36 85 c0 3d 79 d5 73 bc
       0.090107635 -0.051931996 0.09400408 -0.014882439
000060 7a 8e 08 be 78 5a 93 bd e2 89 b4 bd 8e fd fa 3c
       -0.133356 -0.0719499 -0.088153616 0.030638482
000070 2d d5 69 3d bf aa d6 bb f1 d4 67 3d c3 0c 48 3e
       0.057088066 -0.0065511162 0.05659956 0.19536118
000080 9e dd 02 3e b0 3c 9f 3d 8e fc e5 bd 38 e8 98 3c
       0.12779853 0.07775247 -0.112298116 0.018665418
000090 39 f1 be 3d c2 b1 69 bd 66 5b 92 be 42 63 fe 3d
       0.09323353 -0.05705429 -0.28585356 0.12421276
0000a0 5e 44 4e 3e 25 b9 bb bd 14 39 22 ba a4 a2 c6 3d
       0.20143268 -0.09166173 -0.0006188315 0.0969899
0000b0 92 09 8b bd 4d eb 11 bd 6f 98 f9 bd 29 fd 7d bc
       -0.06788935 -0.03562479 -0.121872775 -0.015502253
0000c0 1f 5e 8a 3d ce 71 f1 3b a0 62 03 bd 7f 26 9b bd
       0.067562334 0.007368303 -0.032076478 -0.07575702
0000d0 21 b2 d0 bd f3 b8 a2 3d 90 a7 c1 3d 10 86 16 be
       -0.101902254 0.079454325 0.09455788 -0.14699578
0000e0 a1 f9 be bc 04 1e 0e 3e 52 f8 d5 bd 9d dd be bd
       -0.023312392 0.13878638 -0.10447754 -0.09319613
0000f0 37 85 fb bd ed ca 6e 3d 35 8a 07 3d 43 a9 ad bd
       -0.12281268 0.058298994 0.03309079 -0.0847955
000100 47 54 b5 3d fb f7 f0 bd c2 3b 96 bc 55 42 1f bd
       0.08853965 -0.117660485 -0.018339042 -0.03888162
000110 2c 94 fc bc 8a 0c 50 bc 57 0d 0c 3d bb cc ef bd
       -0.030832373 -0.012698302 0.03419241 -0.11708971
000120 66 61 cc bd 11 7b 8b 3e c3 2c a0 3d 6f ff 31 3d
       -0.09979515 0.2724233 0.078210376 0.04345649
000130 d2 c0 6e 3d e0 f6 0f 3e 04 54 07 be ff a5 58 bd
       0.058289357 0.14059019 -0.13215643 -0.05289268
000140 a0 bf 1d 3d a6 a8 96 bc dc e7 34 bd b0 6d fa bc
       0.038512826 -0.018390965 -0.04416643 -0.030569881
000150 81 b9 c2 3c 64 96 4a be 53 03 18 be ca fe 2f bd
       0.023770096 -0.19783932 -0.14845018 -0.042967595
000160 6c e5 d9 bc b0 bb 01 be a1 7d a8 bd e3 3a 82 3d
       -0.026598655 -0.12669253 -0.08227087 0.06358888
000170 e2 1b 89 bc 2f 3c 12 be 27 86 b9 3d 7c f7 45 3e
       -0.016736928 -0.1428077 0.09058791 0.19332689
000180 c7 da 6a be 18 af 04 3d 89 18 92 3d 43 83 d3 bc
       -0.2293502 0.032393545 0.07133586 -0.025819426
000190 cb 11 c2 3d 21 e4 b6 3d bb 55 82 bc 9e 17 cc 3d
       0.0947605 0.08930231 -0.01591002 0.09965442
0001a0 35 e6 4a be b1 4a 0a be 89 f2 f6 3c 20 4f 69 bd
       -0.1981438 -0.13505055 0.030144947 -0.056960225
0001b0 16 1f d0 3c b5 c2 be bd 93 e6 ae bd ce 1a 53 3b
       0.025405448 -0.09314481 -0.08540072 0.0032212022
0001c0 a6 9c 2b bc d8 f5 3b bb 4e 7a 72 be 13 5c 57 bd
       -0.01047436 -0.002868047 -0.23679468 -0.052578043
0001d0 34 d4 4d be d4 66 53 be 8d 43 77 3e 70 dd 9b 3d
       -0.2010048 -0.20644695 0.24146862 0.07610595
0001e0 25 11 fa 3c 28 b1 d1 3d ae c0 fc bd e2 72 ff bd
       0.030525753 0.10238868 -0.12341438 -0.12473084
0001f0 03 13 08 3e 2e 08 08 3e 69 dd 57 3e 9e 7b e7 3d
       0.13288502 0.1328437 0.21080555 0.11302875
000200 c2 4d 09 be 42 1d 81 3d 34 07 2e bd f8 05 69 3d
       -0.13408569 0.063044086 -0.04248734 0.056890458
000210 8c b6 07 bd 45 0e a8 3d 57 0c 47 bd 17 da 31 3c
       -0.033133075 0.08205847 -0.048595753 0.010855219
000220 c9 2a e6 bd 5d dc 47 3c 03 59 86 bd 28 d4 0a bc
       -0.11238629 0.012198535 -0.065599464 -0.008473434
000230 f9 73 42 be 32 1c 91 bd a8 43 ad bb 70 0a 9e 3c
       -0.18989553 -0.07085456 -0.0052876063 0.019292086
000240 c3 8a 06 bc 6a da d6 3d de ef 39 be 49 36 eb 3d
       -0.008211794 0.10490878 -0.18157908 0.114849634
000250 80 03 85 3d f1 72 39 3d 85 2f 81 3d 31 3a 0b be
       0.06494808 0.045275632 0.06307892 -0.13596417
000260 02 f1 2f 3d f5 ec 51 3e 4e 57 17 3d de 62 91 be
       0.042954452 0.20500548 0.036948495 -0.28395742
000270 f6 69 90 3d 71 32 a6 3d 56 06 1c bd c1 77 19 be
       0.070514604 0.0811509 -0.03809198 -0.14987089
000280 93 55 6f 3d 7f 7f 14 3e df 6f 65 bc 54 a7 14 3e
       0.05843122 0.14501761 -0.014003723 0.14516956
000290 b0 58 46 3c b6 59 5a 3d 4b ce da 3c b9 21 3e 3d
       0.012106106 0.05330821 0.026709696 0.04641888
0002a0 4f 5b d8 bc ff b6 55 3c ea 40 30 be 0b 3c f4 3b
       -0.026410727 0.013044118 -0.17212263 0.0074534467
0002b0 e5 0d 90 bd 41 ef 85 bd 0b c0 5e 3d 1d d4 a9 bd
       -0.070339 -0.06539775 0.054382365 -0.082924105
0002c0 27 41 8e bd b8 0d 30 bb 53 77 e5 bd 04 39 ba 3d
       -0.069460206 -0.0026863646 -0.112044 0.09092906
0002d0 9b fc 27 bc 37 6c 8c bd 1c d6 08 3e f4 2c bf 3c
       -0.010253097 -0.06856578 0.13362926 0.023336865
0002e0 e3 e1 ca bc 2f 05 b9 bc ac 82 a1 3c b4 c4 15 3e
       -0.024765914 -0.02258548 0.01971563 0.14625818
0002f0 27 04 85 3d 01 98 87 bd 3e 70 bd 3c 43 c4 b4 3d
       0.064949326 -0.06620789 0.02312481 0.088264965
000300 8c 1c 12 be 6f 0f 6d 3d 67 8d 38 bd 4f 1f 94 be
       -0.14268702 0.057876047 -0.045056727 -0.28930137
000310 cb 8e 55 be 14 70 63 bc 3e ec 41 bd 9f 8b 3a bc
       -0.20855252 -0.013881702 -0.04734444 -0.011385827
000320 42 e0 1a be 4e 66 55 3c 43 dc 54 bd 28 65 9c 3d
       -0.1512461 0.01302488 -0.05196787 0.076364815
000330 be 35 18 be c9 e0 7a 3d bc 1a c3 3c be 20 2f bd
       -0.14864251 0.061249528 0.023816459 -0.042755835
000340 08 3d d9 3d ae 85 e7 bc 23 b3 02 3c e5 0b 82 bd
       0.10607344 -0.028261986 0.00797728 -0.06349925
000350 52 21 df 3d 67 6b 91 3d ae e0 00 bd c0 4f 53 3e
       0.10895027 0.071005635 -0.03146427 0.20635891
000360 84 36 9e be 4f 89 23 be 29 4d 77 bd 52 7f 1d be
       -0.30900967 -0.15970348 -0.06037632 -0.153806
000370 e8 46 dc 3c d9 95 24 3e ca 6a cd bd 9d 19 97 bd
       0.02688928 0.16072787 -0.10030134 -0.07377932
000380 2c 9e d8 bd 49 86 00 bc 75 5e cb bd 27 16 0c 3e
       -0.10577044 -0.007844516 -0.099301256 0.13680325
000390 b1 1c 78 3d bb cc 58 bc 3e 90 d1 3d c0 37 6d 3e
       0.060574237 -0.013232405 0.1023259 0.23165798
0003a0 79 d7 b3 3d 7a 63 cf 3d 90 9e 64 bc 41 25 83 3d
       0.087813325 0.101263955 -0.01395382 0.0640359
0003b0 1c d9 00 3e 72 6b 16 3b 4f 6d f8 3c e4 87 ce bd
       0.1258282 0.0022952226 0.03032556 -0.10084513
0003c0 24 d6 0e bc bf fb fe 3c b4 0d 63 3d 2d 59 c7 bc
       -0.008718047 0.031125901 0.05543299 -0.024334515
0003d0 c9 52 bb 3d 75 0f e2 bd 25 74 7a bd e0 a4 f2 3d
       0.091466494 -0.110381044 -0.06114592 0.11847854
0003e0 9a 48 0d 3d 0f 91 49 bc 92 27 01 3d 38 78 ce bd
       0.034493066 -0.012302651 0.031531878 -0.10081524
0003f0 fa c2 3f bd b9 5c 86 3c ab 0c 39 3d 42 0e de 3d
       -0.046816804 0.016401635 0.045178097 0.10842563
