DalekStepsR12/Assets/MyModels/R6DalekBehavior.onnx (onnx, 739093 bytes, 9 tensors)

action_model._discrete_distribution.branches.0.bias f4 [3]
0	0xbcd58f71	-0.026069375
1	0x3abb1721	0.0014273861
2	0x3c70d60a	0.014699468

action_model._discrete_distribution.branches.0.weight f4 [3, 256]
0	0x3c9d65fc	0.019213669
1	0x3c2f3600	0.010694027
2	0xbd1060e4	-0.035248652
3	0x3d06a6ec	0.032874033
4	0xbbd88046	-0.0066070883
5	0x3ce2c7e8	0.027683213
6	0xbd42fdaa	-0.047605194
7	0xbcd4d6dc	-0.02598136
8	0xb9bb9a2a	-0.0003578228
9	0xbd5230b7	-0.05131599
10	0x3b16ecba	0.0023029284
11	0xbc497f33	-0.012298393
12	0x3b81d74c	0.003962433
13	0xbcda8345	-0.026673922
14	0xbca86667	-0.020556642
15	0xbc555401	-0.013020516
16	0x3ca90614	0.020632781
17	0x3c3ab42e	0.011395497
18	0xbd0f0cae	-0.0349242
19	0xbd048ef7	-0.032362904
20	0xbc88fb40	-0.016721368
21	0x3bab4a3f	0.0052273567
22	0xbcf9ea94	-0.030507363
23	0xba8aa96d	-0.0010579057
24	0xbc118e60	-0.0088840425
25	0xbd0e4f11	-0.034743372
26	0xbcad2a5a	-0.021138359
27	0xbc494a1e	-0.012285737
28	0xbd5b0122	-0.053467877
29	0xbd38a75d	-0.045081485
30	0xbcdf77e8	-0.027278855
31	0xbba0c374	-0.0049061123
32	0xbce29121	-0.027657093
33	0xbc166981	-0.0091804275
34	0x3a62ecb5	0.0008656488
35	0xbd39c175	-0.04535051
36	0xbacac45d	-0.0015469898
37	0xbc8c6f39	-0.017142879
38	0xbcc156e9	-0.023601012
39	0xbd0485b6	-0.03235408
40	0xbca373e8	-0.01995273
41	0xbd00735b	-0.03136001
42	0xbc3cbca9	-0.011519589
43	0x3ce101a1	0.027466597
44	0xbc607c1d	-0.013701466
45	0xbb815cf6	-0.0039478494
46	0xbcd32e5b	-0.02577894
47	0xbc41e5c6	-0.011834567
48	0x3b519c00	0.0031983852
49	0xbcdaba48	-0.026700154
50	0x3c3a78ec	0.011381369
51	0x3b8c215f	0.004276439
52	0x3d1fa7b0	0.03897828
53	0x3cf766ca	0.03020038
54	0xbac8caf6	-0.0015319276
55	0xbc77b991	-0.015119926
56	0x3d048837	0.032356467
57	0xbc4c171c	-0.012456682
58	0xbccbc035	-0.024871925
59	0xbbe02dbd	-0.00684139
60	0x3a9e6922	0.0012085775
61	0x3c9514da	0.01819842
62	0xbd00a4c3	-0.03140713
63	0x3d92af30	0.071623206
64	0x39935d49	0.00028107528
65	0xbc80d5dd	-0.015726978
66	0x3cd67600	0.026179314
67	0xbaae1950	-0.001328269
68	0x3c80c9d0	0.015721232
69	0x3baf25b2	0.00534507
70	0xbca96dea	-0.020682294
71	0xbcce1cdf	-0.025160251
72	0xbb43702e	-0.0029821503
73	0x3ca549b8	0.020176753
74	0xbc6cd01d	-0.014453915
75	0x3bdf7239	0.0068190363
76	0x3ba3c3ea	0.00499772
77	0xbcc66962	-0.024220172
78	0xbca4454a	-0.02005257
79	0x3c097042	0.008388581
80	0xbc3b298e	-0.011423482
81	0xbcdd39a2	-0.02700502
82	0xbac404d8	-0.0014955057
83	0xbb50ff8f	-0.0031890606
84	0xbbadde81	-0.0053060655
85	0xbd0a69cb	-0.0337923
86	0xbc8e259e	-0.017351922
87	0xbb8883e6	-0.004166114
88	0xbb1fa49d	-0.0024359592
89	0xbc5a73ac	-0.013333242
90	0xbb1d2b29	-0.0023982024
91	0xbd0fabef	-0.035076078
92	0xbc83a2ba	-0.016068805
93	0xbd0247c5	-0.031806726
94	0xbd0d5d08	-0.03451255
95	0xbc6d1064	-0.01446924
96	0xbc67ded4	-0.014152247
97	0x3a9c0979	0.0011904679
98	0xbc3923cd	-0.0113000395
99	0xbc3f6cb9	-0.011683636
100	0xbc248ad9	-0.0100428695
101	0x3baa6961	0.0052005504
102	0xbb9417c5	-0.004519435
103	0xbcc31aa2	-0.02381641
104	0xbc9057fe	-0.017620083
105	0xbc3f6572	-0.011681901
106	0xbc5ce010	-0.013481155
107	0xbd15bc13	-0.036556315
108	0xbd2d99d4	-0.04238303
109	0xbc401132	-0.01172285
110	0xbb9cf159	-0.004789513
111	0xb9a94ac7	-0.00032289905
112	0xbc4d690c	-0.012537252
113	0x3c3c867f	0.011506676
114	0xbd0bc704	-0.034125343
115	0xbcaac493	-0.020845687
116	0xbc6c37eb	-0.014417629
117	0xbcf353e8	-0.029703096
118	0xbc64bc05	-0.013960843
119	0xbd717baa	-0.058955826
120	0x3d703c0d	0.05865102
121	0xbc509505	-0.0127308415
122	0x3b6a7aad	0.0035778687
123	0x3cebe518	0.028795764
124	0xbbea0ba4	-0.007142501
125	0xbceea03e	-0.029129144
126	0x3bba8483	0.005692066
127	0x3c9c60e5	0.019089172
128	0xbbcb1d8a	-0.0061985897
129	0xbc59eedb	-0.0133015765
130	0xbbb83a6a	-0.005622198
131	0xbb5ba59a	-0.0033515454
132	0xbceaed34	-0.02867756
133	0xbcc661e0	-0.024216592
134	0xbc8d4096	-0.017242711
135	0xbb321cd4	-0.0027177827
136	0x3ce6a739	0.02815591
137	0xbc3cee85	-0.011531477
138	0xbcf2633f	-0.02958834
139	0x3d860b89	0.06545169
140	0xbb9d408e	-0.0047989553
141	0x3ccdceb1	0.025122972
142	0xbb549f1b	-0.0032443467
143	0xbce31c7a	-0.02772354
144	0xbc78667a	-0.015161151
145	0xbcd8284b	-0.0263864
146	0xbcd2b4b2	-0.025720928
147	0x3bc675ff	0.0060565467
148	0x3c899d39	0.016798602
149	0xbb0b7fcb	-0.0021285887
150	0x3c28ce4d	0.010303092
151	0xbcbb633e	-0.02287447
152	0x3d2a1a93	0.04152925
153	0x3c91812a	0.017761786
154	0x3a342692	0.00068722025
155	0xbcc97be9	-0.024595218
156	0x3ca337fc	0.019924156
157	0xbc3c5f7e	-0.0114973765
158	0xbc996d86	-0.018728983
159	0xbc9a0e0c	-0.018805526
160	0xbb9a025c	-0.0046999883
161	0xbc554562	-0.01301703
162	0xbadb56ef	-0.0016734282
163	0xbb9c33a6	-0.004766899
164	0xbd18d57a	-0.037312962
165	0xbcfde1ca	-0.030991454
166	0xbcb02d6c	-0.021506034
167	0xbbe0b42c	-0.0068574157
168	0xbcb532d7	-0.022118969
169	0x3c55f3d5	0.013058622
170	0xbd1948ae	-0.03742283
171	0xbaa8f2de	-0.0012889763
172	0xbcdb34be	-0.026758548
173	0x3d3ec333	0.046572875
174	0xbcec30a5	-0.02883179
175	0xbc678e9d	-0.014133123
176	0x3b4a9b6a	0.0030915388
177	0xbd05fc52	-0.032711335
178	0xbcd1b4b2	-0.025598858
179	0x3ce6ab82	0.028157953
180	0xbb9df1f9	-0.004820105
181	0xbb16abd2	-0.0022990596
182	0x3b5a9eba	0.0033358769
183	0x3cb953da	0.022622991
184	0xbd3b6930	-0.04575461
185	0xbd3a59a3	-0.04549564
186	0x3c16360d	0.00916816
187	0x3ba85e4f	0.0051381956
188	0xbd0d132b	-0.034442108
189	0xbc6578c2	-0.014005842
190	0xbc55703f	-0.01302725
191	0xbb917e28	-0.004440088
192	0xbca85fdb	-0.02055352
193	0xbc051aee	-0.008124096
194	0x3c223394	0.0098999925
195	0xbc13b9df	-0.009016483
196	0xbba37488	-0.004988257
197	0xbbb86dde	-0.0056283316
198	0x3a443256	0.0007484307
199	0x3cf1d0f4	0.029518582
200	0xbd09edd5	-0.03367408
201	0xba476fec	-0.0007607925
202	0x3d0891f9	0.033342335
203	0x3bc536fd	0.006018518
204	0x3cdd4cdd	0.02701419
205	0xbcb47f06	-0.022033226
206	0x3d299d0a	0.04140953
207	0x3c8f75fa	0.01751231
208	0xbccac37c	-0.024751417
209	0x3cff08fa	0.03113221
210	0x3c87c767	0.016574575
211	0x3cbfd928	0.023418978
212	0xbd26c573	-0.040715646
213	0xbb84e4e9	-0.0040556085
214	0x3ca6528c	0.020303033
215	0x3c722c71	0.0147811035
216	0xbcbaf326	-0.02282102
217	0xbcd2a3c7	-0.02571286
218	0xbc842702	-0.016131882
219	0xbce9d4bb	-0.02854382
220	0xbc8a9d99	-0.016920852
221	0xbcded12d	-0.027199352
222	0xbc871c74	-0.01649306
223	0xbcd07d87	-0.025450481
224	0x3d07b2e5	0.03312959
225	0xbc611a16	-0.0137391295
226	0xbcd34090	-0.025787622
227	0x3cb4cb26	0.022069525
228	0xbaba6f2f	-0.0014223809
229	0xbbfbdac3	-0.0076859905
230	0xbb5a91f5	-0.0033351157
231	0xbc10a537	-0.008828453
232	0x3c730748	0.014833279
233	0x3c69e8da	0.014276708
234	0xbcf2d42d	-0.029642189
235	0xbd067814	-0.03282936
236	0x3b529ba7	0.0032136233
237	0x3c2d3aaf	0.010573073
238	0xbc824759	-0.015903162
239	0x3d273c7b	0.040829163
240	0xbc4c5c90	-0.0124732405
241	0xbcc95946	-0.024578702
242	0x3d1fcb46	0.039012216
243	0xbc9cd596	-0.019144814
244	0xbc5b55fc	-0.0133871995
245	0x3bb7708a	0.0055981325
246	0xbca019f1	-0.01954362
247	0xbcc96861	-0.024585905
248	0xbd278aa9	-0.04090372
249	0x3cb8ba5f	0.022549806
250	0xbb25f7eb	-0.0025324773
251	0xbc0dce11	-0.008655087
252	0xbcafd416	-0.021463435
253	0xbba5dee9	-0.0050619734
254	0xba53ed6b	-0.0008084389
255	0xbc4d0327	-0.012512959

action_model._discrete_distribution.branches.1.bias f4 [2]
0	0xbc165aea	-0.009176949
1	0x3c165af3	0.009176957

action_model._discrete_distribution.branches.1.weight f4 [2, 256]
0	0xbb67ee1e	-0.0035389732
1	0xbd6c153a	-0.05763743
2	0x3b13836d	0.0022508756
3	0xbb938cb9	-0.0045028594
4	0xbd493fe6	-0.049133204
5	0xbd0e17f1	-0.0346908
6	0xbb0f80c6	-0.0021896823
7	0xbcda8395	-0.026674071
8	0xbd91140b	-0.07083901
9	0x3b7d0987	0.0038610415
10	0xbcde874a	-0.02716412
11	0xbd1275c3	-0.035756838
12	0x3cc466e6	0.023974847
13	0x3a9c667e	0.00119324
14	0x3d08bbc5	0.033382196
15	0xbd2735e5	-0.040822882
16	0xbc39610b	-0.011314641
17	0x3ab9a349	0.0014163043
18	0x3bad0922	0.0052806297
19	0xbc297bfd	-0.0103445025
20	0x3c4b7458	0.012417875
21	0xbb1819b3	-0.0023208677
22	0xbc91ed70	-0.017813414
23	0xbc8d2d08	-0.017233387
24	0xbd460906	-0.04834845
25	0x3cf6a89d	0.030109698
26	0xbc7ac851	-0.015306548
27	0x3c63fb09	0.013914832
28	0x3b6a17c3	0.003571973
29	0x3d100799	0.035163496
30	0x3c091f56	0.0083692875
31	0x3d5cb458	0.053882927
32	0xbcd33f9d	-0.02578717
33	0x3c006169	0.007835724
34	0xbd04fb28	-0.032466084
35	0x3ae8198a	0.0017707807
36	0x3d33f5fb	0.043935757
37	0xbbbf3130	-0.005834721
38	0xbcb60b43	-0.022222167
39	0x3c9ad8f3	0.018902278
40	0xbd136962	-0.035989173
41	0x3c2a41e9	0.010391691
42	0xbd75d6c4	-0.06001927
43	0xbbb4a403	-0.005512716
44	0xbccc8ff3	-0.024970984
45	0x3d8928a8	0.06697208
46	0x3c53c4c9	0.012925335
47	0x3d671d83	0.05642463
48	0xbd152675	-0.03641363
49	0xbcb6633c	-0.022264116
50	0xbcf181ad	-0.02948078
51	0xbd1bff35	-0.03808518
52	0xbd85e610	-0.065380216
53	0x3c815e76	0.015792113
54	0x3d497dfa	0.049192406
55	0xbcf3cba6	-0.029760193
56	0x3ca21bcd	0.019788647
57	0x3c27b2fc	0.010235544
58	0xbc510871	-0.01275836
59	0xbcf6899e	-0.030094918
60	0x3d458210	0.04821974
61	0x37a643b5	1.982027e-05
62	0x3c8f980f	0.017528562
63	0xbaa6cdd3	-0.0012726135
64	0xbd770949	-0.06031159
65	0x3b54c56d	0.0032466308
66	0x3c550295	0.013001104
67	0x3cc45d2d	0.02397021
68	0xbd44885d	-0.04798161
69	0xbca60c1b	-0.020269444
70	0xbd0964b9	-0.033543322
71	0x3d128aa1	0.035776738
72	0xbcf84622	-0.03030688
73	0xbd6a1deb	-0.05715744
74	0x3d09d9f1	0.03365511
75	0x3d09998b	0.033593696
76	0x3ccc8f39	0.024970638
77	0xbc1bbbee	-0.009505255
78	0xbbf57ad2	-0.007491448
79	0xbd0f1121	-0.034928445
80	0x3d0b2ca0	0.033978105
81	0xbd25d5b2	-0.040487
82	0xbca80da7	-0.020514322
83	0xbcae0712	-0.021243606
84	0xbd04f3cf	-0.032459076
85	0x3d2d057e	0.042241566
86	0x3be28977	0.0069133597
87	0xbcac78a8	-0.021053627
88	0x3d460f58	0.048354477
89	0x3d552356	0.052035652
90	0xbca5f64e	-0.020259049
91	0x3b106e8c	0.0022038547
92	0x3d573cac	0.052548096
93	0x3c1af282	0.009457232
94	0x3ca4ee71	0.020133229
95	0x3d1a7d08	0.037716895
96	0xb8d5ab18	-0.000101885
97	0xbcfb2605	-0.030657778
98	0x3c194f64	0.009357307
99	0x3ceadaaf	0.02866873
100	0x3ccdf817	0.025142713
101	0xbd8627bc	-0.065505475
102	0x3c02c574	0.007981647
103	0x3c792166	0.015205717
104	0x3c307db6	0.010772159
105	0x3c22128e	0.009892119
106	0xbceb8cc5	-0.028753648
107	0xbbbd7820	-0.0057821423
108	0xbd162ab5	-0.036661822
109	0xbc8ae80d	-0.016956354
110	0xbd4b1054	-0.04957612
111	0x3c7cf8ee	0.015440209
112	0x3d2f0fad	0.04273956
113	0xbd0e28c2	-0.03470684
114	0x3bcfdf4f	0.006343759
115	0x3c61ec31	0.013789223
116	0x3d2c878c	0.042121455
117	0xbd274d54	-0.04084523
118	0x3d9829fd	0.07429884
119	0x3c883ee8	0.016631559
120	0xbc7d82b9	-0.015473061
121	0xbc63b35f	-0.013897746
122	0x3c4421f9	0.01197099
123	0x3c1f1360	0.009709209
124	0x3cc7e197	0.024399562
125	0x3b45ebf1	0.0030200446
126	0xbcf931b1	-0.030419203
127	0x3c540677	0.012940994
128	0xbd07a6fb	-0.03311823
129	0x3d23c091	0.039978568
130	0xbd34fbeb	-0.04418556
131	0x3c01b7bf	0.007917344
132	0xbcf373e7	-0.029718352
133	0x3d3ec9f9	0.046579335
134	0x3d9d006e	0.076660976
135	0x3da993a5	0.08280114
136	0xbd168d4d	-0.03675585
137	0xbd5b3523	-0.053517472
138	0xbc619e9b	-0.013770725
139	0xbb4e5920	-0.0031486228
140	0x3ca9efaa	0.020744164
141	0xbd6fccb8	-0.058544844
142	0xbc8397fe	-0.016063686
143	0x3d92c0a1	0.07165647
144	0x3d5ac560	0.053410888
145	0xbcfa294b	-0.030537268
146	0xbc566d77	-0.013087622
147	0xbcfd9fb6	-0.030959945
148	0x3d16f97b	0.036859017
149	0xbd02d8c1	-0.031944994
150	0x3cef111d	0.029182965
151	0xb9ee56a4	-0.0004545945
152	0x3ad9c407	0.0016614207
153	0xbd150eb4	-0.036390975
154	0xbba9f977	-0.005187209
155	0x3d87d999	0.066333
156	0x3c090fd8	0.008365594
157	0x3d0ede71	0.034880105
158	0x3d04ac61	0.032390956
159	0x3d3875cb	0.04503421
160	0xbcd8f480	-0.026483774
161	0x3c565300	0.013081312
162	0xbd0cbdb4	-0.034360602
163	0x3cffff2d	0.031249607
164	0xbc0bd79c	-0.008535292
165	0x3cadb5c1	0.021204831
166	0xbc84ebbc	-0.016225688
167	0xbd0b60e1	-0.034027938
168	0xbd106b7b	-0.03525875
169	0x3cc1a6c2	0.023639087
170	0xbceb473d	-0.028720492
171	0x3d28e8f2	0.04123778
172	0x3c145088	0.009052403
173	0x3cb204ab	0.021730741
174	0x3d1634c9	0.036671434
175	0x3d4d005a	0.050049163
176	0xbba4c835	-0.0050287494
177	0x3d2708f5	0.040780026
178	0x3d4d7b12	0.050166197
179	0x3ca9780d	0.020687127
180	0x3c537c1a	0.012908006
181	0xbb8f503d	-0.004373579
182	0xbd2cb9dc	-0.042169437
183	0xbcaf95c5	-0.02143372
184	0x3b33c8b3	0.0027432858
185	0x3d86edf3	0.06588354
186	0x3cb03d64	0.021513648
187	0x3bd9177f	0.0066251154
188	0x3ab97f7f	0.0014152377
189	0xbc494ed3	-0.01228686
190	0x3c98c262	0.018647376
191	0xbc1a267c	-0.009408589
192	0xbaebe4f9	-0.0017997316
193	0x3d7bfbb5	0.061519343
194	0xbd06471b	-0.032782655
195	0xbcd7da67	-0.02634926
196	0xbb8485cc	-0.00404427
197	0x3d2ebd71	0.042661134
198	0xbc836c08	-0.016042724
199	0x3c91bca1	0.01779014
200	0x3d41b902	0.047295578
201	0xbcb23ead	-0.021758402
202	0x3c4cd187	0.012501127
203	0xbd5e4cf9	-0.054272626
204	0xbc57cbce	-0.013171149
205	0x3cf106e9	0.02942224
206	0xbd536e3a	-0.051618792
207	0xbd52e24c	-0.051485345
208	0x3cc58147	0.024109496
209	0x3acba86c	0.0015537865
210	0x3c9a935b	0.018869093
211	0xbd526c3a	-0.051372744
212	0x3d0e5500	0.03474903
213	0xbcdd691d	-0.027027661
214	0x3ce0c153	0.027435934
215	0x3c8280cf	0.015930561
216	0x3c4c5796	0.012472054
217	0x3ceee049	0.029159682
218	0x3d14ab85	0.036296386
219	0x3c2ae68a	0.010430941
220	0xbc68a945	-0.014200513
221	0xbd19a404	-0.037509933
222	0x3c2a1f77	0.010383478
223	0x3bd599db	0.006518585
224	0x3cac46ec	0.021029912
225	0x3c029a8e	0.007971419
226	0xbcc05a4c	-0.023480557
227	0x3c6f47b4	0.014604498
228	0x3c8b776b	0.017024716
229	0x3d80d960	0.06291461
230	0x3d7bb433	0.06145115
231	0xbbfec973	-0.0077754795
232	0xbc80a6a6	-0.015704464
233	0x3ce5d960	0.028057754
234	0xbcd42864	-0.025898166
235	0xbb0140eb	-0.0019722532
236	0x3b80b21a	0.0039274814
237	0x3b850ec3	0.0040605976
238	0x3d10d7ab	0.035361927
239	0x3cea30a7	0.028587652
240	0xbc509568	-0.012730934
241	0xbc41117a	-0.011783952
242	0x3d01f12c	0.03172414
243	0xbcfb1e0a	-0.030653972
244	0x3c32113b	0.010868366
245	0xbca4361a	-0.020045329
246	0x3d6f079a	0.05835686
247	0x3c962c0f	0.018331556
248	0x3d3e4682	0.04645396
249	0x3d00392e	0.03130453
250	0xbc8c7b2f	-0.017148582
251	0x3cc471da	0.02398007
252	0x3d746e68	0.059675604
253	0x3c9f4d01	0.019445898
254	0x3d0c5342	0.03425909
255	0x3c608f6a	0.013706068

discrete_action_output_shape f4 [1, 2]
0	0x40400000	3.0
1	0x40000000	2.0

network_body._body_endoder.seq_layers.0.bias f4 [256]
0	0x3ae7e8cc	0.001769328
1	0x3c6fc8d1	0.014635281
2	0xbc573c64	-0.013136957
3	0xbb94d51a	-0.0045420052
4	0x3c1e4cb8	0.009661846
5	0xbb47eca9	-0.003050605
6	0xb6372859	-2.729261e-06
7	0xbb7a91b7	-0.0038233825
8	0xbb1b31d6	-0.0023680828
9	0x3c7fde7e	0.015617011
10	0x3c8650ea	0.016396005
11	0x3c0c09b7	0.008547238
12	0x3ae7f301	0.0017696322
13	0x3c619514	0.013768453
14	0x3c0c10d4	0.008548934
15	0x3cbc9718	0.023021266
16	0xbadab643	-0.0016686398
17	0x3cc819b7	0.024426324
18	0xbb16145a	-0.0022900314
19	0xbb3ce6d9	-0.002882412
20	0x3b0fc1d7	0.0021935606
21	0xbbac674d	-0.005261338
22	0xb9d7e0ab	-0.00041175386
23	0x3c89ad6b	0.016806325
24	0xbbb8933b	-0.0056327856
25	0xbb42e7c7	-0.00297402
26	0xbc14aa3f	-0.009073793
27	0x3b73243f	0.0037100462
28	0x3c055b1c	0.008139398
29	0x3b6f976f	0.0036558767
30	0x3bb8a779	0.0056351987
31	0xbba16068	-0.0049248226
32	0x3c54ab5e	0.01298031
33	0x3ab19865	0.0013549445
34	0xbb3544ae	-0.0027659344
35	0xbb243a2d	-0.002505909
36	0xbaa0c803	-0.0012266639
37	0x3c75c43f	0.015000402
38	0xbb3a43e0	-0.0028421804
39	0x3b026c32	0.0019900915
40	0x3c5b91cf	0.013401463
41	0x3aab60d9	0.0013075127
42	0xbbf2f9a1	-0.007415012
43	0x3b2c3806	0.002627851
44	0xbba23424	-0.0049500633
45	0xba9daec3	-0.0012030232
46	0x3c247afa	0.0100390855
47	0xb988d40f	-0.00026097937
48	0x3c0ff88e	0.008787287
49	0x3b410932	0.0029454944
50	0x3ae2ae3f	0.0017294361
51	0x3bc41134	0.005983496
52	0xbb9acbb1	-0.004723989
53	0x3c3c6fc5	0.011501257
54	0x3b398309	0.0028306863
55	0x3b4a34e6	0.0030854284
56	0xbc41e215	-0.011833687
57	0xbbefc40f	-0.007317073
58	0x3cac520b	0.021035215
59	0xbbc29b21	-0.005938903
60	0x3bd852a6	0.0066016493
61	0x3a996aee	0.0011704841
62	0x3c476939	0.012171083
63	0xb9c2e976	-0.00037176505
64	0x3b8f232c	0.0043682065
65	0xbc455afc	-0.012045618
66	0x3c575334	0.013142396
67	0x3cb5cbb2	0.022191856
68	0x3b7b5c6d	0.003835465
69	0x3ba83fe9	0.005134572
70	0x3c847fdc	0.01617425
71	0x3a9efe7e	0.0012130288
72	0x3c0cf652	0.008603649
73	0xbaf1007b	-0.0018386984
74	0x3ba838ef	0.00513374
75	0x3c068a18	0.008211635
76	0xbbd4ae4f	-0.0064905058
77	0xbc3431aa	-0.010998169
78	0xbb87bf1f	-0.0041426565
79	0x3c692f8a	0.014232526
80	0x3b9cf508	0.004789952
81	0x3af21a63	0.0018470999
82	0xbbb11b1b	-0.0054048426
83	0x39f2bb31	0.00046297305
84	0x3b93beb1	0.004508816
85	0x3b1e55c4	0.0024160007
86	0x3ba97fb3	0.0051726936
87	0x3ba1a3b8	0.004932847
88	0xbb233bb0	-0.0024907403
89	0xbbafc5e7	-0.005364168
90	0xbc2a9bfb	-0.010413165
91	0xbc140265	-0.009033774
92	0x3c916b92	0.017751489
93	0x3c8b7b50	0.017026573
94	0x3b4d5440	0.0031330734
95	0x3bd97b09	0.0066369814
96	0x3bd71626	0.0065639196
97	0x3c88f171	0.01671669
98	0xbc4ac403	-0.012375834
99	0xbadc5d3e	-0.0016812456
100	0xbb86de96	-0.00411589
101	0x3c90ea92	0.017689977
102	0xbc1fab29	-0.009745398
103	0xbc14c023	-0.009079012
104	0x3c7045a4	0.014665041
105	0x3c811e1e	0.015761431
106	0x38bd35b6	9.022227e-05
107	0x3c0564ab	0.008141677
108	0x3c810881	0.015751125
109	0x3c29c973	0.010362971
110	0xba8dc7cc	-0.001081699
111	0xbba007eb	-0.0048837564
112	0x3c6eb033	0.014568376
113	0x3c5f852d	0.013642591
114	0xba96d432	-0.0011507331
115	0x3c00af1c	0.007854249
116	0x3b71f841	0.0036921652
117	0x3b650685	0.0034946513
118	0x3b4a29db	0.0030847702
119	0xbbac8aef	-0.0052655856
120	0x3bcdc9ab	0.006280144
121	0xbb205336	-0.002446366
122	0x3c42640e	0.011864675
123	0xbc9fe7fe	-0.019519802
124	0x3c1eafc2	0.009685459
125	0xbb50497b	-0.003178208
126	0xbc568937	-0.013094238
127	0x3c061bf8	0.008185379
128	0xbb55dd2d	-0.0032633052
129	0x3ba9b30e	0.0051788157
130	0x3b34aac1	0.0027567598
131	0x3c77e95f	0.015131324
132	0xba9c5eec	-0.0011930144
133	0x3a7dd2de	0.0009682606
134	0xbbb282aa	-0.0054477053
135	0x3a1acd56	0.0005905231
136	0x3c990aec	0.018681966
137	0xbba6b9f3	-0.005088085
138	0xbbd83500	-0.006598115
139	0xbbba72f8	-0.005689975
140	0x3c31e477	0.010857693
141	0xbbe9a8fd	-0.0071307407
142	0xbbe3541d	-0.0069375173
143	0xbbc66578	-0.0060545765
144	0xbc6b6953	-0.014368373
145	0x3c90cd15	0.017675916
146	0xbc5aebf6	-0.0133619215
147	0xbc100c09	-0.008791932
148	0x3c4d48d8	0.012529574
149	0xbcd60ad2	-0.026128206
150	0x3ca53690	0.020167619
151	0xba1345dc	-0.0005618015
152	0x39f6a173	0.00047041065
153	0x3b9fb02b	0.004873296
154	0x3bc503a3	0.0060123964
155	0xb958e58c	-0.00020684878
156	0x3c7ab0bd	0.015300927
157	0x3c1562ac	0.0091177635
158	0x3b3ed9c8	0.0029121507
159	0x3b75ce7d	0.003750711
160	0x3aafc4f3	0.0013410136
161	0x39eb9fbb	0.000449417
162	0xbc0e828e	-0.008698119
163	0xb9c527dc	-0.00037604466
164	0x3c9b0bab	0.018926462
165	0xbb89146e	-0.0041833436
166	0x3b8aae16	0.0042321784
167	0x3bd7f86c	0.0065908935
168	0x3c3b664b	0.011437963
169	0x3aa90bea	0.0012897227
170	0xbbbcf553	-0.0057665496
171	0x3c323d91	0.010878936
172	0x3a93f946	0.0011289499
173	0xbb27a63c	-0.002558126
174	0x3b8f71ed	0.0043775947
175	0x3c846d30	0.016165346
176	0x3ca00c03	0.019536978
177	0x3c7dc2a5	0.015488301
178	0x3ac68765	0.0015146552
179	0x3c2ef9be	0.01067966
180	0x3bd6dabf	0.0065568383
181	0x3adebe3a	0.0016993948
182	0x3c901ecb	0.017592808
183	0xbb9222e2	-0.0044597248
184	0x3c0b3090	0.008495465
185	0x3b745c1f	0.0037286354
186	0x3bea665a	0.0071533145
187	0x3c0a3e7f	0.008437752
188	0x3bf80e70	0.0075700805
189	0xbb41bfe6	-0.0029563843
190	0x3bd750e4	0.006570922
191	0x3ad399f9	0.001614391
192	0xb9b17969	-0.00033850528
193	0x38f410ba	0.00011637942
194	0xbb8e9795	-0.004351566
195	0x3b13c933	0.0022550344
196	0xbb0b8e63	-0.0021294586
197	0xbbc2020c	-0.005920654
198	0x3b05efda	0.0020437152
199	0xbbde4e61	-0.006784246
200	0x3bb3a69b	0.0054825074
201	0x3c84e0be	0.016220447
202	0x3b1bb6a6	0.002375999
203	0xbc452ca8	-0.012034573
204	0x3ac4cf54	0.0015015402
205	0x3a95f121	0.001143966
206	0x3b3bfd3e	0.002868488
207	0xbbede3e5	-0.007259833
208	0x3c02e0a8	0.007988133
209	0x3c29e484	0.010369424
210	0x3c03139d	0.008000282
211	0x3bd27a13	0.006423244
212	0x3cd49548	0.02595009
213	0xbc2a0756	-0.010377726
214	0xbc0857fa	-0.0083217565
215	0x3ab94040	0.0014133528
216	0x3ba1fbba	0.004943338
217	0x3c072efb	0.008250947
218	0x3ae97f88	0.0017814497
219	0xbb239573	-0.0024960905
220	0xbbd4b6dd	-0.0064915256
221	0xbc215a52	-0.009848194
222	0x3cbbf43f	0.022943614
223	0x3bf35e63	0.0074270233
224	0x3bdb23e7	0.0066876295
225	0x3add0f6c	0.0016865558
226	0x3b919d75	0.004443819
227	0x3bdc42a4	0.0067218114
228	0x3c81ea71	0.01585886
229	0x3c658478	0.014008634
230	0x3ccd5165	0.025063226
231	0x3ad7d5e7	0.0016466946
232	0xbbaa6c28	-0.0052008815
233	0x3b902085	0.004398408
234	0x3be84373	0.0070881187
235	0xbc19b68e	-0.009381903
236	0x3b4e9f64	0.003152811
237	0xbc66b18e	-0.014080418
238	0xbbb85c15	-0.0056262114
239	0xbc28d706	-0.010305172
240	0x3bf4e6df	0.007473811
241	0xbb303f06	-0.0026893034
242	0xb9c574a1	-0.00037661663
243	0x3b21645b	0.0024626467
244	0xbc17d876	-0.009267917
245	0x3c233078	0.009960286
246	0x3c078d7e	0.00827348
247	0xbbec47e5	-0.007210719
248	0xbb92cae2	-0.004479752
249	0xbb77c48a	-0.0037806355
250	0x3bae890b	0.0053263954
251	0x3b2191e7	0.0024653615
252	0x3b5da3ad	0.0033819482
253	0xba3cf6b4	-0.00072083925
254	0x3c935c3d	0.017988319
255	0x3bd9a4a2	0.00664194

network_body._body_endoder.seq_layers.0.weight f4 [256, 456]
0	0x3cf0f1ed	0.029412234
1	0x3dac52b9	0.084142156
2	0xbdb497bd	-0.08818004
3	0xbd9a6e0f	-0.07540523
4	0xbd010c8d	-0.03150611
5	0x3d03769c	0.032095537
6	0xbda03526	-0.07822637
7	0x3d57e9a3	0.052713048
8	0xbc70b5ee	-0.014691813
9	0xbc7b9859	-0.015356147
10	0x3d4eb864	0.050468817
11	0xbc4d96fe	-0.012548206
12	0xbcbe5f21	-0.02323872
13	0x3b87d0e8	0.0041447766
14	0xbdb7cd16	-0.08974664
15	0xbd1f5f17	-0.038909044
16	0x3d138958	0.036019653
17	0xbcdc628b	-0.026902458
18	0x3daa6b74	0.08321276
19	0x3cca142b	0.02466782
20	0xbd089be1	-0.033351783
21	0xbd260702	-0.040534027
22	0x3bf032c5	0.007330271
23	0xbcbc62ee	-0.022996392
24	0xbde82840	-0.11335802
25	0xbde50cac	-0.111840576
26	0x3c431e28	0.011909045
27	0x3c9a1369	0.018808084
28	0xbd6d99ba	-0.058007933
29	0xbcdbc8c8	-0.026829138
30	0x3959b629	0.00020762593
31	0xbc3b1ade	-0.01141998
32	0xbd773267	-0.0603508
33	0x3d4ac596	0.04950484
34	0x3c87ffca	0.016601462
35	0x3d58467c	0.052801594
36	0x3bce697b	0.0062991953
37	0xbce50eb2	-0.027961109
38	0xbd5e5c49	-0.05428723
39	0xbd7a4571	-0.06110138
40	0xbce5052a	-0.027956564
41	0x3c854da3	0.016272372
42	0x3bd088c0	0.006363958
43	0xbd0b43a5	-0.034000058
44	0xbd78a891	-0.060707632
45	0xbde13fad	-0.10998473
46	0x3d4c6c50	0.049907982
47	0xbce9a32e	-0.028520193
48	0xbd8a87a0	-0.0676415
49	0xbd0c7354	-0.034289673
50	0x3d48307d	0.048874367
51	0xbd800145	-0.06250242
52	0x3cb8cc9e	0.022558507
53	0x3c613138	0.013744645
54	0x3b6564e4	0.0035002762
55	0xbd8bf4b4	-0.06833783
56	0x3d1e70a2	0.038681634
57	0x3c743587	0.01490534
58	0xbd1b245a	-0.037876464
59	0xbd8c91d7	-0.06863754
60	0xbb0b7a41	-0.0021282586
61	0xbc4526c1	-0.012033165
62	0x3d8dfebb	0.069333516
63	0x3a62fdc2	0.00086590287
64	0xbc25fb34	-0.010130692
65	0x3de6c3cd	0.11267815
66	0xbdae6fa6	-0.08517389
67	0x3ccf6a2a	0.025319178
68	0xbd9656d9	-0.073407836
69	0x3bdadb6e	0.00667899
70	0xbc8a1431	-0.016855331
71	0xbc05e821	-0.00817302
72	0x3c91569b	0.017741492
73	0xbcb8de58	-0.02256696
74	0xbddfe30d	-0.109319784
75	0x3c7387f1	0.014863954
76	0xbd756200	-0.059907913
77	0xbd12f5f4	-0.03587909
78	0xbd0700ac	-0.032959625
79	0x3d14c610	0.0363217
80	0xbcfa01fb	-0.030518522
81	0x3d5ef0dd	0.054428924
82	0xbd190658	-0.037359565
83	0xbd9de6fc	-0.077100724
84	0xbd082b58	-0.03324446
85	0xbd243765	-0.04009189
86	0xbdc4c34c	-0.096075624
87	0x3cb96e59	0.022635626
88	0xbc4d811b	-0.012542988
89	0xbce09ee9	-0.027419524
90	0x3a48dabc	0.00076619885
91	0x3caf1533	0.021372413
92	0xbb99e286	-0.004696193
93	0x3daf4fd7	0.0856015
94	0x3ca26ccb	0.019827267
95	0xbda57f27	-0.08080893
96	0xbd464c9b	-0.0484129
97	0xbddf53fa	-0.10904689
98	0xbdfbcd1c	-0.12294981
99	0xbcc24310	-0.023713619
100	0x3a92c1d3	0.001119668
101	0xbca24c88	-0.019811884
102	0xbd177f29	-0.036986504
103	0xbcd04cce	-0.025427248
104	0xbd12a6ea	-0.035803713
105	0x3dc19f28	0.09454185
106	0x3d093509	0.033497844
107	0xbcf1f6eb	-0.029536685
108	0xbc8d8f84	-0.017280348
109	0xbdcb65a4	-0.09931496
110	0xbd45b075	-0.048263986
111	0x3d18a6c6	0.037268423
112	0x3be1299b	0.006871415
113	0x3cea09ca	0.02856912
114	0xbdaeda29	-0.085377045
115	0xbd8dbcdd	-0.069207884
116	0xbcdab37f	-0.026696919
117	0x3ce4d7f1	0.027935
118	0xbb0bfab8	-0.0021359157
119	0xbd131c3b	-0.035915595
120	0x3ca7197e	0.020397898
121	0x3d61d578	0.05513522
122	0xbbde8798	-0.0067910664
123	0xbd911d2a	-0.07085641
124	0xbc2cfaa0	-0.0105578005
125	0xbda5e873	-0.08100977
126	0xbe07e901	-0.13272478
127	0x3de4bcba	0.11168809
128	0xbd9d540d	-0.07682047
129	0xbc8410f7	-0.01612137
130	0xbd883c7d	-0.06652162
131	0xbd021fb1	-0.031768505
132	0x3c85d1ba	0.016335357
133	0xbcd900f6	-0.026489716
134	0xbd397446	-0.045276903
135	0x3d02086a	0.031746306
136	0x3bab3406	0.0052247075
137	0xbd41dfc4	-0.04733254
138	0x3c004b3c	0.007830437
139	0xbd94c06a	-0.072632626
140	0x3bbec398	0.0058216564
141	0x3dcd3496	0.100197956
142	0x3b4d3d1c	0.0031316942
143	0x3c0e7199	0.008694076
144	0xba4ff065	-0.0007932245
145	0x3d7fc110	0.062439978
146	0xbb677581	-0.003531784
147	0xbd2275eb	-0.039663237
148	0xbd107fae	-0.035278015
149	0x3d052747	0.03250816
150	0xbdd1547e	-0.10221194
151	0x3d2f2784	0.042762294
152	0xbcb1f595	-0.021723548
153	0xbbfd5274	-0.0077307764
154	0x3ad4bd0b	0.0016230656
155	0x3ca7dfe7	0.020492507
156	0xbc7095b5	-0.01468413
157	0xbd5cad62	-0.05387629
158	0xbc6dbe53	-0.014510709
159	0xbd8b3195	-0.067965664
160	0x3ceb243a	0.028703798
161	0x3c30e90d	0.010797751
162	0x3cdecad8	0.027196333
163	0xbdae780e	-0.08518992
164	0xbdaac31a	-0.08337994
165	0x3d44f3f6	0.04808422
166	0x3ccef0ca	0.025261302
167	0xbba2cc51	-0.004968204
168	0x3dbd065b	0.09229728
169	0xbc3d77d4	-0.011564214
170	0x3cec9f3d	0.028884524
171	0x3cd0f20d	0.025506044
172	0x3c060fef	0.00818251
173	0xbcca92c4	-0.024728186
174	0x3d736b4e	0.059428506
175	0xbd8130d0	-0.06308138
176	0xbde6122c	-0.11233935
177	0xbd876a87	-0.06612115
178	0x3c32b263	0.0109067885
179	0xbd0b04fc	-0.0339403
180	0xbd3fe96f	-0.04685348
181	0xbbfaeebd	-0.0076578544
182	0xbd5e9f13	-0.054350924
183	0xbd30e159	-0.04318366
184	0xbdba8079	-0.091065355
185	0xbd8e6625	-0.06953076
186	0x3d97a0c2	0.07403709
187	0xbc4d914a	-0.012546847
188	0xbd82cce5	-0.06386737
189	0xbd84e0fb	-0.06488224
190	0x3d255473	0.04036374
191	0x3c43b07b	0.011943932
192	0xbd3b6c61	-0.045757655
193	0xbd52c524	-0.05145754
194	0x3c6d8bf5	0.0144987
195	0x3b4ec127	0.0031548233
196	0x3dcab2f9	0.098974176
197	0x3d2d85ee	0.042364053
198	0x3daa5216	0.08316438
199	0xbdd68bcf	-0.10475885
200	0x3d142819	0.036171053
201	0xbcc524c5	-0.024065385
202	0xbcce0f8c	-0.025153898
203	0xbd74f7fc	-0.05980681
204	0xbd50aa6d	-0.05094378
205	0xbc0d70dc	-0.008632865
206	0xbe0cc2ab	-0.13746135
207	0x3d70b2df	0.058764335
208	0x3cfa381d	0.030544335
209	0x3dd09af3	0.10185804
210	0x3ce0b906	0.027431976
211	0xbd630d78	-0.055432767
212	0x3d27cedb	0.040968757
213	0xbd2eeb03	-0.042704593
214	0x3d3ba258	0.04580912
215	0x3d8ee524	0.06977299
216	0xbc1f2035	-0.009712269
217	0xbd1e3072	-0.03862042
218	0xbd97031a	-0.073736385
219	0x3d893a0e	0.06700526
220	0x3a92a00b	0.0011186613
221	0xbd3ca0ff	-0.046051975
222	0x3d0d6691	0.034521643
223	0x3d502ac7	0.050822046
224	0x3c9499b6	0.018139701
225	0x3d14fb1c	0.03637229
226	0x3cfac2f5	0.03061054
227	0x3d33c273	0.043886613
228	0x3cce0b6d	0.025151933
229	0xbd4376b4	-0.047720626
230	0x3daf9518	0.08573359
231	0xbd31d94f	-0.043420132
232	0x3d11a49c	0.035557374
233	0xbc743320	-0.014904767
234	0x3c23ed88	0.010005362
235	0xbc50ce6b	-0.012744526
236	0x3dd3b338	0.10336918
237	0x3c76fa83	0.015074375
238	0xbd087f62	-0.033324607
239	0xbd545c63	-0.05184592
240	0xbd3b1d55	-0.04568227
241	0xbd240648	-0.040045053
242	0xbdd7a1ae	-0.10528885
243	0x3b22ce28	0.0024842117
244	0xbd0e647c	-0.034763798
245	0xbccb735d	-0.024835283
246	0x3c808a9c	0.015691094
247	0x3cad6745	0.021167407
248	0x3dbc803d	0.09204147
249	0x3cfe5e0f	0.03105071
250	0xbcdb5823	-0.026775425
251	0xbd40dbbe	-0.047084562
252	0xbd399e5a	-0.04531703
253	0x3d68402c	0.056701824
254	0xbe24aac1	-0.16080762
255	0x3df51195	0.11966244

network_body._body_endoder.seq_layers.2.bias f4 [256]
0	0xbc23db72	-0.01000105
1	0x3cb02d57	0.021505995
2	0x3b82f1ab	0.003996094
3	0xbc112761	-0.008859486
4	0x3cb3874c	0.0219151
5	0x3ba3e55a	0.005001706
6	0x3ced8ccc	0.028997801
7	0x3c25e63f	0.010125696
8	0x3cc9010c	0.024536632
9	0x3bf01bea	0.0073275464
10	0x3c25679a	0.010095501
11	0x3c77dbae	0.015128059
12	0xbb2ff4b9	-0.0026848747
13	0x3c04fbb9	0.008116656
14	0xbbe14cfa	-0.0068756314
15	0x3aefae3d	0.001828618
16	0xbc8bc968	-0.017063811
17	0x3bd6a53a	0.0065504583
18	0x3c473158	0.012157761
19	0x3cf2de67	0.029647065
20	0xb99e46ea	-0.00030188943
21	0x3b780695	0.003784572
22	0x3c6cd118	0.014454149
23	0xbca439fa	-0.020047177
24	0x3baa3842	0.0051946947
25	0xb9a3ff18	-0.00031279842
26	0x3c30ef79	0.010799282
27	0x3c074a42	0.008257451
28	0x3b983a0e	0.0046455925
29	0x3c6102b2	0.013733553
30	0x3c5fb418	0.013653778
31	0x3a139f79	0.0005631368
32	0x3cf01faf	0.029311983
33	0x3b416058	0.0029506888
34	0x3c4b3363	0.012402388
35	0x3cbe86af	0.023257582
36	0x3c715832	0.0147305
37	0x3a712035	0.00091982196
38	0x3c949c5a	0.01814096
39	0x3c3872ad	0.01125781
40	0x3d026d61	0.031842593
41	0x3b8ad1cc	0.0042364355
42	0x3c3fb796	0.011701485
43	0x3b49faa6	0.0030819564
44	0x3cb3c7a5	0.021945784
45	0x3c0b0090	0.008484021
46	0xbcbfed28	-0.023428515
47	0x3c17be52	0.0092616845
48	0x3c090847	0.00836379
49	0x3cae3ef1	0.021270247
50	0xbc179a2a	-0.009253064
51	0x3b98eb23	0.0046667024
52	0x39bb7d21	0.00035760648
53	0xbc35afb8	-0.011089258
54	0xbc3638ed	-0.011121971
55	0x3bb5fc67	0.0055537703
56	0xbd3faddc	-0.046796665
57	0x3c8f6b1b	0.017507127
58	0x3b89dd94	0.0042073224
59	0xbb319bae	-0.002710085
60	0xbba01c69	-0.0048861993
61	0xbcc60aae	-0.024175014
62	0x3b854244	0.0040667374
63	0xbba7b3bd	-0.005117862
64	0x3cc40829	0.023929672
65	0x3c925fd1	0.017867954
66	0x3c0d75e0	0.008634061
67	0xbbe7051c	-0.0070501696
68	0x3cb54907	0.022129549
69	0x3b55ec97	0.003264224
70	0x3ad72bb1	0.0016416219
71	0x3c3f97df	0.011693924
72	0x3ca85e94	0.02055291
73	0x3cdd8c11	0.027044328
74	0x3c3da78b	0.01157559
75	0xbc98eee5	-0.018668601
76	0xbc8dee2b	-0.017325481
77	0x3cec12e5	0.028817603
78	0x3c99f85e	0.018795189
79	0x3cc9acfd	0.02461862
80	0x3be55442	0.0069985697
81	0x3d0192e7	0.031634238
82	0xbbc3d1ea	-0.0059759514
83	0x3b28906a	0.0025720843
84	0x3b3a151c	0.002839393
85	0xbc33ea4c	-0.010981154
86	0x3c615da9	0.0137552405
87	0x3c8ede37	0.017439945
88	0xbb7560b3	-0.003744167
89	0xbc32cd7d	-0.01091325
90	0x390bc833	0.00013330653
91	0x3d04fdeb	0.032468718
92	0x3b80045f	0.003906771
93	0x3c8316a8	0.016002014
94	0x3b97f18f	0.0046369503
95	0xbc6b9637	-0.014379076
96	0x3c89a076	0.016800147
97	0x3b9c9535	0.004778529
98	0x3c8b041d	0.016969735
99	0xbb40a8eb	-0.0029397558
100	0xbb170bde	-0.0023047845
101	0x3cc6dabe	0.024274226
102	0x3c548301	0.012970687
103	0x3bbb052d	0.005707404
104	0xbbc7b124	-0.006094115
105	0x3b0af933	0.0021205663
106	0x3c829aeb	0.015943011
107	0x3ca919f7	0.020642264
108	0x3cc4bf9c	0.024017148
109	0xbaddb280	-0.0016914159
110	0x3ca1274e	0.019672062
111	0x3b18ccbd	0.0023315393
112	0x3bb8da7c	0.0056412797
113	0xbbcc64c3	-0.0062375977
114	0x3bb595f6	0.0055415584
115	0xbc1f91e0	-0.009739369
116	0x3b715a96	0.0036827675
117	0x3cc5c13f	0.024139998
118	0x3a8d9982	0.0010803195
119	0x3c5a8a38	0.013338618
120	0xba8bb976	-0.001066013
121	0x3c62eaa4	0.013849888
122	0xbb1d774d	-0.0024027408
123	0xbd588c86	-0.05286839
124	0x3bef42b3	0.0073016523
125	0x3bfd313c	0.0077268165
126	0x3cd3877c	0.02582144
127	0xbd5c3524	-0.053761616
128	0xbc19528f	-0.009358062
129	0x3bc7bef6	0.0060957624
130	0x3c20de49	0.009818622
131	0x3c80ca1b	0.015721371
132	0x3c7110f6	0.014713516
133	0x3c252571	0.0100797275
134	0xbb537007	-0.0032262818
135	0x3b985bff	0.0046496387
136	0xbb2969ab	-0.0025850337
137	0x3cb8085b	0.022464922
138	0x3bca1c47	0.0061679217
139	0xbcea9c20	-0.0286389
140	0x3c49a7ff	0.01230812
141	0xbb10cbfb	-0.0022094238
142	0x38147507	3.539494e-05
143	0x3c39b2e3	0.011334154
144	0x3b7d35cc	0.0038636802
145	0x3cc7818a	0.024353761
146	0x3c79a719	0.015237593
147	0xbaeabfa1	-0.0017909893
148	0x3be2ed58	0.0069252662
149	0x3c1f48d5	0.009721954
150	0xbbeb3e93	-0.0071790903
151	0x39b9973d	0.0003539863
152	0xbc55449c	-0.013016846
153	0x3bef3dd2	0.0073010707
154	0xbc0c9df8	-0.008582585
155	0x3c3e095e	0.011598913
156	0x3b9290d2	0.0044728303
157	0x3c17f4f7	0.009274713
158	0x3b96a66c	0.0045974758
159	0x3bfb4bf6	0.0076689674
160	0x3cab317b	0.020897618
161	0xbc3d688f	-0.011560573
162	0x3c9943e2	0.018709127
163	0xbc8e16f6	-0.017344933
164	0xbaaa27bb	-0.0012981811
165	0x3c1265d7	0.008935413
166	0x3cb30427	0.021852566
167	0x3b9dfdac	0.0048215
168	0x3c2b33c3	0.010449353
169	0xbd44979c	-0.04799615
170	0x3ccfd1c3	0.025368577
171	0xbc412b95	-0.011790176
172	0x3ba14ddb	0.004922611
173	0xbd039642	-0.03212572
174	0x3b30302e	0.0026884186
175	0x3bebd266	0.0071967123
176	0x3c021795	0.007940193
177	0x3c1bae9f	0.009502082
178	0x3c306d20	0.010768205
179	0xbd8385ed	-0.06422029
180	0x37e58856	2.7362414e-05
181	0x38001e5c	3.0545852e-05
182	0x3bb71dfe	0.005588292
183	0xbc54e672	-0.012994396
184	0x3c946c23	0.01811797
185	0x3c79255e	0.015206663
186	0xbbebdc4e	-0.007197893
187	0xbcb47cc7	-0.022032155
188	0x3c7a16a7	0.01526419
189	0x3a903d89	0.0011004667
190	0x3c5c910b	0.013462315
191	0x3b168b16	0.0022971085
192	0x3c8170c2	0.015800837
193	0x3c5bf0ea	0.013424138
194	0x3ca1a479	0.019731747
195	0x3c54dc8c	0.012992036
196	0x3cecd2a8	0.028909042
197	0xbc578119	-0.013153338
198	0x3c5c910a	0.013462314
199	0xbd7066d1	-0.058691803
200	0x3ca2212d	0.01979121
201	0x3c5f21d7	0.013618908
202	0xbd2aa79c	-0.04166375
203	0x3c1d2a5d	0.00959262
204	0xbc105856	-0.008810123
205	0x3bd0143e	0.0063500693
206	0x3b1a20ea	0.0023518153
207	0x3c932e46	0.0179664
208	0xbca6da2a	-0.0203677
209	0xbb995b76	-0.0046800924
210	0xbc93860e	-0.018008258
211	0x3bfd5c8b	0.0077319792
212	0xbb29f371	-0.0025932456
213	0xbc124c34	-0.008929301
214	0xbd26750a	-0.04063896
215	0x3ca778e3	0.020443385
216	0x3c2e0b04	0.0106227435
217	0x3bac0ad2	0.0052503133
218	0x3b5dfce6	0.0033872663
219	0xbc3613d6	-0.011113128
220	0x3c625c7c	0.013815995
221	0x3c8e58f5	0.017376402
222	0x3c66355a	0.014050806
223	0x3c8798fd	0.016552443
224	0x3aaf25fe	0.0013362763
225	0x3a1ae8a0	0.00059092976
226	0x3c81d5bb	0.015848985
227	0xbd02bccc	-0.031918332
228	0xbcbdf6c5	-0.023188958
229	0xbbef4429	-0.0073018265
230	0x3c190f74	0.009342063
231	0x3cb9b150	0.022667557
232	0x3c49b36b	0.012310843
233	0xbb087a76	-0.0020824946
234	0x3ce2d4e6	0.027689409
235	0x3c910d47	0.017706526
236	0x3beb7889	0.007186
237	0x3babb740	0.005240351
238	0x3c84af23	0.016196793
239	0xbca21ab3	-0.019788122
240	0x3c273b12	0.010206955
241	0x3b827e83	0.0039823665
242	0xbcddd718	-0.027080104
243	0x3cbd7be1	0.02313036
244	0xbbd274fe	-0.006422638
245	0x3af7683a	0.0018875666
246	0x3c155e3c	0.0091167055
247	0x3af8f2a7	0.0018993214
248	0x3b9680cb	0.00459299
249	0xbc04e138	-0.008110337
250	0xbcb4341c	-0.021997504
251	0xbc2db8f2	-0.010603176
252	0x3b779e64	0.0037783617
253	0x3bd29a38	0.0064270757
254	0x3b9bd79f	0.0047559286
255	0x3c98cd2a	0.018652517

network_body._body_endoder.seq_layers.2.weight f4 [256, 256]
0	0xbb119a56	-0.0022217236
1	0x3c2460b1	0.010032819
2	0xbd0a8146	-0.03381469
3	0xbc8a5875	-0.016887883
4	0xbcd5196c	-0.026013099
5	0xbc47abc0	-0.0121869445
6	0xbd8f4ae0	-0.06996703
7	0xbd867ed8	-0.06567162
8	0x3db4e928	0.088335335
9	0xbe0c34fd	-0.13692088
10	0x3dcdaafc	0.10042378
11	0xbd887547	-0.06662994
12	0x3e38182c	0.17977971
13	0x3d78058b	0.06055216
14	0xbd3e241e	-0.046421163
15	0x3db13966	0.08653526
16	0x3db35b50	0.08757651
17	0xbd9e963b	-0.07743498
18	0xbe239502	-0.1597481
19	0x3c52a548	0.012856789
20	0x3d71747a	0.05894897
21	0x3c7957a4	0.015218649
22	0x3cb9d5c6	0.022684943
23	0x3daa7cd5	0.08324591
24	0xbd208d4f	-0.039197262
25	0x3d9e66ee	0.07734476
26	0xbe0a1eba	-0.13488284
27	0xbbaf46e8	-0.005349029
28	0x3e4ce241	0.20008184
29	0x3e1673c5	0.146926
30	0xbce1e65d	-0.027575666
31	0xbb0d1968	-0.0021530036
32	0x3da49f6d	0.080382206
33	0xbceaac3a	-0.028646577
34	0xbda35675	-0.07975475
35	0xbca47234	-0.020073988
36	0x3dd5eb52	0.104452744
37	0x3dd4bd24	0.10387638
38	0x3d0d7837	0.034538474
39	0xbbef75ad	-0.007307729
40	0xbd523093	-0.051315855
41	0x3cacf4fe	0.021112915
42	0x3d901682	0.07035543
43	0x3d01be54	0.03167565
44	0xbdbb9f7c	-0.091612786
45	0x3b8f816b	0.0043794415
46	0xbd42f020	-0.047592282
47	0x3c8e7d35	0.017393688
48	0x3ccf9f0e	0.025344398
49	0xbd503152	-0.050828286
50	0x3ce48384	0.027894743
51	0x3cdc55d0	0.026896387
52	0x3db504a6	0.08838777
53	0xbd7ff64c	-0.062490746
54	0x3dd94a9b	0.10609933
55	0x3c2e45c4	0.010636751
56	0xbae3cc55	-0.0017379621
57	0xba9baeb5	-0.0011877628
58	0xbd078eaf	-0.033095058
59	0xbd1c2723	-0.03812326
60	0x3dbbd2db	0.09171077
61	0xbd33c999	-0.04389343
62	0x3db8d3a5	0.09024743
63	0x3ddefe7f	0.10888385
64	0x3da7bbeb	0.081901394
65	0xbc13df8a	-0.009025464
66	0xbc31e39a	-0.010857487
67	0xbc8fb616	-0.01754288
68	0xbddfe9b7	-0.109332494
69	0x3dbb2045	0.09137014
70	0x3dff81e2	0.12475945
71	0x3d851f6d	0.065001346
72	0x3d93576b	0.07194408
73	0xbcb16109	-0.021652715
74	0x3e1ad5b3	0.15120582
75	0x3d165789	0.036704574
76	0x3da5dfc2	0.08099319
77	0xbbca6612	-0.0061767185
78	0x3c629a3a	0.013830716
79	0x3de69806	0.11259465
80	0xbd457df6	-0.04821583
81	0xbacada65	-0.0015476464
82	0x3e183002	0.14862064
83	0x3d8bf7cf	0.06834375
84	0xbce30dd2	-0.027716551
85	0xbd13a472	-0.0360455
86	0x3d603ec8	0.054747373
87	0xbd1f9a6d	-0.03896563
88	0x3dbfc4ab	0.09363683
89	0x3dd3d53f	0.10343408
90	0xbda2e150	-0.07953131
91	0xbb4a630b	-0.0030881788
92	0x3cb41f0c	0.02198746
93	0x3d8007a3	0.062514566
94	0x3d7db1f0	0.061937273
95	0x3da3efd9	0.08004732
96	0xbd3231d8	-0.043504566
97	0xbd97df26	-0.07415609
98	0xbdf7972f	-0.12089383
99	0x3e0ec46f	0.13942121
100	0x3d7696d2	0.060202427
101	0xbb7cb1ab	-0.0038558047
102	0xbc49f8d5	-0.012327393
103	0x3d94042e	0.0722736
104	0xbbc2e435	-0.0059476146
105	0xbdfc6aff	-0.123250954
106	0xbdd52e3b	-0.104092084
107	0x3de6f381	0.112769134
108	0xbdcc7319	-0.09982891
109	0xbd8885c1	-0.066661365
110	0xbd5bd539	-0.05367014
111	0xbdb4969a	-0.088177875
112	0x3c93fff8	0.018066391
113	0x3bbc1277	0.005739506
114	0xbd57553c	-0.05257152
115	0x3cb5e62b	0.02220448
116	0x3d97d7e3	0.07414224
117	0xbda2d9d1	-0.079517014
118	0xbe1216af	-0.14266466
119	0x3d146626	0.03623023
120	0x3d2d0b69	0.04224721
121	0xbdf772a4	-0.12082413
122	0x3b5db909	0.0033832213
123	0x3cea3ceb	0.028593501
124	0xbda0fd2b	-0.07860788
125	0x3e053833	0.1300972
126	0xbd7a5bf2	-0.061122842
127	0xbe0b3c41	-0.13597204
128	0x3da402f2	0.08008374
129	0xbcfa1a21	-0.030530037
130	0xbde37c54	-0.11107698
131	0xbdc0576d	-0.09391675
132	0xbdb1f8a0	-0.086899996
133	0x3d8bfe68	0.068356335
134	0x3d73e0ed	0.059540678
135	0xbd0efedd	-0.034911025
136	0xbe1c0a1a	-0.15238228
137	0x3cc0e7fd	0.02354812
138	0x3d7b3f79	0.06133983
139	0xbd4c72cf	-0.049914178
140	0xbd78bb7a	-0.060725667
141	0x3de737f5	0.1128997
142	0xbc972cb1	-0.018453928
143	0x3d4d8eb6	0.050184928
144	0x3c142b21	0.009043486
145	0x3b7cd098	0.003857648
146	0xbd0717b7	-0.0329816
147	0xbd00fbcd	-0.031490136
148	0x3c57fd2d	0.01318292
149	0x3bd3faa3	0.006469087
150	0x3de06eeb	0.10958656
151	0x3c685824	0.014181171
152	0xbce351d3	-0.027748978
153	0x3cde4379	0.027131783
154	0x3e0ba711	0.1363795
155	0xbdafb056	-0.08578555
156	0x3ce397ac	0.027782284
157	0x3c8234fa	0.015894402
158	0xbdedff64	-0.116209775
159	0x3dafb498	0.085793674
160	0xbbc22bf0	-0.005925648
161	0xbe099d4d	-0.13438912
162	0xbd997c1e	-0.074943766
163	0x3c3e2156	0.011604628
164	0xbe056fe1	-0.1303096
165	0x3e2b18f2	0.16708735
166	0x3bba942e	0.005693934
167	0x3de367ce	0.111037835
168	0xbe369111	-0.17828776
169	0xbbc2055a	-0.005921048
170	0xbd3dadde	-0.04630839
171	0x3d1e7d36	0.03869363
172	0x3d1da0af	0.038483318
173	0x3bc246da	0.0059288563
174	0xbdf925bb	-0.121654
175	0x3cb79ad6	0.022412699
176	0xbdd11d1d	-0.10210631
177	0x3de1646a	0.110054806
178	0xbd84d49a	-0.06485863
179	0x3cd0d6e4	0.025493093
180	0x3d3779f2	0.04479403
181	0x3d9b80ac	0.075929016
182	0x3c7efc47	0.015563077
183	0xbdb2f3e2	-0.08737923
184	0x3d7aa4b6	0.061192237
185	0x3dfc5bef	0.123222224
186	0xbc4a649f	-0.0123530915
187	0xbdadfce5	-0.084955014
188	0x3cef8736	0.029239278
189	0xbd0dda16	-0.03463181
190	0x3bc8333f	0.0061096246
191	0x3de32aab	0.11092123
192	0xbcd82e93	-0.026389396
193	0x3d29ad15	0.04142483
194	0xbd78f00f	-0.060775813
195	0xbc907b91	-0.017637046
196	0x3c18868c	0.009309422
197	0xbdaec418	-0.08533496
198	0xbd7e9ade	-0.06215941
199	0xbd79d7e0	-0.06099689
200	0x3e1a1b67	0.15049516
201	0x3d658040	0.05603051
202	0xbd01023a	-0.031496264
203	0xbc644aa0	-0.013933808
204	0x3e047bfa	0.12937918
205	0xbd08e4ec	-0.033421442
206	0x3d9e2dee	0.07723604
207	0xbc0926eb	-0.008371095
208	0x3d04d4ae	0.03242939
209	0x39d3a4b2	0.00040367764
210	0xbbeff76f	-0.0073231976
211	0x3d1b679b	0.037940603
212	0x3d01d61f	0.031698342
213	0xbdb42658	-0.08796376
214	0xbbd9994e	-0.00664059
215	0x3d8bef9e	0.06832813
216	0x3cbcae7d	0.023032421
217	0x3d71f54e	0.05907183
218	0xbde07626	-0.10960035
219	0x3da25a44	0.07927373
220	0xbd8dc14c	-0.06921634
221	0xbc073aaa	-0.008253733
222	0xbd90d407	-0.07071691
223	0xbd50d467	-0.050983813
224	0x3e0f1fbc	0.1397695
225	0x3d21ed2a	0.039532818
226	0xbc87507c	-0.01651787
227	0x3cd2d296	0.02573518
228	0x3d8082af	0.06274926
229	0x396d1c1b	0.00022612551
230	0xbd432d02	-0.047650345
231	0x3cd95e9d	0.026534373
232	0xbd9544ce	-0.07288514
233	0x3be6522d	0.007028839
234	0xbcd28f57	-0.025703115
235	0xbd509549	-0.05092362
236	0xbda7a06b	-0.08184894
237	0x3d28c140	0.041199923
238	0x3c78c5cf	0.01518388
239	0x3c88db3a	0.016706098
240	0x3cc638f1	0.024197074
241	0xbdb2c6ad	-0.08729301
242	0x3d980061	0.07421947
243	0x3e48004d	0.19531365
244	0x3d3a4754	0.04547818
245	0xbc764270	-0.015030488
246	0x3a8079cb	0.0009801922
247	0x3cd58cd4	0.026068129
248	0x3e0e654b	0.13905828
249	0xbbe0190a	-0.0068389224
250	0x3d819522	0.06327273
251	0xbc23d8e8	-0.010000445
252	0xbdadf976	-0.084948465
253	0xbd099749	-0.033591542
254	0x3d97fa42	0.0742078
255	0xbda08524	-0.078378946
