DalekStepsR12/Assets/MyModels/R8DalekBehavior.onnx (onnx, 739093 bytes, 9 tensors)

action_model._discrete_distribution.branches.0.bias f4 [3]
0	0xbd88d87e	-0.066819176
1	0x3c664541	0.014054597
2	0x3d159abd	0.036524523

action_model._discrete_distribution.branches.0.weight f4 [3, 256]
0	0xbcc25bac	-0.023725353
1	0x3cc43943	0.023953086
2	0x3d2329e8	0.039834887
3	0xbc04329d	-0.008068708
4	0xbd606b50	-0.05478984
5	0x3c804692	0.01565865
6	0xbcc81a54	-0.024426617
7	0xbcaf1113	-0.021370446
8	0x3d4c9368	0.049945265
9	0xbbb70158	-0.005584877
10	0xbc63e456	-0.01390942
11	0x3cbc314b	0.022972723
12	0x3ccc6cee	0.024954285
13	0x3d011bab	0.031520527
14	0x3cfa6369	0.03056498
15	0x39248f9b	0.00015693756
16	0xbc9971f0	-0.018731087
17	0x3db81ce0	0.089898825
18	0xbc78af3a	-0.015178496
19	0x3c355387	0.011067278
20	0xbcf94027	-0.030426098
21	0x3d204fd2	0.039138623
22	0x3c3bf10d	0.011471045
23	0x3ca10e2d	0.01966008
24	0xbb7ae624	-0.0038284147
25	0x3cfc4fa3	0.030799692
26	0x3b33fdd8	0.0027464535
27	0x3c320409	0.01086522
28	0x3d1a5427	0.03767791
29	0xbca58abe	-0.020207759
30	0xbcc92df1	-0.02455804
31	0xbcfba634	-0.0307189
32	0x3d77bc23	0.060482156
33	0xbc21e296	-0.009880682
34	0xbc16942c	-0.0091906
35	0x3cc0cecd	0.02353611
36	0xbd2b9567	-0.041890528
37	0x3c30004d	0.010742259
38	0x3d4bf867	0.04979744
39	0x3cf84e5d	0.030310804
40	0xbd782e27	-0.06059089
41	0xbd2b8ffa	-0.041885354
42	0x3cb11d89	0.021620529
43	0xbd05a965	-0.03263225
44	0x3cabe6a5	0.020984003
45	0xbd36ab42	-0.044596918
46	0x3bb2d34d	0.005457318
47	0xbb47bc6e	-0.0030477303
48	0x3c8b4d2e	0.017004576
49	0xbc72bafa	-0.0148150865
50	0x3d9b12a2	0.07571913
51	0xbcff63f3	-0.03117559
52	0xbc047a69	-0.0080858255
53	0x3cc34d85	0.023840675
54	0x386a75da	5.5899705e-05
55	0x3d0e0aa6	0.034678124
56	0xbb1bf6be	-0.0023798193
57	0x3d047037	0.03233358
58	0x3a832774	0.0010006265
59	0x3d35f623	0.044424187
60	0x3a4d3e6d	0.00078294316
61	0xbc8f7bf7	-0.017515166
62	0x3cbafa85	0.022824535
63	0x3c1a6719	0.009423994
64	0xbceef233	-0.029168224
65	0x3d05eea2	0.03269828
66	0xbb536c0e	-0.003226045
67	0xbcd66307	-0.026170267
68	0xbd0a1cc3	-0.033718836
69	0xbd06ed08	-0.032940894
70	0x3d94546a	0.07242663
71	0xbb9f0e02	-0.004853965
72	0x3d357bd7	0.044307556
73	0x3cb87ade	0.022519525
74	0x3d662611	0.056188647
75	0xbc963a72	-0.018338416
76	0x3ca777ff	0.02044296
77	0xbcae4a03	-0.021275526
78	0xbbfc31fc	-0.0076963883
79	0xbd3b25e4	-0.045690432
80	0xbc33e4cb	-0.010979841
81	0x3c872c7a	0.0165007
82	0x3b1fe964	0.0024400586
83	0xbc78e1ff	-0.0151906
84	0xba6b89f1	-0.00089850934
85	0x3cb620cf	0.022232441
86	0xbb77369c	-0.0037721759
87	0x3cd323e8	0.025773957
88	0x3c389f08	0.011268385
89	0x3c7df509	0.015500315
90	0xbccf2c3d	-0.02528965
91	0x3ccb604c	0.024826191
92	0xbcfb29ac	-0.03065952
93	0x3c01e777	0.007928721
94	0x3c2c59ce	0.010519458
95	0x3b690176	0.003555385
96	0x3d0f4ed4	0.034987286
97	0xbc31f908	-0.010862596
98	0x3d8b36e0	0.06797576
99	0xbc809e0e	-0.015700366
100	0xbcdcb935	-0.026943782
101	0xbc678543	-0.014130893
102	0x3c8a5739	0.016887294
103	0x3cee0ad6	0.029057901
104	0xbced8bb2	-0.028997276
105	0xbd31b111	-0.043381754
106	0x3d1d2c55	0.038372356
107	0x3c2ea535	0.010659506
108	0xbd2d9d39	-0.042386267
109	0xbcda4917	-0.02664618
110	0x3cdcaad1	0.02693692
111	0x3d0004b7	0.031254496
112	0xbc18b389	-0.009320148
113	0xbac3a7e5	-0.0014927356
114	0xbc9dddee	-0.019270863
115	0x3d237764	0.03990878
116	0xbc5d859f	-0.013520627
117	0xbd7540bd	-0.059876192
118	0x3bebabc4	0.007192107
119	0xbbc37b37	-0.005965616
120	0x3ba721b4	0.0051004533
121	0x3c0bda33	0.0085359095
122	0x3894d956	7.097672e-05
123	0x3c9b34f3	0.018946147
124	0xbc9a1878	-0.018810496
125	0xbce0ce6b	-0.027442178
126	0xbc6bb52b	-0.0143864555
127	0x3ce35692	0.02775124
128	0xbce542cc	-0.027985953
129	0x3bfb297d	0.007664858
130	0x3d1f3240	0.03886628
131	0xbcbcd26c	-0.023049556
132	0x3c3f9e1a	0.011695409
133	0x3cf3d9d7	0.02976696
134	0x3cdcf9b8	0.026974544
135	0x3c2eafd1	0.010662035
136	0x3d209eb6	0.03921386
137	0xbd2f1751	-0.042746846
138	0xbca968de	-0.020679887
139	0xbc1e519e	-0.009663014
140	0x3c86f4a0	0.016474068
141	0x3b842f16	0.0040339334
142	0x3c693ac9	0.014235207
143	0x3d43f238	0.04783842
144	0x3cb7a9cd	0.022419835
145	0xbc09cf3c	-0.008411225
146	0xbc640cfb	-0.01391911
147	0xbcac7d9c	-0.021055989
148	0x3d7c29ef	0.06156343
149	0x3ce20522	0.027590338
150	0xbc67a41a	-0.014138246
151	0x3a34ccc8	0.000689697
152	0xbcc0bc25	-0.023527214
153	0x3d30d670	0.043173254
154	0x3c42cef8	0.0118901655
155	0xbcd3cf99	-0.025855826
156	0xbc2da3c3	-0.010598126
157	0x3dada898	0.08479422
158	0xbc86d5ce	-0.016459372
159	0x3d470e5a	0.04859767
160	0xbb96ecfc	-0.0046058875
161	0xbd0abb3b	-0.033869963
162	0x3cf30ef4	0.029670216
163	0x3dbe6bbd	0.09297893
164	0xbd066c56	-0.03281816
165	0x3d70cf00	0.05879116
166	0xbc4032b9	-0.011730843
167	0x3d7f5532	0.062337108
168	0x3d1c7111	0.038193766
169	0xbd1d8b63	-0.038463008
170	0x3d2737c1	0.040824655
171	0x3d2a9374	0.04164453
172	0x3ce510f1	0.02796218
173	0xbd2fb729	-0.042899285
174	0xbcb20311	-0.021729978
175	0xbc80b612	-0.015711818
176	0xbc7ffd47	-0.015624351
177	0x3cee9c46	0.029127251
178	0xbc1b385d	-0.009473887
179	0x3bec8f82	0.007219256
180	0x3d005da0	0.031339288
181	0x3d0c5037	0.034256186
182	0xbcf99f51	-0.030471476
183	0x3d6e2cd2	0.058148213
184	0x3c26359b	0.0101446165
185	0xbbf416ec	-0.0074490216
186	0x3dbf8368	0.09351236
187	0xbd34e75b	-0.04416595
188	0xbc0b5623	-0.008504423
189	0xbce68517	-0.028139634
190	0xbb7890ac	-0.0037928028
191	0xbc5cf815	-0.013486882
192	0x3d078f37	0.033095565
193	0xbc6332d2	-0.013867097
194	0x3c0cb86e	0.008588893
195	0x3cf724ad	0.030168856
196	0xbba0580c	-0.0048933085
197	0x3d28d2de	0.041216724
198	0xbd6d7741	-0.057975058
199	0x3cc60cec	0.024176084
200	0xbcb19bcf	-0.02168074
201	0xbd0b6b5a	-0.034037925
202	0x3d1d173a	0.03835223
203	0x3d84f36d	0.06491742
204	0x3a00e030	0.0004916219
205	0x3b9d0f16	0.004793058
206	0x3d663112	0.05619914
207	0x3ceafd5a	0.02868526
208	0xbc389a6b	-0.011267285
209	0x3b3b4861	0.0028577077
210	0xbcc27c9b	-0.023741057
211	0xbd668037	-0.05627462
212	0x3d28301b	0.041061502
213	0xbc4d1ffe	-0.012519835
214	0xbcdcef6c	-0.026969634
215	0xbc786252	-0.01516016
216	0x3d846991	0.06465448
217	0xbcc05d00	-0.023481846
218	0x3c98c002	0.018646244
219	0x3ca307a0	0.019901097
220	0xbd18a431	-0.03726596
221	0xbcb86367	-0.022508336
222	0x3c019e95	0.007911344
223	0x3a1d6363	0.00060038845
224	0xbc67e276	-0.014153114
225	0x3b659a83	0.0035034723
226	0xbccbcad8	-0.024876997
227	0xbd12b276	-0.035814725
228	0xbd6ecd9b	-0.05830155
229	0x3c573b18	0.013136648
230	0xbd0040fa	-0.031311966
231	0x3d91d28d	0.071202375
232	0xbbb8b908	-0.005637292
233	0x3d9b2984	0.07576278
234	0xbd4d10ac	-0.050064728
235	0x3d6488d8	0.055794567
236	0xbd00aadb	-0.03141294
237	0x3bba7fce	0.005691505
238	0x3cec39fa	0.02883624
239	0xbd0304c3	-0.031986963
240	0xbc7e358c	-0.015515696
241	0xbc95783a	-0.018245805
242	0xbcc54d42	-0.024084691
243	0x3c7df285	0.015499716
244	0x3b77ceb2	0.003781241
245	0xbb68fcf3	-0.003555116
246	0x3ca66fa6	0.02031691
247	0x3dcb1e14	0.09917846
248	0xbca7e1f2	-0.020493481
249	0x3d6c5afd	0.05770396
250	0xbd3f2bbf	-0.04667258
251	0x3d3de0b1	0.04635686
252	0xbc28ca55	-0.010302146
253	0x3d82d7c8	0.06388813
254	0xbc990375	-0.018678406
255	0xbd0034e4	-0.03130044

action_model._discrete_distribution.branches.1.bias f4 [2]
0	0xbb99c108	-0.0046922006
1	0x3b99c138	0.004692223

action_model._discrete_distribution.branches.1.weight f4 [2, 256]
0	0xbb81a83c	-0.0039568227
1	0x3c8fb1c4	0.01754082
2	0xbd5316c0	-0.051535368
3	0x3d1c55ee	0.038167886
4	0xbc412279	-0.011788004
5	0xbc565882	-0.013082625
6	0xbd474ae4	-0.048655406
7	0xbd66215d	-0.05618416
8	0xbb19b26a	-0.002345229
9	0x3b06d08b	0.0020571079
10	0x3d3c2aba	0.045939185
11	0xbd10e46d	-0.035374094
12	0x3caea21f	0.02131754
13	0xb8897a63	-6.5554654e-05
14	0x3c11660f	0.00887443
15	0xbc8998e6	-0.01679654
16	0x3d4308c7	0.047615793
17	0xbcd3d636	-0.02585898
18	0x3b8b6362	0.0042537907
19	0xbe043abd	-0.12913032
20	0x3cf5cbfb	0.030004492
21	0xbcd750f9	-0.026283728
22	0x3ceb63cc	0.02873411
23	0xbc581999	-0.013189697
24	0xbd32d1d9	-0.043657158
25	0x3d83438f	0.0640937
26	0x3d246782	0.040137775
27	0xbc6a98b5	-0.014318635
28	0xbc17d60a	-0.0092673395
29	0xbd2e2000	-0.042510986
30	0x3c8f42d6	0.017487925
31	0x3cf81e2a	0.03028782
32	0xbbbdf88a	-0.0057974504
33	0x3d342f20	0.043990254
34	0xbd5cea2c	-0.05393426
35	0xbcbaafdc	-0.022788934
36	0xbcf3c415	-0.029756585
37	0x3cbd117d	0.023079628
38	0xbc79cf09	-0.015247115
39	0x3cf051ce	0.029335883
40	0x3bbc6c6c	0.0057502296
41	0xbd209531	-0.03920478
42	0xbba73b00	-0.005103469
43	0xbce36ac3	-0.027760869
44	0x3d5b09c9	0.05347613
45	0xbd199f0b	-0.03750519
46	0x3d135890	0.03597313
47	0x3ce35039	0.027748214
48	0xbc4b37dc	-0.012403455
49	0x3c440891	0.011964933
50	0xbad2b526	-0.0016075715
51	0xbd0bda17	-0.034143534
52	0x3c2da366	0.010598039
53	0x3d0a915f	0.033830043
54	0xbce7f3e6	-0.028314542
55	0x392538fe	0.00015756857
56	0xbc9d625d	-0.019211942
57	0x3cc99f9c	0.02461224
58	0xbc5e8720	-0.013582021
59	0xbb3a4762	-0.0028423895
60	0xbd9d08c6	-0.07667689
61	0xbda110db	-0.07864543
62	0x3cbafa3a	0.022824395
63	0x3d27598a	0.040856875
64	0xbc2e156e	-0.010625226
65	0x3c83e783	0.016101604
66	0xbcb0f4bf	-0.021601079
67	0x3d296109	0.041352306
68	0xbad4ebf6	-0.0016244638
69	0x3ca38516	0.019960921
70	0xbccee706	-0.025256645
71	0x3c1cdb2b	0.009573738
72	0x3b8ed0f2	0.0043584043
73	0xbd4b06b2	-0.049566932
74	0x3c8b962a	0.017039377
75	0x3c0794df	0.00827524
76	0x3b446183	0.0029965348
77	0x3c3a18df	0.011358469
78	0xbbe5649a	-0.007000518
79	0xbd0031bb	-0.031297427
80	0x3babb033	0.0052395104
81	0xbd810db7	-0.06301444
82	0x3d1e76ae	0.0386874
83	0x3d93dd98	0.0722
84	0xbd8a19ec	-0.067432255
85	0xbd89e8ca	-0.06733854
86	0x3d558e33	0.052137565
87	0xbc8d11f2	-0.017220471
88	0xbcb3fb08	-0.021970287
89	0x3b138e5d	0.0022515275
90	0xbbdcd567	-0.0067393067
91	0xbd92d506	-0.07169537
92	0x3c3b45c5	0.011430209
93	0x3d02d257	0.031938877
94	0x3c5c0f65	0.013431405
95	0x3c50adcd	0.01273675
96	0x3a8fc053	0.0010967351
97	0xbc77f7ac	-0.015134733
98	0xbc95d691	-0.01829079
99	0x3b6de9e1	0.0036302733
100	0x3ca8c475	0.02060149
101	0xbcf02e68	-0.029319003
102	0x3cca171d	0.024669224
103	0xbe01942c	-0.1265418
104	0xbdad7c0e	-0.08470927
105	0x3c3c4899	0.011491918
106	0xbc1391d2	-0.009006934
107	0x3ce77694	0.028254785
108	0xbd228079	-0.039673302
109	0xbd0ddfe3	-0.034637343
110	0x3b97d673	0.0046337186
111	0x3d1e8f20	0.038710713
112	0x3d73b3c2	0.059497602
113	0x3cfe1439	0.031015502
114	0xbb5e36c7	-0.0033907162
115	0xbd4120a1	-0.047150258
116	0x3d5780d0	0.05261308
117	0x3bd6f067	0.00655942
118	0x3d3c950b	0.046040576
119	0x3cd6c389	0.026216285
120	0x3b5d3a1b	0.0033756557
121	0xbd021018	-0.03175363
122	0xbcc45d8b	-0.023970386
123	0xbd369acd	-0.044581223
124	0xbbcf8d20	-0.006333962
125	0xbd28f22f	-0.04124659
126	0x3c48115d	0.012211171
127	0xb8c95efb	-9.6021184e-05
128	0xbc6febe0	-0.014643639
129	0x3d0a4568	0.033757597
130	0x3ce308c7	0.027714146
131	0xbcbe418f	-0.02322462
132	0x3cf86913	0.03032354
133	0x3c9a29f8	0.01881884
134	0xbb50147f	-0.0031750498
135	0x3ca63fbe	0.020294067
136	0xbc29a595	-0.010354419
137	0x3d37e457	0.044895496
138	0xbc88f22e	-0.016717043
139	0x3d0bee7a	0.034162976
140	0x3c55bd3b	0.013045604
141	0x3c4c5e30	0.012473628
142	0xbd9b29d4	-0.075763375
143	0xbc0cf8eb	-0.008604269
144	0xbc8a7cd5	-0.016905228
145	0x3b4ee82d	0.0031571493
146	0xbd83309e	-0.06405757
147	0x3d136a94	0.035990313
148	0x3ce86e34	0.028372861
149	0x3d19f111	0.037583414
150	0xbcc02255	-0.02345387
151	0x3ce05a5f	0.027386842
152	0xba02c88b	-0.00049889897
153	0xbcd58396	-0.026063722
154	0xbd78059d	-0.06055223
155	0xbbeb82ee	-0.007187239
156	0xbb32b811	-0.0027270357
157	0xbca373ff	-0.019952772
158	0x3cc4765c	0.02398222
159	0x3c5d0286	0.013489371
160	0x3d3be54e	0.04587298
161	0xbba43cf9	-0.0050121513
162	0xbd8b3c8a	-0.06798656
163	0xbd116644	-0.03549792
164	0x3d1ecb0c	0.03876786
165	0x3d40f5cb	0.047109406
166	0x3c3d14a4	0.011540566
167	0xbd509efc	-0.05093287
168	0xbd881e0e	-0.066463575
169	0xbd05ae23	-0.032636773
170	0x3ceac256	0.02865712
171	0x3b7436f4	0.00372642
172	0x3c284110	0.010269418
173	0xbd530543	-0.05151869
174	0xbc138b57	-0.009005389
175	0x3d0b8956	0.03406652
176	0xbbb75ff5	-0.0055961558
177	0x3d18499c	0.037179574
178	0x3c529923	0.012853893
179	0xbd8fc382	-0.07019712
180	0x3caaabbb	0.02083384
181	0x3d380664	0.04492797
182	0xbcc4e3af	-0.02403435
183	0x3b85eeba	0.0040872963
184	0x3d2a1680	0.041525364
185	0xbc17fdd8	-0.00927683
186	0xbc7a51c1	-0.015278281
187	0xbb50b232	-0.0031844494
188	0xbc74029c	-0.0148932
189	0x3c8999ea	0.016797025
190	0x3d12ab00	0.03580761
191	0xbd311794	-0.043235376
192	0x3c3898cf	0.011266901
193	0x3cda7444	0.026666768
194	0xbd2dc212	-0.042421408
195	0x3d860790	0.06544411
196	0x3c63924c	0.01388986
197	0x3bfb9f46	0.007678899
198	0xbc198b5b	-0.009371604
199	0x3d017989	0.031610046
200	0x3ccc5749	0.024943965
201	0x3bdc8f00	0.006730914
202	0x3ad2ccb1	0.0016082731
203	0xbc1a64b2	-0.009423422
204	0x3d476a8f	0.048685607
205	0x3cee950e	0.02912381
206	0x3c090ec6	0.008365339
207	0x3ce97662	0.028498832
208	0x3c5689d6	0.013094386
209	0x3d3cd35c	0.046100006
210	0xbd8fd9ad	-0.0702394
211	0xbd0a6cc6	-0.03379514
212	0xbd04207f	-0.032257553
213	0x3d458457	0.048221912
214	0x3ccc4cde	0.024938997
215	0x3c4ae7b3	0.012384343
216	0x3c734e6b	0.014850239
217	0x3c926ea0	0.017875016
218	0xbd9f57b8	-0.07780403
219	0xbd007db1	-0.03136987
220	0xbcb6a99a	-0.02229767
221	0xbc98ef9f	-0.018668948
222	0x3cbe1e3d	0.023207778
223	0xbbeca7b2	-0.0072221393
224	0xbce5ad15	-0.028036634
225	0x3ccf9c0b	0.025342962
226	0xbd5a1f83	-0.05325271
227	0x3c0b07bd	0.008485732
228	0xbd2e7991	-0.042596404
229	0x3bbade7b	0.0057027913
230	0x3c34eba0	0.0110425055
231	0xbd28f82f	-0.04125231
232	0xbbb61010	-0.005556114
233	0xbd0df2f9	-0.034655545
234	0x3baef1ec	0.005338898
235	0xbda0d2df	-0.078527205
236	0x3c8ccc0d	0.017187143
237	0x3d2dfad0	0.04247552
238	0xbc3b7406	-0.011441236
239	0x3c8128e6	0.015766572
240	0x3d0a5305	0.03377058
241	0x3cb2fba8	0.021848515
242	0x3ccb1077	0.024788124
243	0x3d3fb98c	0.04680781
244	0x3bb25e56	0.0054433746
245	0xbc15bcd7	-0.009139261
246	0x3c7f441c	0.015580203
247	0x3b25bbbe	0.0025288905
248	0x3d320762	0.043464072
249	0xbbf2694f	-0.0073978077
250	0xbd3925d8	-0.045202106
251	0xbc4af8f9	-0.012388461
252	0x3c31d4cf	0.01085396
253	0x3c3bdf14	0.01146676
254	0x3c6939a8	0.014234938
255	0x3ca86a8e	0.020558622

discrete_action_output_shape f4 [1, 2]
0	0x40400000	3.0
1	0x40000000	2.0

network_body._body_endoder.seq_layers.0.bias f4 [256]
0	0x3c49fa04	0.012327675
1	0xba1a37ff	-0.0005882978
2	0xbbf17629	-0.007368822
3	0x3c8f277a	0.017474879
4	0x3cc5ee97	0.02416162
5	0xbc0ca1eb	-0.008583526
6	0x3ccadb47	0.024762763
7	0x3c9bd5d7	0.019022865
8	0x3bbe32b0	0.0058043823
9	0xbc816a5a	-0.015797783
10	0x3cd17c7c	0.025572054
11	0xbcd71b4c	-0.026258133
12	0x3ca03b10	0.019559413
13	0x3cc68522	0.024233405
14	0x3c303ea8	0.010757126
15	0xbbf1d739	-0.007380393
16	0x3ca0f155	0.019646326
17	0x3cd658b6	0.026165348
18	0x3d04849e	0.032353036
19	0xbb7bcb29	-0.0038420653
20	0xbcc18b42	-0.023625974
21	0xbcaff730	-0.021480173
22	0xbc0aaacc	-0.008463573
23	0x3c2779d2	0.010221915
24	0xba9bf183	-0.0011897538
25	0xbbb57de5	-0.0055386894
26	0x3ca4f9d0	0.020138651
27	0xbc7b5f87	-0.0153426
28	0xbc2a876e	-0.0104082655
29	0xbbbd5cc7	-0.005778882
30	0x3c07089c	0.008241799
31	0x3c98f9d2	0.018673811
32	0x3c631b68	0.013861515
33	0x3b24464f	0.0025066321
34	0x3c95bce5	0.018278548
35	0xbc1b5f03	-0.009483102
36	0x3b1c0a35	0.0023809795
37	0xbc2de0dc	-0.010612693
38	0x3a7e4a91	0.00097004423
39	0x3cadf059	0.02123277
40	0xbb99c4d6	-0.004692654
41	0xbcbf5211	-0.023354562
42	0xbc00a0c4	-0.0078508295
43	0x3c5245c1	0.012834013
44	0x3c85ff5a	0.016357113
45	0x3c677041	0.0141258845
46	0x3cad875d	0.02118271
47	0x3b2ae13c	0.0026074192
48	0xbcbcc40b	-0.0230427
49	0x3bc5d142	0.0060369084
50	0xbd0b1e7f	-0.03396463
51	0x3c83b3d2	0.016076956
52	0xbcb4c4a5	-0.022066424
53	0x3c795a2e	0.015219254
54	0x3b41ac9b	0.0029552344
55	0xbc235ce8	-0.009970881
56	0x3b364f11	0.0027818123
57	0xbcbc07c1	-0.022952916
58	0x3c154a15	0.009111901
59	0xbab640f2	-0.0013904853
60	0xbc685811	-0.014181153
61	0xbbd4e79b	-0.006497336
62	0x3c2c4e64	0.010516737
63	0xbb48cf5b	-0.0030641172
64	0xbbfda32b	-0.0077403984
65	0x3c3937c8	0.011304803
66	0x3c9f3c26	0.01943786
67	0xbc0db4c6	-0.008649057
68	0x3c0b9fc2	0.008521976
69	0xbcb5f91f	-0.022213517
70	0xbc21df6c	-0.009879928
71	0xbab00aaf	-0.0013430918
72	0xbc518406	-0.0127878245
73	0x3ca8bfa1	0.020599188
74	0xba3d9282	-0.0007231609
75	0x3ca0f4a1	0.019647898
76	0xbbcc1aea	-0.0062287943
77	0xbc394eb0	-0.0113102645
78	0xbc287308	-0.010281332
79	0xbcb353c8	-0.021890536
80	0x3b896290	0.004192658
81	0xbc8467fa	-0.016162861
82	0xbb4d4604	-0.003132225
83	0xbb88f45a	-0.0041795196
84	0x3cc9143e	0.024545785
85	0x3b80c3c7	0.0039295885
86	0x3c31b887	0.010847217
87	0x3c51d445	0.012806957
88	0xb8f3aef2	-0.00011619729
89	0x3b957254	0.004560748
90	0x39d737b7	0.00041049506
91	0xbc23c5a0	-0.009995848
92	0xbcbb9076	-0.022896033
93	0xbceab4e9	-0.028650718
94	0xbbd0ea9e	-0.006375625
95	0xba80397f	-0.000978276
96	0xba047328	-0.000505256
97	0x3c65e6cd	0.014032078
98	0xbccc326e	-0.02492639
99	0x3c47b177	0.012188307
100	0x3cd8d3d5	0.026468197
101	0x3c9c0c77	0.019048912
102	0xbca98b36	-0.020696264
103	0xbc0943da	-0.0083779935
104	0xbbd33955	-0.0064460435
105	0x3bbb89d1	0.005723216
106	0xbc135e20	-0.008994609
107	0xbc082fa2	-0.008312138
108	0xbb8eea65	-0.004361438
109	0x3c37fbe7	0.011229492
110	0x3bd4fed7	0.006500106
111	0xbcb023ce	-0.021501448
112	0x3a79109b	0.00095010706
113	0xbb78d14d	-0.003796655
114	0x3ad581e6	0.0016289323
115	0x3c07f501	0.00829816
116	0x3c613160	0.013744682
117	0xbccb551a	-0.024820853
118	0x3c501fec	0.012702923
119	0x3abee259	0.0014563306
120	0x39c155df	0.00036875808
121	0x3c5f8683	0.01364291
122	0xbaaa4f18	-0.0012993542
123	0x3c3cbf23	0.01152018
124	0xbbb832c8	-0.005621288
125	0x3be6c6a7	0.007042724
126	0x3cccd0b6	0.025001865
127	0xbc91645e	-0.017748054
128	0xbc02c540	-0.007981598
129	0x3bd43e61	0.0064771627
130	0x3bbe598a	0.0058090137
131	0xba641811	-0.0008701096
132	0x3cad0c5f	0.021124063
133	0xbbe9b0bd	-0.0071316645
134	0xbbdedd08	-0.0068012513
135	0xbcd429a8	-0.02589877
136	0x3c9aa8ac	0.018879257
137	0xbc94aa73	-0.018147683
138	0x3a15c8c4	0.00057138153
139	0xbc1a81d8	-0.009430371
140	0xbcca2e73	-0.024680352
141	0xbc5b0d7a	-0.013369912
142	0xbb2fc6af	-0.0026821306
143	0xbbc78f1a	-0.006090057
144	0xbb26cdd8	-0.0025452282
145	0xbcbff130	-0.023430437
146	0x3a94e587	0.0011359908
147	0x3b46d450	0.003033895
148	0x3c28e958	0.01030954
149	0x3cd9d9d6	0.02659313
150	0x3b967912	0.0045920694
151	0xbc91ebd3	-0.017812645
152	0xbc5d2bbd	-0.013499198
153	0x3c93d10f	0.018044023
154	0x3c32c23e	0.010910569
155	0x3b9e8768	0.004837919
156	0xbc50932b	-0.0127304
157	0xbcb245bd	-0.02176177
158	0x3c944272	0.01809809
159	0x3b97d975	0.004634077
160	0xbc51978b	-0.012792478
161	0x3c94cd81	0.018164398
162	0x3be76ab3	0.00706228
163	0xbd082e89	-0.033247504
164	0xbc2ea10a	-0.010658512
165	0xbcfa1ab4	-0.030530311
166	0x3ba09453	0.004900494
167	0x3c7813b3	0.015141415
168	0x3c0e5945	0.008688276
169	0x3c15e3a4	0.009148512
170	0x3cc393b2	0.023874138
171	0x3bfc2099	0.0076943156
172	0x3ca050c6	0.019569766
173	0x3cb2b9b0	0.021817058
174	0xbb963a90	-0.004584618
175	0x3ad67f0e	0.001636477
176	0xbbead9e1	-0.0071670865
177	0x3c455a08	0.012045391
178	0x3bd402d9	0.006470066
179	0xbc95682c	-0.01823815
180	0xbcce6a15	-0.025197068
181	0xbbf448e4	-0.0074549783
182	0x3b64509c	0.0034838086
183	0x3c06c852	0.008226471
184	0xbc24b1f8	-0.010052197
185	0x3c78b194	0.015179057
186	0x3b7f4fe6	0.0038957535
187	0x3b671df1	0.003526565
188	0x3bba61a6	0.00568791
189	0x3c347c49	0.01101596
190	0x3c7c3ad2	0.015394883
191	0xbcf0bda5	-0.029387305
192	0xbac87f51	-0.0015296732
193	0x3b2e6c3d	0.0026614808
194	0xbc4da2f7	-0.012551061
195	0x3ae23d18	0.0017260639
196	0x3aa793e8	0.0012785168
197	0x3cc2ccb0	0.023779243
198	0x3b6c4d40	0.0036056787
199	0xbcd9de3a	-0.026595224
200	0x39501f86	0.00019848169
201	0xbb320558	-0.002716383
202	0xba0fd6ed	-0.00054870435
203	0x3c343486	0.010998851
204	0xbc7b6561	-0.015343995
205	0x3cbdc25d	0.023163969
206	0x3c9010cf	0.01758614
207	0xbb985ee0	-0.004649982
208	0xbb213988	-0.0024600942
209	0xbc6288f5	-0.013826598
210	0x3c4453e4	0.011982892
211	0xbc1ba731	-0.009500311
212	0x3c311d99	0.010810279
213	0x3ccf1150	0.02527681
214	0xbc6c5b66	-0.014426088
215	0x3c021847	0.0079403585
216	0x3b931c05	0.004489424
217	0x3bb1cf79	0.005426344
218	0xbbe76953	-0.007062116
219	0xbba2ee4a	-0.004972254
220	0xbb2fc4da	-0.0026820214
221	0xbcd69fa4	-0.02619917
222	0x3c19f1b3	0.0093960045
223	0xbc384315	-0.011246462
224	0x3cfcddee	0.030867543
225	0x3c328981	0.010897041
226	0xbcd42dee	-0.025900807
227	0x3c2e3d5f	0.010634749
228	0xbc0496be	-0.00809258
229	0xbc4b629f	-0.01241365
230	0x3b5213a5	0.0032055166
231	0x3c44fce0	0.012023181
232	0x3b7e0cfa	0.003876506
233	0xbbec1c07	-0.0072054896
234	0xbc7821a3	-0.015144738
235	0xbbff1f9d	-0.007785751
236	0xb9e01ef4	-0.0004274767
237	0xbc28c92e	-0.010301871
238	0x3c51c873	0.0128041385
239	0xbc3ddec6	-0.011588758
240	0xbc654f87	-0.013996012
241	0x3ba5c9f7	0.0050594765
242	0xbc952e2c	-0.018210493
243	0x3c668345	0.014069383
244	0x3b871fdf	0.0041236724
245	0x3ad4805a	0.0016212568
246	0x3c5bedca	0.013423393
247	0xbb698839	-0.0035634174
248	0x3c14f9e5	0.009092783
249	0x3a824720	0.000993941
250	0xbc2d3c50	-0.010573462
251	0x3d02e8d6	0.03196033
252	0x3c181e14	0.009284515
253	0x3c9f9193	0.019478595
254	0x3b595ab5	0.0033165638
255	0x3c5351a0	0.012897879

network_body._body_endoder.seq_layers.0.weight f4 [256, 456]
0	0x3d784412	0.060611792
1	0x3c9a4258	0.018830463
2	0x3c6f81d1	0.014618353
3	0xbd928b32	-0.07155456
4	0xbd4eab26	-0.05045619
5	0xbd8b8660	-0.06812739
6	0x3de23584	0.110453635
7	0x3cc02d53	0.023459112
8	0xbcda7d97	-0.026671214
9	0x3da76f1c	0.08175489
10	0xbd9d413a	-0.076784566
11	0xbcc563b6	-0.024095397
12	0x3d7d272e	0.061804943
13	0xbc8e1f80	-0.017349005
14	0x3acb2a70	0.0015500318
15	0x3cbaf807	0.022823347
16	0xbc85bc91	-0.016325267
17	0xbc485e65	-0.012229537
18	0x3d9f707a	0.07785125
19	0xbd15d87d	-0.036583412
20	0xbd7fa464	-0.062412634
21	0x3da91050	0.082550645
22	0xbc65f3cd	-0.014035177
23	0x3d1f018e	0.038819842
24	0xbcda412a	-0.0266424
25	0x3e2a8255	0.1665128
26	0x3d847de8	0.06469327
27	0x3dc7c76a	0.09754832
28	0xbdb0a2cc	-0.08624801
29	0xbd52ca57	-0.051462498
30	0x3ddb78a4	0.1071637
31	0xbc1656bc	-0.0091759525
32	0xbd7e5cf9	-0.062100384
33	0xbc60a90b	-0.013712178
34	0x3d77e375	0.060519654
35	0x3db4e2ca	0.08832319
36	0x3d18fbe8	0.03734961
37	0xbcad8932	-0.021183584
38	0xbc1b2c67	-0.009471036
39	0xbc20c3c4	-0.009812299
40	0xbd58df2d	-0.052947212
41	0xbcd9df4e	-0.026595738
42	0x3dbb29c0	0.091388226
43	0xbce69a41	-0.028149726
44	0xbd45f065	-0.04832496
45	0x3cd2b69f	0.025721846
46	0x3d27edb5	0.04099818
47	0x3c543c32	0.012953805
48	0x3d437220	0.04771626
49	0x3de3b24e	0.11117993
50	0xbdde8914	-0.10865989
51	0xbd8fb5eb	-0.0701712
52	0xbdb349dc	-0.08754322
53	0xbdcf17eb	-0.10111984
54	0x3d0d5996	0.034509264
55	0xbcecdca0	-0.028913796
56	0xbe10c100	-0.14136124
57	0x3e107a08	0.14109051
58	0xbc120e3d	-0.0089145275
59	0x3cbbd075	0.022926548
60	0xbd008a09	-0.03138164
61	0x3d950de4	0.0727804
62	0xbea54e34	-0.32286227
63	0x3cf1c17d	0.029511208
64	0xbe0404a0	-0.1289239
65	0xbdba3e94	-0.09093967
66	0x3d89a916	0.06721704
67	0x3d3bc96a	0.04584638
68	0xbcd3220c	-0.02577307
69	0x3c8b6b9b	0.017019084
70	0xbcd67a08	-0.026181236
71	0xbd4f5e2d	-0.050626922
72	0x3cd0ca23	0.025487011
73	0xbced330b	-0.028955003
74	0xbdb8abe4	-0.090171605
75	0xbd2bf223	-0.041978966
76	0x3d605459	0.05476794
77	0x3d7a4835	0.06110402
78	0xbdc4673d	-0.09590004
79	0x3d22aae6	0.039713763
80	0x3cb31473	0.021860337
81	0x3cd0ac9c	0.025472932
82	0x3a0ec549	0.0005446268
83	0xbd95e7f8	-0.07319635
84	0xbcb6d045	-0.022316108
85	0xbcfa6957	-0.030567808
86	0x3c94b4be	0.01815259
87	0x3d878348	0.06616837
88	0xbc200596	-0.009766957
89	0xbd56cb29	-0.052439842
90	0xbc40a56f	-0.011758192
91	0x3d2cfc63	0.042232882
92	0x3d094e05	0.03352167
93	0x3d445e2c	0.04794137
94	0xbd47c7ee	-0.048774652
95	0xbcef37e6	-0.02920146
96	0x3c4bd851	0.012441711
97	0xbc95005b	-0.018188646
98	0x3da8544d	0.08219204
99	0xbd0ed58d	-0.034871627
100	0xbca7e735	-0.02049599
101	0x3c319d5b	0.010840739
102	0x3d12cc07	0.035839107
103	0xbcb3132d	-0.02185973
104	0xbcadf635	-0.021235565
105	0xbce3320c	-0.027733825
106	0xbc357d95	-0.011077304
107	0xbdd117d4	-0.10209623
108	0x3dfd87f8	0.123794496
109	0x3c709992	0.0146850515
110	0xbdc7025b	-0.09717246
111	0xbc44d300	-0.012013197
112	0x3dfe1d50	0.12407935
113	0x3d306a4a	0.043070115
114	0x3d88141b	0.0664446
115	0x3da1d79d	0.07902453
116	0xbda4acbb	-0.08040758
117	0x3befba3c	0.007315902
118	0xbdf30ddd	-0.118678786
119	0xbd6358fc	-0.055504784
120	0x3ba4c469	0.0050282967
121	0x3d7c4163	0.061585795
122	0xbe1c94ea	-0.15291181
123	0xbd90d1a6	-0.07071237
124	0x3d3827a5	0.044959683
125	0x3d415aa0	0.047205567
126	0x3cb20694	0.021731652
127	0x3de5d35d	0.11221955
128	0xbe39b122	-0.18133977
129	0xbc0106e8	-0.007875182
130	0xbde679d9	-0.11253709
131	0xbdd15df9	-0.10223002
132	0xbdcb5b8f	-0.09929573
133	0x3d0698da	0.032860614
134	0xbcda709d	-0.026665026
135	0x3db0e347	0.086371
136	0x3d46c74c	0.048529908
137	0xbcb628ff	-0.022236345
138	0x3c092d63	0.008372637
139	0xbd723c1a	-0.05913935
140	0xbc9e5e2e	-0.019332018
141	0x3cd7661e	0.02629381
142	0x3d085661	0.033285502
143	0x3d933ca2	0.07189299
144	0x3de7e25d	0.11322472
145	0x3d9bf7a4	0.07615593
146	0xbde60fb2	-0.112334624
147	0x3db4c024	0.088257104
148	0xbcf631dd	-0.030053074
149	0xbd881e11	-0.0664636
150	0xbd1cfb08	-0.03832534
151	0xbcbf47ce	-0.023349669
152	0xbd838cc4	-0.06423333
153	0xbd52d043	-0.051468145
154	0xbdc0d74d	-0.09416065
155	0x3dd3b060	0.10336375
156	0x3d332dc1	0.043744806
157	0x3c1977a0	0.0093669
158	0xbb6df0b6	-0.0036306805
159	0xbc78cd68	-0.015185691
160	0xbd8c75df	-0.068584196
161	0xbe0f8e76	-0.14019188
162	0x3cd3a6e5	0.025836417
163	0xbd9884d6	-0.074472114
164	0xbcf0aa6c	-0.029378138
165	0x3da892d6	0.08231132
166	0x3d8e1680	0.06937885
167	0x3ddbbe69	0.10729677
168	0x3d357c29	0.04430786
169	0x3d598ea6	0.053114556
170	0xbd3919b2	-0.04519052
171	0xbd4d3e74	-0.050108388
172	0xbcbaf7e0	-0.022823274
173	0xbe5579f4	-0.20847303
174	0xbc62b70b	-0.013837586
175	0xbdddb18f	-0.10824882
176	0xbe355694	-0.17708808
177	0x3ce7065d	0.028201276
178	0xbc9fbd9b	-0.01949959
179	0x3db86ae4	0.09004763
180	0x3ce0ed0d	0.027456785
181	0x3b813575	0.00394314
182	0xbdf69158	-0.12039441
183	0x3dd08f62	0.10183598
184	0xbd0da411	-0.034580294
185	0xbc52842f	-0.012848898
186	0xbbe3cb37	-0.0069517153
187	0x3c1156fa	0.0088708345
188	0x3d02e7e4	0.03195943
189	0x3ce0a8c7	0.02742423
190	0x3d9f5721	0.077802904
191	0xbce608b9	-0.028080331
192	0xbcd5e9e1	-0.026112499
193	0x3c320f8f	0.010867967
194	0xba803082	-0.0009780081
195	0xbd49de7b	-0.04928444
196	0xbdeb93df	-0.115028135
197	0xbdb4e7c5	-0.08833269
198	0x3c0fcc3a	0.008776719
199	0xbc2cc2fa	-0.010544533
200	0xbdf6e3df	-0.12055182
201	0x3ccfcbbd	0.025365705
202	0xbdeedc8f	-0.11663162
203	0xbcc7defb	-0.024398318
204	0x3c007df4	0.00784253
205	0xbacf2362	-0.0015803392
206	0xbdad7d3f	-0.084711544
207	0x3b55157f	0.0032514033
208	0xbd8465fa	-0.06464763
209	0xbd40d32f	-0.0470764
210	0x3d6bc566	0.0575613
211	0x3d048193	0.032350134
212	0x3c5fb648	0.013654299
213	0x3c1410a5	0.0090371715
214	0xbd87d89f	-0.06633114
215	0xbdbdb0bd	-0.09262226
216	0x3cec447b	0.028841248
217	0x3db45b59	0.08806486
218	0xbd327432	-0.043567844
219	0xbc9a64b1	-0.018846842
220	0x3d3b5fda	0.045745708
221	0x3cf3e2bc	0.029771201
222	0x3d98548b	0.07438
223	0x3d64e7cf	0.055885132
224	0x3db9fdb3	0.090815924
225	0xbcc35562	-0.023844425
226	0xbd4a6647	-0.049413946
227	0xbd2410f2	-0.040055223
228	0xbd5c212f	-0.053742584
229	0xbd7d1fc4	-0.061797872
230	0xbe2c3e55	-0.16820653
231	0x3d47735b	0.048693996
232	0xbb84b4ef	-0.0040498893
233	0x3d9cea00	0.076618195
234	0x3d0d36ec	0.034476206
235	0x3daf813b	0.08569571
236	0xbda07497	-0.07834738
237	0xbdc18fea	-0.094512776
238	0xbcc6eb2e	-0.024282064
239	0xbddaef15	-0.106901325
240	0xb9eaa437	-0.00044754308
241	0x3d2f66ad	0.04282253
242	0x3d4b726f	0.04966968
243	0x3d94ac1c	0.0725939
244	0x3c03f0eb	0.008053045
245	0x3ce4b4f0	0.027918309
246	0x3a99ba0c	0.001172842
247	0x3e0f320b	0.13983934
248	0xbb787d0b	-0.0037916328
249	0xba87db78	-0.0010365089
250	0xbda03932	-0.07823409
251	0xbe0cd74b	-0.13754003
252	0x3d0ef9b6	0.03490611
253	0x3d1abfe0	0.037780643
254	0xbc63eb35	-0.013911058
255	0x3ca5c9b9	0.02023779

network_body._body_endoder.seq_layers.2.bias f4 [256]
0	0xbc95a36d	-0.018266404
1	0xbd3dc592	-0.046330996
2	0xbc321a85	-0.010870581
3	0xbcd53884	-0.026027925
4	0x3cd97e3f	0.026549457
5	0x3bd523fa	0.006504533
6	0x3c39cdff	0.011340617
7	0x3c8ec57b	0.01742815
8	0xbd49fe90	-0.049315035
9	0xbc4e847f	-0.012604832
10	0xbc629bff	-0.013831138
11	0xbcf26cc5	-0.029592881
12	0xbbe247a1	-0.0069055115
13	0xbd7eb01f	-0.06217968
14	0xbd20a8c3	-0.039223444
15	0x3c047174	0.00808369
16	0xbb2843f6	-0.0025675274
17	0xbd0a9810	-0.033836424
18	0x3b04335a	0.002017221
19	0x3ad9e4d4	0.0016623982
20	0x3b339412	0.002740149
21	0xbd02c35e	-0.031924598
22	0xbcfc6d62	-0.030813877
23	0x3bb8ab7e	0.005635678
24	0x3c4f6f0a	0.012660751
25	0xbd109c75	-0.03530546
26	0xbc306206	-0.010765558
27	0xbcc39f64	-0.023879714
28	0xbd159fdc	-0.036529407
29	0x3b395308	0.002827825
30	0xbb3747c8	-0.002796637
31	0x3c049c26	0.008093869
32	0xbd2935d5	-0.041311104
33	0xbcb759e1	-0.022381725
34	0x3c248bf3	0.010043132
35	0xbc91709e	-0.017753895
36	0x3ca19622	0.01972491
37	0xbd05bf99	-0.032653425
38	0xbcb8a82f	-0.022541134
39	0xbd1ab235	-0.037767608
40	0x3d075b82	0.033046253
41	0x3d0d0599	0.034429166
42	0xbc4a0f29	-0.012332716
43	0x3d0c9d98	0.03432998
44	0xbd43f31d	-0.047839273
45	0x3d236d2b	0.039899033
46	0xbcabcdbe	-0.020972129
47	0x3b269016	0.0025415472
48	0xbb252a00	-0.0025202036
49	0xbc0af4e5	-0.008481239
50	0xbd251ec5	-0.040312547
51	0x3c76f448	0.01507289
52	0xbc273e42	-0.0102077145
53	0x3c8cfdcc	0.017210864
54	0x3bda8c28	0.00666954
55	0xbc8262a1	-0.01591617
56	0x3c277994	0.010221858
57	0xbd0b5023	-0.03401197
58	0xbbe41ddc	-0.0069615673
59	0x3a966c83	0.0011476431
60	0x3b09d062	0.0021028747
61	0x3cb4e1b0	0.022080272
62	0xbc6f8e01	-0.014621259
63	0xbca6c8ec	-0.020359479
64	0x3cbcbd87	0.023039592
65	0xbc2eec6f	-0.010676487
66	0x3c2e61c3	0.010643425
67	0xbbc1dea2	-0.0059164325
68	0xbc60c721	-0.013719351
69	0xbbc5f4a5	-0.006041127
70	0xbd0393ca	-0.032123365
71	0xb924f0f2	-0.00015730018
72	0xbd1c62ac	-0.03818004
73	0xbcc88fdf	-0.024482666
74	0xbc8cee2f	-0.017203419
75	0x3c543aa0	0.01295343
76	0xbd2ec44c	-0.042667672
77	0xbbf92b2e	-0.0076040244
78	0xbc191386	-0.009343034
79	0x3ca3eea3	0.020011252
80	0x3b39425e	0.0028268318
81	0x3c264544	0.01014835
82	0xbca5f28c	-0.020257257
83	0xbc81087a	-0.015751112
84	0x3aaab3ac	0.0013023517
85	0xbb927839	-0.004469898
86	0xbb98fa89	-0.004668538
87	0xbc85f338	-0.016351327
88	0x3c955f4c	0.018233918
89	0x3a3e4338	0.0007257941
90	0x3ce92f1a	0.028464843
91	0xbba5aee5	-0.0050562494
92	0x3cb9f428	0.02269943
93	0x3c1c53af	0.009541436
94	0xbd5d0a78	-0.053965062
95	0xbbf9787e	-0.0076132407
96	0xbcdbfc75	-0.02685378
97	0x3ceeaa74	0.029134013
98	0xbd1b8874	-0.03797193
99	0x3cc151c5	0.023598561
100	0xbb40450d	-0.0029338032
101	0xbbc7309e	-0.0060787937
102	0xbbd6e59a	-0.0065581324
103	0x3be3a2d5	0.0069469013
104	0x3c21b513	0.009869832
105	0xb9c96ea7	-0.0003842015
106	0xbbb1a191	-0.0054208715
107	0xbcf02465	-0.02931423
108	0x3d189ba2	0.037257798
109	0x3cb91499	0.02259283
110	0x3c66f90b	0.014097462
111	0xbca266a8	-0.019824341
112	0xbc620423	-0.013794932
113	0x3c455bcc	0.012045812
114	0x39c819bd	0.0003816615
115	0xba842a31	-0.0010083375
116	0xbc0cfc82	-0.008605124
117	0x3cf91c08	0.030408874
118	0x3aae9917	0.0013320771
119	0xbb4f8840	-0.0031666905
120	0x3a97a2f0	0.0011568945
121	0xbc438537	-0.011933616
122	0x3c19e274	0.00939237
123	0xbc36f5da	-0.011167014
124	0xbb72b565	-0.003703439
125	0x3bf597f7	0.0074949223
126	0xbb974bee	-0.004617206
127	0xbc033b51	-0.008009748
128	0x3bbe181a	0.005801213
129	0xbc217ef3	-0.009856927
130	0xbc9bcccf	-0.019018559
131	0x3c0cdf22	0.008598121
132	0xbbb4ba2d	-0.005515358
133	0xbd582aed	-0.052775312
134	0xbcdbb99b	-0.026821902
135	0x3bdad14b	0.0066777817
136	0xbd49ad73	-0.04923768
137	0xbc71a341	-0.014748395
138	0x3b1da717	0.0024055892
139	0xbcca67d4	-0.024707712
140	0xbd4d9049	-0.05018643
141	0x3c27ba80	0.010237336
142	0x3b3703b9	0.0027925803
143	0xbd16e7f3	-0.036842298
144	0xbb2bb246	-0.0026198789
145	0x3bb65b36	0.0055650724
146	0x3c2eb76a	0.0106638465
147	0xbb9c2bb4	-0.004765952
148	0xbc84636a	-0.016160686
149	0xbd0f58c0	-0.034996748
150	0x3b165c07	0.0022943036
151	0x3c416f9c	0.011806395
152	0x3c3f10f6	0.011661759
153	0xbd110e00	-0.035413742
154	0x3a8cb39d	0.0010734681
155	0x3af83aa2	0.0018938372
156	0xbba82d9c	-0.00513239
157	0xbcadf7a6	-0.021236252
158	0xbce8665c	-0.028369121
159	0xbd1cf861	-0.03832281
160	0x3c417c93	0.011809486
161	0xbb9aa911	-0.0047198613
162	0xbc1f1006	-0.00970841
163	0xbd41e7b3	-0.047340106
164	0x3c5226f8	0.012826674
165	0xbd16e8e4	-0.036843196
166	0xbc9a08f0	-0.01880309
167	0xbcccf01f	-0.025016842
168	0xbd0e3b59	-0.034724567
169	0x3cf081b4	0.029358722
170	0xbc887914	-0.016659297
171	0xbd058034	-0.032592967
172	0xbd211d3b	-0.039334517
173	0x3cb8e7bf	0.022571443
174	0x3bc5798f	0.006026454
175	0x3b30b9f5	0.0026966308
176	0x3bd29a44	0.0064270813
177	0xbc696706	-0.014245754
178	0x3c136041	0.008995117
179	0x3c08a815	0.008340855
180	0xbd819d0e	-0.06328784
181	0xbc1bad6d	-0.009501797
182	0x3c5bfabf	0.013426482
183	0xbd4ba034	-0.04971333
184	0xbca3d8e8	-0.02000089
185	0xbc9e6918	-0.019337222
186	0xbd21c895	-0.03949793
187	0x3ce2d284	0.027688272
188	0x3b141382	0.0022594635
189	0xbc1ed597	-0.0096944785
190	0xbc4a5a4a	-0.012350628
191	0xbc4fe002	-0.012687685
192	0xbcdff97b	-0.027340641
193	0xbd01b5b7	-0.031667437
194	0xbbef5478	-0.0073037706
195	0xbca102b6	-0.019654613
196	0x3c8a2401	0.016862871
197	0xbd18b11b	-0.037278276
198	0x3d395747	0.04524925
199	0xbd7fbb5a	-0.06243453
200	0xbca93938	-0.020657167
201	0x3ce56fde	0.028007444
202	0xbd5eab35	-0.054362494
203	0xbd616142	-0.055024393
204	0xbc9b9f2d	-0.0189968
205	0xbc2f735e	-0.010708658
206	0xbcda9635	-0.026682952
207	0xbc22fd25	-0.00994805
208	0xbb48b217	-0.0030623728
209	0xbc38f680	-0.011289239
210	0x3bec8ff2	0.007219308
211	0x3d307f89	0.043090377
212	0xbc845466	-0.016153526
213	0x3b84d7c8	0.0040540434
214	0xbc219193	-0.009861368
215	0xbc00b30d	-0.007855189
216	0xbd0eabd7	-0.034831848
217	0x3bac1d4a	0.005252515
218	0xbc083cea	-0.008315304
219	0xbcea7ead	-0.028624857
220	0x3d00927d	0.031389702
221	0x3c5cc19f	0.013473897
222	0xbd3150e9	-0.043290053
223	0xbcbb05b6	-0.022829872
224	0x3c86f4f8	0.016474232
225	0xb926d6c1	-0.00015910996
226	0xb880da7c	-6.1442115e-05
227	0x3cb8274d	0.022479678
228	0x3cf7d642	0.030253533
229	0xbc4d742b	-0.012539904
230	0xbc9f84bb	-0.01947247
231	0xbd06afd2	-0.03288252
232	0x3c98e5e0	0.0186643
233	0xbcf81a71	-0.030286046
234	0x3ce6b2ee	0.028161492
235	0xbc28f931	-0.010313318
236	0x3cc532b7	0.024072034
237	0xbc9d0f88	-0.019172445
238	0xbc5dc948	-0.013536759
239	0x3c65bf0b	0.014022599
240	0xbc640635	-0.0139174955
241	0xbcab4d7e	-0.020910975
242	0xbc812f1b	-0.015769532
243	0xbcb90a98	-0.02258806
244	0xbaa20180	-0.0012360066
245	0x3bd9adcf	0.006643034
246	0xbcc4bf1a	-0.024016906
247	0xbd1f72a1	-0.038927678
248	0xbc86d740	-0.016460061
249	0xbd319845	-0.043358106
250	0x3ce5adc7	0.028036965
251	0xbd1e0976	-0.03858324
252	0xbc6f71dd	-0.014614549
253	0xbd29ad3e	-0.041424982
254	0x3c330b76	0.0109280255
255	0x3a200884	0.00061047846

network_body._body_endoder.seq_layers.2.weight f4 [256, 256]
0	0x3e37eb2f	0.17960809
1	0xbca0b937	-0.019619567
2	0x3c3bcc5a	0.011462295
3	0x3d387cf1	0.04504103
4	0x3d89886d	0.06715474
5	0x3ca874f2	0.020563576
6	0x3d0d0405	0.03442766
7	0xbcca58cf	-0.02470055
8	0xbd34d507	-0.04414847
9	0x3d1d15f2	0.038351007
10	0xbad00426	-0.0015870377
11	0xbac0fc80	-0.0014723688
12	0x3d912c5e	0.070885405
13	0xbdf41651	-0.11918319
14	0xbda85888	-0.08220011
15	0xbd7eb3d9	-0.062183235
16	0x3d989717	0.07450693
17	0xbcb5fd76	-0.022215586
18	0x3d3aa8ff	0.045571323
19	0x3d21e737	0.039527144
20	0x3dfe3f3e	0.12414406
21	0x3d91e77e	0.07124232
22	0x3cc5de4c	0.024153851
23	0xbd8a9b51	-0.067679055
24	0xbe0c5e2c	-0.13707799
25	0xbdb29878	-0.08720487
26	0x3c8f5418	0.017496154
27	0x3d211fd8	0.03933701
28	0xbcd7d844	-0.02634824
29	0x3c24cde9	0.010058858
30	0x3df86e5c	0.121304244
31	0x3d863723	0.06553485
32	0xbd4878f2	-0.048943467
33	0xbdc55f8e	-0.09637366
34	0xbdf05a81	-0.11736012
35	0x3dc55fd7	0.096374206
36	0xbe19c038	-0.15014732
37	0x3afbe912	0.0019219241
38	0xbdd0a657	-0.10187977
39	0xbdc68675	-0.096936144
40	0xbdc65887	-0.09684854
41	0x3c16f0f2	0.009212719
42	0xbdaa359d	-0.08311007
43	0x3ce8f680	0.028437853
44	0xbe09fd5a	-0.13475552
45	0xbd0faf13	-0.035079073
46	0x3d658308	0.056033164
47	0x3dc40aca	0.0957237
48	0x3c0a707f	0.008449673
49	0x3ca4a329	0.020097332
50	0x3d673d26	0.0564548
51	0x3e506f27	0.20354901
52	0xbdc048d0	-0.09388888
53	0x3d19447d	0.03741883
54	0xbd948060	-0.07251048
55	0x3d6be35f	0.057589885
56	0x3da00828	0.07814056
57	0x3d398dfa	0.045301415
58	0xbd8685c5	-0.06568483
59	0xbd23fb71	-0.040034715
60	0xbd91c086	-0.07116799
61	0x3c8cab4a	0.01717152
62	0x3dfeb870	0.124375224
63	0xbde4e75e	-0.11176942
64	0xbd0a74a8	-0.03380266
65	0xbd906404	-0.070503265
66	0xbd20258c	-0.039098307
67	0xbcc6f9bf	-0.02428901
68	0xbcb568b0	-0.022144645
69	0x3db4e99a	0.088336185
70	0xbcc9c6bd	-0.024630899
71	0xba2c4d03	-0.0006572755
72	0x3d28b33b	0.041186552
73	0xbcb62510	-0.02223447
74	0xbd9c1249	-0.07620675
75	0x3d4f7ef4	0.05065818
76	0xbd79cfac	-0.060989067
77	0x3a8c393c	0.001069821
78	0x3db78031	0.089599974
79	0xbdf2de8a	-0.11858852
80	0x3d1c1ff6	0.038116418
81	0xbbf39ef7	-0.0074347216
82	0xbcc75a8d	-0.02433517
83	0xbda6d682	-0.08146383
84	0xbc62d29e	-0.01384416
85	0xbd39dc24	-0.045375958
86	0x3d82d599	0.06388397
87	0xbd914dec	-0.070949405
88	0xbd6f56a7	-0.058432247
89	0xbc9ccca9	-0.019140558
90	0xbd9f6686	-0.07783227
91	0x3c4ab109	0.01237131
92	0xbd2e3965	-0.042535204
93	0xbdef7232	-0.11691703
94	0x3dd069cf	0.101764314
95	0x3d12f2dc	0.03587614
96	0x3da9b6e9	0.082868405
97	0x3d94e223	0.07269695
98	0xbc9ac332	-0.018891905
99	0xbcf7e60a	-0.030261058
100	0xbdca9de8	-0.098933995
101	0xbc9f6f32	-0.019462202
102	0xbd63cee3	-0.055617224
103	0xbcce8024	-0.025207587
104	0xbe191635	-0.14949878
105	0x3e275f4d	0.16344948
106	0xbdccd350	-0.10001242
107	0xbb0641b7	-0.0020485946
108	0xbe1fca62	-0.15604547
109	0xbd0a16a7	-0.03371301
110	0x3d095197	0.033525076
111	0xbd0dec9a	-0.03464947
112	0x3c96bf13	0.018401658
113	0x3da1a5a1	0.07892919
114	0xbd26abdd	-0.040691245
115	0x3d910021	0.07080103
116	0xbceb91da	-0.02875607
117	0xbe042e58	-0.12908304
118	0x3ca0d384	0.019632109
119	0x3d14ac6b	0.036297243
120	0x3d1a5b36	0.03768464
121	0x3cf9d39b	0.03049641
122	0xbc034e39	-0.008014255
123	0x3dafb944	0.085802585
124	0xbca9233c	-0.020646684
125	0x3e3c3a8e	0.18381712
126	0x3bab336b	0.0052246354
127	0xbd3da785	-0.046302337
128	0xbca03d6f	-0.019560544
129	0xbccc7440	-0.024957776
130	0x3c30b73d	0.010785875
131	0x3e2105b2	0.15724829
132	0x3d589f69	0.0528864
133	0xbd9c31ef	-0.076267116
134	0x3db23e85	0.08703331
135	0xbd554762	-0.05207003
136	0x3d499e23	0.049223077
137	0x3d8161da	0.06317492
138	0x3db3e72d	0.08784328
139	0x3e08a195	0.13342889
140	0x3c4342d4	0.011917789
141	0x3e00e18c	0.1258604
142	0xbd21f20b	-0.03953747
143	0xbde02694	-0.10944858
144	0xbdbb6db3	-0.09151783
145	0xbe12962d	-0.143151
146	0x3bdd356f	0.0067507545
147	0x3d5db428	0.05412689
148	0xbd04834f	-0.032351788
149	0x3d3b5c8c	0.045742556
150	0xbc74340e	-0.014904989
151	0x3cef8fb0	0.02924332
152	0xbdb9c7df	-0.090713255
153	0xbd529f5a	-0.0514215
154	0x3be2fb1e	0.006926908
155	0xbbef2965	-0.007298636
156	0xbdca9fe3	-0.09893777
157	0xbd939263	-0.072056554
158	0x3e1baea2	0.15203336
159	0x3d0f86ec	0.03504078
160	0x3ca4e838	0.020130262
161	0xbd0cfeae	-0.03442257
162	0x3d8a640a	0.06757362
163	0x3c3cd34c	0.0115249865
164	0xbd566d97	-0.052350607
165	0x3d635ed5	0.05551036
166	0xbd06df88	-0.03292802
167	0x3e00cd92	0.12578419
168	0x3df6e768	0.12055856
169	0x3caa32e3	0.020776218
170	0x3d4f4ea8	0.05061212
171	0xbd322631	-0.043493453
172	0xbdfa5b1e	-0.122244105
173	0xbd2b1997	-0.04177245
174	0x3d907528	0.07053596
175	0xbd705526	-0.058674954
176	0xbe00a87c	-0.12564272
177	0x3d99bb13	0.07506385
178	0x3c50cf0a	0.012744674
179	0xbd9a73df	-0.07541632
180	0xbd49ac8d	-0.049236823
181	0xbcff9f6f	-0.031203954
182	0xbdcda9ab	-0.10042127
183	0xbd622df1	-0.055219594
184	0x3d599ca0	0.053127885
185	0x3d882e0d	0.066494085
186	0x3d261ae8	0.040553004
187	0x3e0552d4	0.13019878
188	0x3cbc6072	0.022995207
189	0xbd69b502	-0.057057388
190	0xbcb796e2	-0.022410814
191	0x3d9b3cb7	0.0757994
192	0xbcfef183	-0.031121021
193	0x3d38bbcc	0.045100972
194	0x3cff6edd	0.031180793
195	0x3d803e9f	0.06261944
196	0xbdef5805	-0.1168671
197	0xbd98dede	-0.074643835
198	0xbd06960c	-0.03285794
199	0xbd2353be	-0.039874785
200	0xbda19b8f	-0.078909986
201	0xbe0663ef	-0.13124059
202	0x3db49848	0.08818108
203	0xbc61e03c	-0.013786372
204	0x3c9ac527	0.018892838
205	0xbd8fad91	-0.07015527
206	0xbb3873d7	-0.0028145218
207	0xbcc70d2c	-0.024298273
208	0x3c07e495	0.008294244
209	0x3cc23b0c	0.023709796
210	0x3c531a58	0.012884699
211	0xbd7a31f8	-0.06108281
212	0x3cdefe6e	0.02722093
213	0x3d397af3	0.04528327
214	0xbe0b7f15	-0.13622697
215	0x3e0b2a75	0.13590415
216	0xbd762686	-0.060095333
217	0x3ce38321	0.027772488
218	0xbd957ffe	-0.07299803
219	0x3aa855bf	0.0012842937
220	0xba70fb98	-0.0009192764
221	0xbc05cdab	-0.008166711
222	0xbd32f1a4	-0.043687478
223	0xbd85b645	-0.06528906
224	0x3dc11e0a	0.094295576
225	0xbceab727	-0.028651787
226	0x3d486da8	0.0489327
227	0x3d818266	0.063237
228	0xbc57c2e2	-0.013169022
229	0xbd8f4d16	-0.06997125
230	0xba0dae83	-0.00054047274
231	0xbd09f41f	-0.033680078
232	0xbd1063fc	-0.035251603
233	0xbcd0c156	-0.025482815
234	0x3bdb1e97	0.006686996
235	0xbdae2f42	-0.085051075
236	0x3d35b686	0.04436352
237	0xbd4472e4	-0.04796113
238	0xbdc1f65a	-0.09470816
239	0xbde4f4a8	-0.11179477
240	0x3cb5f700	0.022212505
241	0xbd81d635	-0.06339685
242	0x3cfbe694	0.030749597
243	0xbd4ecbd1	-0.050487343
244	0x3db37427	0.08762389
245	0xbd32571c	-0.043540105
246	0x3b8fc7e1	0.004387841
247	0xbd8ee0fe	-0.069765076
248	0x3d496cee	0.04917615
249	0x3ca6c8bc	0.02035939
250	0xbc167f50	-0.009185627
251	0x3d01efcf	0.03172284
252	0xbcb45392	-0.022012506
253	0xbca26045	-0.019821296
254	0xbc71ce3a	-0.014758641
255	0xbd5349c9	-0.05158404
