results/DalekRun12/DalekBehavior/DalekBehavior-18499947.onnx (onnx, 739093 bytes, 9 tensors)

action_model._discrete_distribution.branches.0.bias f4 [3]
-0.13245621 0.10844686 0.015472199
00000000: 9aa2 07be 6319 de3d 1b7f 7d3c

action_model._discrete_distribution.branches.0.weight f4 [3, 256]
0.045126446 0.03594515 -0.038394786 0.0043993113 -0.025896646 -0.0699762 -0.025783163 -0.082620986
0.03262483 0.0714476 -0.005802056 -0.08242899 0.0400564 0.0664033 0.036557484 -0.06813076
0.111751385 0.04840556 -0.0009047435 -0.034088507 0.009627428 -0.14722057 0.015318464 -0.033684127
0.032229677 0.013187515 0.015084949 0.04997293 0.0040687285 -0.015586165 -0.013821504 0.13167222
0.037157502 -0.033714395 -0.013360951 -0.023283513 0.03653936 -0.002648095 -0.02829374 0.0612959
-0.014999619 0.020039186 0.036090795 0.06845119 -0.017764237 0.06448808 0.023417832 -0.0706573
-0.058743935 -0.024645923 0.037229564 0.1445393 0.025684591 -0.0076240716 -0.28340054 0.015987184
-0.03270012 0.03475072 -0.039988127 -0.007270587 0.07313487 0.02845173 0.09776552 0.013801903
0.051323786 0.010396855 0.0097061815 0.12730725 0.107788265 -0.019949922 -0.05486474 0.10429603
-0.008082403 -0.11712004 0.013169366 0.014877458 -0.05100258 -0.00021581276 0.06354624 0.043358937
-0.15529545 0.028528241 0.041301284 0.059150904 0.015302632 0.02830844 0.00081475824 0.11162581
-0.032223724 0.05609583 0.016530735 -0.082734145 0.06674531 -0.06994085 -0.10356148 0.07436518
-0.15500374 0.13008529 0.02987599 -0.022309681 0.07604625 0.026125144 0.07296245 0.053132758
-0.022270843 -0.06689974 -0.06457131 0.029722018 0.036574192 0.019041691 -0.0392994 0.030396864
0.00958483 -0.09495125 0.07710601 0.04319623 0.005586319 0.03998896 -0.016909257 0.09434302
0.0832938 0.04455014 0.04695569 0.018502133 0.048221573 -0.028137386 0.07355951 0.0048754876
-0.008371556 0.017258467 -0.09755045 -0.017338445 0.013719152 0.01873749 0.12914394 -0.08585484
-0.0007310723 0.0067182183 -0.0028110172 0.024724696 -0.11144607 -0.020809792 -0.020428121 0.013959488
0.11312493 0.019576302 -0.07032222 0.011458405 0.027447995 0.012208705 0.04061347 -0.1672414
-0.019476058 0.045732755 0.020652093 -0.0691716 -0.022231115 0.042046297 0.06300548 -0.08511363
-0.060384892 0.048794657 0.07735834 0.042232465 0.036382925 -0.00848824 0.033496976 -0.16643754
-0.046396405 0.043664813 0.026844688 0.07409261 0.046987306 0.07184491 0.054760203 -0.058996417
-0.04882851 0.020891238 0.016121592 0.027221516 0.056545295 0.042324822 0.0926874 -0.009454965
0.012918808 0.07307329 0.04276551 -0.019376516 -0.008268383 -0.019282518 -0.099522926 0.10492788
0.063786775 0.022229452 0.011160764 0.023287306 -0.14442623 0.02285599 -0.030998385 0.053816352
0.022077572 0.005261707 -0.006967879 0.035349876 -0.013400588 0.059985865 -0.13350125 -0.0027697415
-0.046463374 -0.058327183 -0.00027264343 0.022915276 -0.048039068 -0.06254633 -0.07613515 0.02876109
0.08244034 0.12981983 -0.036945414 0.09014189 0.115444675 0.028548792 -0.04971855 0.020957176
0.035419933 -0.005257299 -0.047912292 0.022162316 0.0033250062 0.0466579 0.06982216 0.018100362
0.089366674 -0.11362545 0.0694618 -0.04014585 0.03618005 0.056553446 0.028456358 -0.041613404
-0.021388497 -0.003048976 0.062740624 -0.049726307 -0.022690408 -0.044679265 0.051358182 -0.0040985057
-0.0013143885 -0.021050462 0.030903772 -0.043057762 0.04848366 0.055824813 -0.024424445 -0.001447048
00000000: 82d6 383d 393b 133d da43 1dbd 1928 903b
00000010: 3425 d4bc af4f 8fbd 3637 d3bc 3135 a9bd
00000020: 9da1 053d 1f53 923d 2c1f bebb 88d0 a8bd
00000030: 2e12 243d 74fe 873d 4dbd 153d 2488 8bbd
00000040: e9dd e43d e944 463d 4f2c 6dba 64a0 0bbd
00000050: 5cbc 1d3c fdc0 16be 4bfa 7a3c 5ef8 09bd
00000060: 4403 043d 7210 583c dd26 773c 6ab0 4c3d
00000070: f852 853b 1d5d 7fbc 9773 62bc 15d5 063e
00000080: 7732 183d 1b18 0abd e4e7 5abc 11bd bebc
00000090: 4caa 153d a98b 2dbb 46c8 e7bc 6911 7b3d
000000a0: f6c0 75bc 3829 a43c f1d3 133d 2330 8c3d
000000b0: 4e86 91bc 5412 843d c1d6 bf3c c6b4 90bd
000000c0: 7b9d 70bd 3fe6 c9bc 077e 183d 1c02 143e
000000d0: 7e68 d23c 59d3 f9bb e019 91be 8ef7 823c
000000e0: 90f0 05bd c556 0e3d 97ca 23bd 1b3e eebb
000000f0: bcc7 953d 9a13 e93c 4a39 c83d 6121 623c
00000100: e438 523d 9257 2a3c ad06 1f3c d55c 023e
00000110: 18c0 dc3d 056e a3bc dab9 60bd 2899 d53d
00000120: 0e6c 04bc a2dc efbd 53c4 573c 95c0 733c
00000130: 15e8 50bd cc4b 62b9 8824 823d 2499 313d
00000140: c505 1fbe 0fb4 e93c 892b 293d 3848 723d
00000150: e4b7 7a3c 1ae7 e73c 8095 553a 139c e43d
00000160: 06fd 03bd bec4 653d 776b 873c 8570 a9bd
00000170: c4b1 883d 263d 8fbd 0b18 d4bd c64c 983d
00000180: 4db9 1ebe 1435 053e 7ebe f43c cbc2 b6bc
00000190: 23be 9b3d 6604 d63c 566d 953d bca1 593d
000001a0: 5871 b6bc bb02 89bd f73d 84bd 977b f33c
000001b0: d2ce 153d 52fd 9b3c 68f8 20bd d802 f93c
000001c0: b109 1d3c cd75 c2bd c1e9 9d3d 88ee 303d
000001d0: 710d b73b 77cb 233d 4885 8abc ea36 c13d
000001e0: f195 aa3d 357a 363d 9c54 403d c991 973c
000001f0: fc83 453d 6080 e6bc 5ea6 963d 8ec2 9f3b
00000200: da28 09bc a161 8d3c 88c8 c7bd 5b09 8ebc
00000210: 4bc6 603c 5d7f 993c 4f3e 043e aad4 afbd
00000220: 6ea5 3fba 8024 dc3b 0b39 38bb 728b ca3c
00000230: d63d e4bd 4c79 aabc e058 a7bc 56b6 643c
00000240: 0bae e73d 7b5e a03c 1905 90bd 09bc 3b3c
00000250: 9eda e03c 0507 483c 4f5a 263d 5441 2bbe
00000260: 418c 9fbc 4552 3b3d 942e a93c d7a9 8dbd
00000270: 071e b6bc bd38 2c3d 0409 813d 0e50 aebd
00000280: 2656 77bd e8dc 473d 0d6e 9e3d f3fb 2c3d
00000290: 4306 153d 4212 0bbc 2034 093d 9a6e 2abe
000002a0: 280a 3ebd e0d9 323d 64e9 db3c debd 973d
000002b0: c375 403d 6d23 933d 3c4c 603d 3aa6 71bd
000002c0: 6700 48bd 1a24 ab3c 6e11 843c a8ff de3c
000002d0: 0a9c 673d cb5c 2d3d e4d2 bd3d ffe8 1abc
000002e0: 68a9 533c 73a7 953d e32a 2f3d 80bb 9ebc
000002f0: 1d78 07bc 5ff6 9dbc add2 cbbd 6ee4 d63d
00000300: a4a2 823d 8a1a b63c a3db 363c 05c5 be3c
00000310: 78e4 13be 7c3c bb3c 53f0 fdbc 896e 5c3d
00000320: 06dc b43c 666a ac3b ce52 e4bb 08cb 103d
00000330: 248e 5bbc bdb3 753d 8db4 08be 8d84 35bb
00000340: 6150 3ebd 7ce8 6ebd 95f1 8eb9 d1b8 bb3c
00000350: 9dc4 44bd 4a18 80bd bfec 9bbd 619c eb3c
00000360: 7bd6 a83d 7def 043e 1354 17bd 509c b83d
00000370: 426e ec3d 28df e93c aea5 4bbd 62ae ab3c
00000380: 7e14 113d 6c45 acbb ae3f 44bd bf8d b53c
00000390: 59e8 593b 5b1c 3f3d ecfe 8e3d 3647 943c
000003a0: e005 b73d 76b4 e8bd fd41 8e3d fa6f 24bd
000003b0: 8831 143d 96a4 673d 4f1d e93c d172 2abd
000003c0: ee36 afbc 54d1 47bb 287e 803d d0ad 4bbd
000003d0: 3ce1 b9bc 9b01 37bd f55c 523d c24c 86bb
000003e0: 8f47 acba 0572 acbc e829 fd3c 565d 30bd
000003f0: cd96 463d 8fa8 643d c615 c8bc e0aa bdba

action_model._discrete_distribution.branches.1.bias f4 [2]
-0.050766982 0.050766807
00000000: 0af1 4fbd dbf0 4f3d

action_model._discrete_distribution.branches.1.weight f4 [2, 256]
0.08547821 -0.20680471 0.016040033 0.06172551 0.109318726 0.0635188 0.1290044 0.062143035
-0.013249801 -0.051714752 -0.14914113 0.01879716 0.0012175642 -0.032199483 -0.06526815 0.03193023
0.012411175 -0.19425242 0.040853117 -0.12174845 -0.0076117334 0.058230102 0.13927214 0.045598608
-0.1010806 -0.09827286 0.009627045 -0.059645686 -0.10613893 -0.042230517 0.037141073 0.007138995
0.016604105 0.1427954 -0.14631996 0.13185726 0.058556475 -0.093781486 0.017713813 -0.10710972
-0.08656008 0.052818134 0.03035149 0.03860735 -0.0015991402 -0.19303825 -0.12826915 0.09903225
0.11513875 -0.0055627422 -0.0012816663 -0.08956211 -0.034581885 0.029032297 0.06809037 -0.07901627
-0.12161464 -0.016354555 -0.065420635 -0.0917816 -0.086240776 -0.0010873178 -0.06811055 -0.034877665
0.0049791033 0.020323656 0.078145556 -0.08185995 0.09098381 0.073423155 0.0175242 -0.10098158
0.0001695297 0.0660587 0.01251161 -0.16101973 -0.087753154 0.03579259 0.07259755 -0.042075645
0.07507634 -0.0049373605 -0.032427233 0.027852459 -0.0008894237 -0.088189706 -0.04081936 -0.046284538
-0.0065779965 0.0274676 0.0060855392 0.11469133 0.07127159 0.02711482 0.042126242 -0.026480103
0.029738182 0.011738682 -0.03879125 -0.009981562 -0.10538719 0.0065735662 -0.060559846 0.004341637
-0.0013700048 0.13890252 0.052691244 -0.024987677 -0.10603194 -0.054791737 0.026711946 -0.20579986
-0.0010144989 0.10381839 0.04031124 0.0043822606 -0.18007572 0.03383626 -0.004149683 0.028105035
0.056102134 0.013280459 0.023421144 -0.010784155 -0.035139237 -0.020164175 -0.11181136 0.0013662432
-0.0063851043 -0.0843222 -0.040724006 0.045436926 0.12850784 -0.17310269 0.042310685 0.09182209
0.046776284 -0.043439105 0.058116674 0.12692164 -0.10102088 -0.07711186 -0.08564449 0.04049354
0.040213473 0.07120901 0.043716583 0.04205722 -0.06389852 -0.019151488 0.089453585 -0.016975582
0.01522171 0.05640002 -0.06421135 0.058397986 0.014206664 0.028693855 0.06747696 0.08287264
-0.0023086208 0.045959674 -0.0064712036 -0.013269677 0.087997206 -0.042661026 -0.04998174 0.025581157
-0.17064393 0.011033624 -0.071032755 0.035884995 -0.008315616 -0.03601257 0.02201864 0.028775033
0.115658976 -0.046779085 -0.009569496 -0.13482621 -0.046840858 0.0516754 0.0326727 0.0440555
-0.08387156 -0.024175253 -0.0016339541 0.040387966 0.020255629 -0.049120888 0.08980934 0.048080187
-0.12876205 0.011962432 -0.04905294 -0.065780096 0.13996331 0.008499351 0.023269812 -0.071295805
-0.1478001 -0.054456946 0.020161655 -0.08689522 -0.0043630893 0.018029034 0.08041042 -0.08819292
0.024060188 0.040253352 0.004233029 0.10891453 0.12985058 -0.020838492 0.013972373 -0.028082388
0.04042542 -0.030757876 -0.005757863 0.021392878 0.015541786 -0.08608677 0.031192226 -0.096245386
-0.09470748 -0.11422518 0.050776154 -0.014855635 -0.018974777 0.01172495 0.09400203 -0.07790913
-0.11807 0.055620987 0.048156448 -0.0081548095 0.06854698 -0.030015267 -0.00014025172 -0.14087093
0.043875676 -0.18329623 0.0032093422 -0.016680313 0.020491011 -0.017557122 -0.19180095 -0.07136002
-0.038282204 -0.0010595327 0.036474723 0.11814649 -0.08021288 0.08525131 -0.04761641 0.042870205
00000000: 330f af3d 9dc4 53be 6366 833c e3d3 7c3d
00000010: 7fe2 df3d 2516 823d bb19 043e b289 7e3d
00000020: b115 59bc d9d2 53bd 74b8 18be 80fc 993c
00000030: ad96 9f3a 9be3 03bd 4fab 85bd 46c9 023d
00000040: 3e58 4b3c 1bea 46be 9955 273d 4057 f9bd
00000050: d96b f9bb b082 6e3d 5b9d 0e3e 9bc5 3a3d
00000060: 5803 cfbd 4843 c9bd c1ba 1d3c 094f 74bd
00000070: 5e5f d9bd e8f9 2cbd 3d21 183d 3bee e93b
00000080: 5505 883c f538 123e e6d4 15be 9705 073e
00000090: ead8 6f3d 8210 c0bd 8f1c 913c 575c dbbd
000000a0: 6946 b1bd d457 583d b0a3 f83c be22 1e3d
000000b0: 3e9a d1ba d2ab 45be fd58 03be 6cd1 ca3d
000000c0: ddcd eb3d aa47 b6bb 96fd a7ba 576c b7bd
000000d0: bca5 0dbd 24d5 ed3c f772 8b3d 48d3 a1bd
000000e0: 1911 f9bd fdf9 85bc 41fb 85bd fef7 bbbd
000000f0: 019f b0bd 5584 8eba 8b7d 8bbd e2db 0ebd
00000100: bf27 a33b cc7d a63c c70a a03d 31a6 a7bd
00000110: b855 ba3d e15e 963d e98e 8f3c 6ecf cebd
00000120: c8c3 3139 c949 873d 7ffd 4c3c 5be2 24be
00000130: edb7 b3bd 409b 123d 06ae 943d 8357 2cbd
00000140: a0c1 993d 95c9 a1bb 6bd2 04bd d72a e43c
00000150: 3728 69ba ce9c b4bd 3432 27bd db94 3dbd
00000160: 3c8c d7bb bb03 e13c 3469 c73b 4ae3 ea3d
00000170: d7f6 913d e61f de3c 918c 2c3d cdec d8bc
00000180: 7d9d f33c 9a53 403c 93e3 1ebd b589 23bc
00000190: 3dd5 d7bd 1267 d73b 9a0d 78bd 4a44 8e3b
000001a0: bc91 b3ba 763c 0e3e c6d2 573d f5b2 ccbc
000001b0: 4627 d9bd 4d6d 60bd 03d3 da3c 33bd 52be
000001c0: eff8 84ba bc9e d43d 661d 253d 1199 8f3b
000001d0: c565 38be e497 0a3d 10fa 87bb 883c e63c
000001e0: 5acb 653d 4896 593c b3dd bf3c 06b0 30bc
000001f0: 29ee 0fbd 572f a5bc 5bfd e4bd 8413 b33a
00000200: 233a d1bb 1eb1 acbd 37ce 26bd 121c 3a3d
00000210: 8f97 033e d541 31be f84d 2d3d 380d bc3d
00000220: 7d98 3f3d 34ed 31bd c00b 6e3d bff7 013e
00000230: 09e4 cebd d3ec 9dbd 6166 afbd 8edc 253d
00000240: e2b6 243d 08d6 913d 2910 333d 3144 2c3d
00000250: 3add 82bd 95e3 9cbc 7133 b73d 6010 8bbc
00000260: 7b64 793c b503 673d 3e81 83bd ba32 6f3d
00000270: 11c3 683c 600f eb3c 5c31 8a3d 21b9 a93d
00000280: 3b4c 17bb 3640 3c3d 640c d4bb 0f69 59bc
00000290: e137 b43d 54bd 2ebd a7b9 4cbd 938f d13c
000002a0: 48bd 2ebe 60c6 343c 9f79 91bd 25fc 123d
000002b0: 393e 08bc eb81 13bd 6f60 b43c 9eb9 eb3c
000002c0: 9dde ec3d 6d9b 3fbd 60c9 1cbc e20f 0abe
000002d0: 33dc 3fbd 96a9 533d cfd3 053d 8a73 343d
000002e0: dac4 abbd 2e0b c6bc 672a d6ba da6d 253d
000002f0: 22ef a53c fc32 49bd f6ed b73d bbef 443d
00000300: 33da 03be 14fe 433c bceb 48bd b7b7 86bd
00000310: 8b52 0f3e dd40 0b3c 55a0 be3c 8903 92bd
00000320: e958 17be 3f0e 5fbd 0e2a a53c 1ff6 b1bd
00000330: 3ff8 8ebb a0b1 933c 38ae a43d 7d9e b4bd
00000340: df19 c53c b3e0 243d 39b5 8a3b 950e df3d
00000350: 8df7 043e 7cb5 aabc 61ec 643c 090d e6bc
00000360: 2095 253d f1f7 fbbc 75ac bcbb 1e40 af3c
00000370: faa2 7e3c 434e b0bd d786 ff3c 4d1c c5bd
00000380: fff5 c1bd e4ee e9bd a8fa 4f3d 0d65 73bc
00000390: fe70 9bbc 011a 403c 2384 c03d d28e 9fbd
000003a0: afce f1bd d5d2 633d b23f 453d c09b 05bc
000003b0: 5c62 8c3d 94e2 f5bc 8910 13b9 7840 10be
000003c0: fbb6 333d 02b2 3bbe d453 523b 27a5 88bc
000003d0: c4dc a73c f4d3 8fbc 7867 44be 3425 92bd
000003e0: cdcd 1cbd 05e0 8aba 8566 153d c9f6 f13d
000003f0: a746 a4bd 3d98 ae3d 6d09 43bd ab98 2f3d

discrete_action_output_shape f4 [1, 2]
3.0 2.0
00000000: 0000 4040 0000 0040

network_body._body_endoder.seq_layers.0.bias f4 [256]
-0.049349654 -0.042162802 -0.009393851 -0.07799001 -0.026919404 -0.044937644 -0.067573726 -0.01841185
-0.05053322 -0.040622473 -0.05687716 -0.031988576 -0.007460816 -0.05983015 -0.032934375 -0.0555262
-0.0073119104 -0.10298532 0.00010006019 -0.0047557913 -0.0562488 -0.056560665 0.041601036 -0.102489
-0.027745636 -0.020663736 0.006198204 -0.115960844 -0.08093338 0.0001800399 -0.07450869 -0.036115278
-0.03743134 -0.009581013 -0.011711133 -0.010768637 -0.05278798 -0.07580153 -0.015107157 -0.14386192
-0.055907805 -0.025091678 -0.048311103 -0.041674856 -0.07555556 -0.029092189 0.0018179287 -0.01369519
-0.03495899 -0.04226851 -0.015327353 -0.024645118 0.0045027416 -0.037632458 0.01886684 -0.034081582
-0.07256694 -0.13209583 -0.079110704 -0.051177066 -0.056201823 -0.14389634 -0.006458655 -0.083368756
-0.0058291527 -0.08679249 -0.041519653 -0.05496237 0.007524224 -0.016105616 -0.036509708 -0.03380179
-0.044773936 -0.009509391 -0.043112855 -0.022356318 -0.06326798 -0.03946575 -0.08421209 -0.10581881
-0.0672463 -0.056646757 -0.03480922 -0.03689255 -0.02599505 -0.08829745 -0.04597212 -0.069724195
0.01676032 0.024048004 0.013104602 -0.03584084 -0.0156081645 -0.03258038 -0.04449419 -0.1534957
-0.051197186 -0.02872231 -0.021102803 -0.030194057 -0.009131185 -0.0776544 0.0073602977 -0.07077013
-0.13230784 -0.07550577 -0.033456523 -0.03535397 -0.024196297 -0.036211662 -0.030601524 -0.017830582
-0.052666407 -0.04418765 -0.026895871 -0.003566952 -0.034801316 -0.024720168 -0.038358424 0.016117144
-0.015289733 -0.093430005 -0.09488819 -0.041206192 -0.0264013 -0.030902535 -0.04142673 -0.04882409
-0.009305405 0.027871469 -0.021098277 -0.033926215 -0.07913798 -0.04012776 -0.011821845 -0.0071508563
-0.058660712 -0.0063734464 0.020261636 -0.0435326 -0.06323006 -0.03606569 -0.04863292 -0.032810695
-0.0727953 -0.031557906 0.022514386 -0.0532393 -0.04001293 -0.041252837 -0.009413063 -0.013227269
-0.053073954 -0.06540062 -0.031194013 -0.01830212 -0.013388891 -0.02757363 -0.024345871 -0.07057633
-0.041163143 -0.050992623 -0.010183863 -0.03759035 -0.10950642 -0.03740182 -0.007611793 -0.02641154
-0.06785022 -0.039924446 -0.02928199 -0.01886295 0.013030827 -0.05315519 -0.013467363 -0.13993931
-0.044383414 -0.020855717 -0.07293567 -0.082257606 -0.013959042 -0.013319591 -0.003871641 -0.04379265
-0.026372684 -0.083983056 -0.04313853 -0.03249136 -0.15158884 -0.026039079 -0.03698817 -0.01880575
-0.012715156 -0.05412842 -0.043103747 -0.06077614 -0.021103602 -0.0041310852 -0.016064389 -0.07032836
-0.0026468912 -0.029741596 -0.034235332 -0.06725408 0.004797016 -0.0136239445 -0.11200418 0.017163584
-0.015016053 -0.044887207 -0.0064697093 -0.049373608 -0.021261351 -0.017703218 -0.0037768176 -0.042048234
-0.07290619 -0.017690124 -0.036000345 -0.06404044 0.023332445 -0.06377872 0.015381483 -0.03400606
-0.02119577 -0.053252894 -0.020110577 -0.16472611 -0.042587508 -0.1978924 -0.02271069 -0.023830498
-0.0008965963 -0.033364978 -0.053318754 0.0055526732 -0.040812336 -0.04196981 0.0011875799 -0.0322366
0.0076492256 -0.050259862 -0.11294446 -0.0040546814 -0.07789177 -0.03946447 -0.0054441625 -0.07581377
-0.050642617 -0.018672887 -0.01610116 -0.017587218 -0.04008976 -0.12492295 -0.06508029 -0.027560646
00000000: dd22 4abd e7b2 2cbd abe8 19bc 3ab9 9fbd
00000010: 1586 dcbc 8910 38bd 1864 8abd 73d4 96bc
00000020: ecfb 4ebd c063 26bd 06f8 68bd 7406 03bd
00000030: dc79 f4bb 7610 75bd 32e6 06bd 716f 63bd
00000040: c098 efbb f8e9 d2bd 68d7 d138 78d6 9bbb
00000050: 2465 66bd 28ac 67bd d965 2a3d c1e5 d1bd
00000060: d14a e3bc ff46 a9bc 4e1a cb3b e17c edbd
00000070: 66c0 a5bd 18c9 3c39 0398 98bd 9ded 13bd
00000080: 9b51 19bd aef9 1cbc 0de0 3fbc f06e 30bc
00000090: 3538 58bd d53d 9bbd 0284 77bc 8a50 13be
000000a0: 95ff 64bd 108d cdbc dde1 45bd 41b3 2abd
000000b0: e0bc 9abd be52 eebc 9147 ee3a ca61 60bc
000000c0: 2831 0fbd bf21 2dbd 941f 7bbc 8fe4 c9bc
000000d0: bc8b 933b 7e24 1abd a28e 9a3c 2199 0bbd
000000e0: fa9d 94bd 2144 07be cb04 a2bd 0b9f 51bd
000000f0: e233 66bd 9059 13be 20a3 d3bb 3dbd aabd
00000100: 7a02 bfbb 43c0 b1bd 8310 2abd 3920 61bd
00000110: c48d f63b edef 83bc 348b 15bd bf73 0abd
00000120: e064 37bd 47cd 1bbc 1b97 30bd 9924 b7bc
00000130: a592 81bd d7a6 21bd 6377 acbd 88b7 d8bd
00000140: 6eb8 89bd 6e06 68bd 1d94 0ebd a41c 17bd
00000150: 92f3 d4bc 4bd5 b4bd 434d 3cbd 8fcb 8ebd
00000160: f04c 893c 5200 c53c afb4 563c d8cd 12bd
00000170: 63b9 7fbc 0173 05bd 8a3f 36bd fa2d 1dbe
00000180: 24b4 51bd 0d4b ebbc c9df acbc 8759 f7bc
00000190: f79a 15bc 4509 9fbd a72e f13b eeef 90bd
000001a0: b57b 07be c5a2 9abd b509 09bd 53cf 10bd
000001b0: 5037 c6bc ae52 14bd 0cb0 fabc 7111 92bc
000001c0: bbb8 57bd 1cfe 34bd bb54 dcbc 86c3 69bb
000001d0: d38b 0ebd f381 cabc b91d 1dbd 1a08 843c
000001e0: ca81 7abc 3b58 bfbd bd54 c2bd d3c7 28bd
000001f0: 8a47 d8bc 5027 fdbc 13af 29bd c5fb 47bd
00000200: b375 18bc b552 e43c 4bd6 acbc 37f6 0abd
00000210: 1813 a2bd 025d 24bd 69b0 41bc bb51 eabb
00000220: 3746 70bd 58d8 d0bb bbfb a53c 3d4f 32bd
00000230: c37e 81bd 9eb9 13bd 5033 47bd 8264 06bd
00000240: b415 95bd dd42 01bd 1770 b83c 7411 5abd
00000250: 99e4 23bd bcf8 28bd 3f39 1abc 30b7 58bc
00000260: 1364 59bd c3f0 85bd 968a ffbc 54ee 95bc
00000270: 145d 5bbc 18e2 e1bc fe70 c7bc 538a 90bd
00000280: af9a 28bd a4dd 50bd 38da 26bc 57f8 19bd
00000290: e744 e0bd a732 19bd 596c f9bb 045d d8bc
000002a0: 0ef5 8abd d187 23bd c9e0 efbc 7986 9abc
000002b0: 407f 553c 42b9 59bd 37a6 5cbc 404c 0fbe
000002c0: 62cb 35bd 9cd9 aabc 4c5f 95bd ad76 a8bd
000002d0: 77b4 64bc 6a3a 5abc 5bbb 7dbb ec5f 33bd
000002e0: 870b d8bc 4fff abbd 07b2 30bd a915 05bd
000002f0: 1b3a 1bbe e84f d5bc e880 17bd 840e 9abc
00000300: 3b53 50bc c3b5 5dbd 8e8d 30bd 67f0 78bd
00000310: 76e1 acbc 0e5e 87bb 7799 83bc 5108 90bd
00000320: 7777 2dbb a6a4 f3bc 593a 0cbd 82bc 89bd
00000330: 4930 9d3b f736 5fbc 7362 e5bd a59a 8c3c
00000340: e405 76bc a6db 37bd dbff d3bb fb3b 4abd
00000350: 492c aebc 5706 91bc 7c84 77bb c53a 2cbd
00000360: d74f 95bd e1ea 90bc 1975 13bd a227 83bd
00000370: af23 bf3c 6b9e 82bd 9e02 7c3c f049 0bbd
00000380: c0a2 adbc b51f 5abd f0be a4bc f6ad 28be
00000390: 3d70 2ebd 4ea4 4abe c50b babc 2d38 c3bc
000003a0: 8f09 6bba b7a9 08bd c464 5abd 33f3 b53b
000003b0: d62a 27bd 89e8 2bbd 92a8 9b3a 860a 04bd
000003c0: 5ba6 fa3b 49dd 4dbd 6d4f e7bd 22dd 84bb
000003d0: b885 9fbd 7fa5 21bd f264 b2bb 4044 9bbd
000003e0: a26e 4fbd e2f7 98bc 94e6 83bc 1213 90bc
000003f0: 2935 24bd 9bd7 ffbd d148 85bd ddc6 e1bc

network_body._body_endoder.seq_layers.0.weight f4 [256, 456]
-0.015978852 -0.026256394 -0.21347822 -0.026395544 -0.046125937 -0.08859846 -0.008680226 -0.012400653
-0.39684275 -0.026162496 -0.06315146 -0.01183886 0.04061979 0.1196375 -0.04141712 -0.008392256
-0.24013461 -0.29346815 0.06754326 -0.054432113 -0.22296607 0.07419737 0.06981194 -0.08946016
0.09200105 0.090250716 0.0140933795 -0.18584682 -0.20860745 -0.21876422 0.19362852 -0.0020124414
0.032232333 -0.18407516 0.049177263 -0.042559657 0.13168244 -0.073856674 0.012048883 -0.1870627
0.09986375 0.006868382 -0.06825312 -0.07777997 -0.15275823 0.2814627 0.063210964 0.050413337
0.033769265 -0.08749179 -0.067643784 -0.15115593 0.074231066 -0.06964111 0.1004955 -0.123765424
0.06942829 -0.02026638 -0.027089396 0.0015563301 -0.17168131 0.060190722 0.101344645 -0.05538184
0.11092325 -0.06038814 0.041621156 -0.01910842 -0.2884278 -0.11118262 0.011749634 -0.17950502
-0.09080126 0.0906067 -0.27576998 -0.07043173 -0.089350335 -0.16581151 0.088046916 0.061879892
-0.18727349 -0.0041370904 -0.14828922 -0.3903766 0.012998257 0.06601558 -0.15033638 -0.11021802
-0.21131565 -0.21907647 0.08263588 -0.0025786115 -0.046241134 -0.034148056 -0.10565083 -0.09327349
0.16603893 -0.13408662 -0.08338514 -0.033111267 0.09519307 -0.09110424 0.110173464 -0.16408342
0.019351311 -0.033024866 -0.023491204 -0.061171312 0.068664126 0.022922587 0.051478263 0.03829334
-0.19555785 -0.10892211 0.1305979 -0.116004005 -0.098448664 -0.1947551 -0.14379266 -0.21186215
0.11451898 -0.06858666 -0.008509053 0.29241586 -0.19460376 -0.06572558 0.02445446 0.049151953
-0.10215129 -0.2366887 0.010266515 -0.09024082 0.015716733 -0.035263337 -0.09020593 -0.15940876
-0.0036365027 -0.26338083 -0.09455532 0.059147548 -0.25029176 -0.15370424 0.084660366 0.01299469
0.09433801 -0.011436129 -0.1975386 -0.08030602 -0.21961136 -0.18729189 0.018528178 -0.101554535
-0.21716064 0.0011597067 0.0045826505 -0.013581519 0.09523627 -0.08137216 -0.12143467 0.10716923
-0.057631567 -0.2097208 0.15205656 0.011542551 -0.25511056 -0.0034227027 -0.07100498 0.031426925
0.0664598 0.043576535 -0.044091716 -0.09862919 -0.24449681 -0.17909074 0.066566326 0.018031826
0.21896654 0.17174774 -0.20858982 -0.070659176 0.020637248 0.007911094 -0.056978323 -0.055706102
-0.16226704 -0.24964993 0.088146925 -0.13464989 -0.17338444 0.24408406 -0.22411309 0.0067201313
-0.0029694492 -0.14251143 0.10093998 -0.052285884 0.023159677 -0.049670763 -0.029248275 0.05480183
-0.23880132 -0.39677852 -0.03778119 -0.17045821 -0.044502895 0.119876795 -0.12598625 -0.010981631
-0.092346005 -0.11401119 -0.019232411 0.07038969 -0.29200402 -0.0834722 -0.03292542 -0.1007014
0.052082635 -0.038577955 -0.2117202 0.11200047 -0.0043644025 0.022368636 0.0069613555 0.031383015
-0.16630262 0.058783386 -0.09705482 -0.2083339 0.0064286687 -0.111768395 -0.21160127 0.19588335
0.061507825 0.07982384 0.101248115 -0.042866595 -0.038404275 -0.04807859 -0.28500274 -0.25845394
-0.07462069 -0.2055971 -0.14835006 0.20011543 -0.14745633 0.034289517 -0.097414754 0.04889302
0.29228273 -0.015093314 -0.00025081402 -0.033702936 0.18793613 -0.11674444 -0.18704794 -0.14203322
00000000: 15e6 82bc a617 d7bc 099a 5abe 783b d8bc
00000010: 8dee 3cbd 1c73 b5bd 8237 0ebc 1c2c 4bbc
00000020: f92e cbbe bb52 d6bc 8d55 81bd c7f7 41bc
00000030: f060 263d 8104 f53d ffa4 29bd ac7f 09bc
00000040: d9e5 75be 7541 96be 1f54 8a3d 35f4 5ebd
00000050: 3851 64be caf4 973d 90f9 8e3d e336 b7bd
00000060: 0c6b bc3d 5ed5 b83d ebe7 663c a14e 3ebe
00000070: 319d 55be ba03 60be 8e46 463e 2ae3 03bb
00000080: 0d06 043d 337e 3cbe 196e 493d 0953 2ebd
00000090: c3d7 063e 2b42 97bd ae68 453c 5d8d 3fbe
000000a0: 5e85 cc3d 2a10 e13b 4bc8 8bbd 1b4b 9fbd
000000b0: a76c 1cbe e11b 903e c074 813d 377e 4e3d
000000c0: a451 0a3d e52e b3bd d388 8abd 9fc8 1abe
000000d0: 7506 983d 00a0 8ebd 96d0 cd3d ba78 fdbd
000000e0: 6b30 8e3d ae05 a6bc 95ea ddbc c6fd cb3a
000000f0: 3acd 2fbe 8c8a 763d c88d cf3d 11d8 62bd
00000100: bb2b e33d 8e59 77bd f27a 2a3d 4389 9cbc
00000110: cfac 93be b7b3 e3bd 8981 403c 2ad0 37be
00000120: 03f6 b9bd 0190 b93d b931 8dbe 833e 90bd
00000130: 4ffd b6bd 7eca 29be f151 b43d c575 7d3d
00000140: 9fc4 3fbe 6e90 87bb 21d9 17be 71df c7be
00000150: a4f6 543c 2d33 873d c8f1 19be fcb9 e1bd
00000160: 2163 58be 9555 60be 003d a93d ecfd 28bb
00000170: 5867 3dbd d5de 0bbd 765f d8bd 2c06 bfbd
00000180: 1c06 2a3e 014e 09be d4c5 aabd ae9f 07bd
00000190: 96f4 c23d dc94 babd a0a2 e13d 7c05 28be
000001a0: a486 9e3c 1545 07bd a070 c0bc c58e 7abd
000001b0: c79f 8c3d 26c8 bb3c dfda 523d 7ad9 1c3d
000001c0: 5140 48be 8e12 dfbd 75bb 053e 8293 edbd
000001d0: 749f c9bd e26d 47be 623e 13be 64f2 58be
000001e0: ed88 ea3d 2a77 8cbd 8e69 0bbc 88b7 953e
000001f0: 3546 47be 229b 86bd b854 c83c 8f53 493d
00000200: b234 d1bd 865e 72be e334 283c 2ed0 b8bd
00000210: 61c0 803c 4a70 10bd e3bd b8bd 0d3c 23be
00000220: 6452 6ebb dad9 86be 38a6 c1bd b344 723d
00000230: 3e26 80be a564 1dbe 6a62 ad3d aee7 543c
00000240: 4934 c13d 9a5e 3bbc 8f47 4abe 7c77 a4bd
00000250: cde1 60be 72c9 3fbe 68c8 973c d3fb cfbd
00000260: 5c5f 5ebe 4d01 983a 0f2a 963b 0585 5ebc
00000270: 3c0b c33d 72a6 a6bd beb2 f8bd 8b7b db3d
00000280: 140f 6cbd 0dc1 56be b7b4 1b3e f81c 3d3c
00000290: da9d 82be 6c4f 60bb 0f6b 91bd 85b9 003d
000002a0: 131c 883d 4f7d 323d 8499 34bd 1afe c9bd
000002b0: 5f5d 7abe 9063 37be ed53 883d 7bb7 933c
000002c0: c438 603e a4de 2f3e 9298 55be c2b5 90bd
000002d0: 720f a93c 899d 013c 1a62 69bd 152c 64bd
000002e0: 5529 26be 3ba4 7fbe 6086 b43d a9e1 09be
000002f0: b18b 31be 2cf1 793e e77d 65be 8c34 dc3b
00000300: 179b 42bb 84ee 11be 9fb9 ce3d b929 56bd
00000310: 5db9 bd3c 9273 4bbd 149a efbc e277 603d
00000320: 5588 74be 8e26 cbbe 73c0 1abd 998c 2ebe
00000330: ab48 36bd f781 f53d 8a02 01be 4dec 33bc
00000340: e71f bdbd b37e e9bd 4a8d 9dbc 7828 903d
00000350: 8d81 95be 79f3 aabd cedc 06bd 893c cebd
00000360: 9a54 553d eb03 1ebd 2ecd 58be 8160 e53d
00000370: 4303 8fbb 6e3e b73c 151c e43b 7a8b 003d
00000380: 3c4b 2abe d9c6 703d adc4 c6bd 7b55 55be
00000390: 95a7 d23b d4e6 e4bd 01ae 58be a595 483e
000003a0: a1ef 7b3d ae7a a33d 2c5b cf3d e294 2fbd
000003b0: cd4d 1dbd 0eee 44bd e1eb 91be 1354 84be
000003c0: bbd2 98bd 0c88 52be 14e9 17be 0feb 4c3e
000003d0: cbfe 16be 2a73 0c3d 6381 c7bd 0c44 483d
000003e0: 15a6 953e f349 77bc b07f 83b9 170c 0abd
000003f0: 5472 403e b517 efbd 7f89 3fbe 2871 11be

network_body._body_endoder.seq_layers.2.bias f4 [256]
-0.08107303 0.03258704 -0.1276974 -0.07736417 -0.062423557 0.023475295 -0.06451407 -0.012785308
-0.047760617 -0.10375763 -0.025183344 -0.031873226 -0.024329476 -0.08672691 -0.07274105 -0.074858256
-0.10810193 0.030583851 0.02529486 0.0023020494 -0.088993 -0.019973319 -0.194445 -0.06300322
-0.04778393 -0.045168 -0.11139752 -0.042518195 -0.012526305 -0.028847016 -0.1252866 -0.06380086
-0.18952091 -0.17622542 -0.036700338 -0.012531956 -0.16264842 0.01046534 -0.08174854 0.002884519
-0.030291488 -0.094218194 -0.23182589 -0.16627167 -0.049424198 0.027023777 -0.016076544 -0.12800658
0.01676428 -0.13624834 -0.06919398 -0.11722749 -0.026125416 -0.037934713 0.052302465 0.046048485
-0.08516635 -0.19557469 -0.08295069 -0.0115563 -0.08339032 -0.100656964 -0.1325184 -0.0698907
-0.14027421 -0.1982644 -0.12893568 -0.032287527 -0.12323536 -0.17904112 -0.15617341 -0.0783445
0.014753567 -0.016235018 -0.11936131 0.032697245 0.051461153 -0.13427407 -0.092259556 -0.06045632
-0.019124085 -0.047091328 -0.035662543 -0.25132927 -0.1479199 -0.053062376 0.026941134 -0.12216603
-0.04020673 -0.16646524 -0.2257161 -0.12383417 -0.16510434 -0.07978525 -0.1304432 -0.10743633
-0.07494901 -0.07942473 -0.041098155 -0.06228121 0.013883368 -0.14665058 -0.065255344 -0.11671219
-0.14886497 -0.017365597 -0.098408245 -0.015074466 0.0190596 0.013965006 0.011974394 -0.042877268
-0.24423741 -0.036364906 -0.11009781 -0.19711475 -0.011042517 -0.18957683 -0.12346808 -0.15479064
-0.048903525 -0.1726869 -0.12676676 -0.22133923 0.04625461 -0.0891631 -0.06948275 -0.04490426
-0.11481656 -0.120741196 -0.0545607 -0.033075526 -0.12923321 0.10826747 -0.11829524 -0.0196165
-0.13110556 -0.0574129 -0.19562559 -0.07273864 0.041029964 0.043872405 -0.00713174 -0.19471756
-0.10476439 -0.121885814 -0.04269988 -0.04372042 -0.044485144 0.009525366 -0.17058846 0.037177015
-0.053427875 -0.16942742 0.0006374868 -0.03258145 -0.20922355 -0.07770199 -0.112413675 -0.12784672
-0.009334141 -0.07344639 -0.03615326 -0.020180296 -0.16817245 -0.023190012 -0.07270005 -0.080139756
0.02890154 -0.14574891 -0.073326446 -0.18052249 -0.028088043 -0.071455956 -0.11839785 -0.036185946
-0.117440596 -0.08069308 -0.09704487 -0.027144479 -0.10135416 -0.19114694 -0.06003958 -0.15362991
0.027655816 -0.03895637 -0.14389026 -0.072232746 -0.12818982 -0.019956755 -0.08988091 -0.11621584
-0.09685941 -0.11372696 -0.11485238 0.021567795 -0.0005290548 -0.16796638 -0.12076555 0.06605518
-0.053745717 -0.13047981 -0.106856115 0.035314422 -0.017753229 -0.15360418 -0.0545279 0.03039743
-0.040829256 -0.041060794 -0.05975395 -0.109059095 -0.03172949 -0.023413973 -0.07721956 -0.07123195
-0.13348085 -0.04100746 0.0030969928 -0.060559936 -0.09380534 -0.020800436 -0.1331961 0.0061612693
0.009685843 0.06367575 -0.1105098 -0.08734902 -0.053218834 -0.022277227 -0.06418323 -0.056160737
-0.04835509 -0.004152806 -0.158327 -0.09908972 -0.10213488 -0.14661346 -0.0038540608 0.0013379267
-0.10053947 0.019404203 -0.11322517 0.030507727 -0.15357266 -0.08331013 0.0026938897 -0.12872508
-0.09217035 0.009679874 -0.050674327 -0.015690554 -0.063643634 -0.085596606 -0.05715228 -0.10028473
00000000: 9e09 a6bd fd79 053d 1bc3 02be 1b71 9ebd
00000010: d8af 7fbd 434f c03c f41f 84bd 7879 51bc
00000020: a3a0 43bd e17e d4bd 4d4d cebc 808d 02bd
00000030: 9c4e c7bc e19d b1bd 42f9 94bd 494f 99bd
00000040: 8b64 ddbd fc8a fa3c 2b37 cf3c fbdd 163b
00000050: f641 b6bd 169f a3bc 971c 47be d507 81bd
00000060: 15b9 43bd 1502 39bd 6224 e4bd 8f27 2ebd
00000070: 223b 4dbc 9450 ecbc 214b 00be 06aa 82bd
00000080: c511 42be 7074 34be 1853 16bd d552 4dbc
00000090: 4f8d 26be d176 2b3c c76b a7bd 330a 3d3b
000000a0: db25 f8bc 78f5 c0bd c463 6dbe 1f43 2abe
000000b0: 0771 4abd f860 dd3c f5b2 83bc 2814 03be
000000c0: 3e55 893c af84 0bbe 93b5 8dbd f714 f0bd
000000d0: f804 d6bc 6e61 1bbd 1c3b 563d 569d 3c3d
000000e0: b26b aebd bb44 48be 0de2 a9bd a356 3dbc
000000f0: 8bc8 aabd 3d25 cebd e7b2 07be db22 8fbd
00000100: 0ba4 0fbe d305 4bbe b707 04be ed3f 04bd
00000110: d262 fcbd 8e56 37be eceb 1fbe 1573 a0bd
00000120: f2b8 713c 4dff 84bc b473 f4bd 8ced 053d
00000130: eec8 523d 247f 09be 94f2 bcbd 0ca1 77bd
00000140: 1daa 9cbc d6e2 40bd e312 12bd 3bae 80be
00000150: 5078 17be ef57 59bd a7b3 dc3c 2f32 fabd
00000160: d0af 24bd dd75 2abe 1f22 67be c59c fdbd
00000170: 1d11 29be 7366 a3bd e792 05be 9407 dcbd
00000180: de7e 99bd 6fa9 a2bd 8a56 28bd 951a 7fbd
00000190: 1177 633c 922b 16be 98a4 85bd cd06 efbd
000001a0: 0f70 18be 4c42 8ebc 438a c9bd e5fa 76bc
000001b0: e122 9c3c 7bcd 643c 4030 443c 13a0 2fbd
000001c0: 5f19 7abe 5ef3 14bd f67a e1bd 73d8 49be
000001d0: aceb 34bc 6e20 42be d5dc fcbd 7081 1ebe
000001e0: 104f 48bd d6d4 30be 25cf 01be c0a6 62be
000001f0: 7975 3d3d 259b b6bd f94c 8ebd 88ed 37bd
00000200: f224 ebbd 2947 f7bd 0a7b 5fbd 347a 07bd
00000210: b655 04be 56bb dd3d c644 f2bd c8b2 a0bc
00000220: 8940 06be ca29 6bbd 1352 48be fff7 94bd
00000230: 090f 283d 8db3 333d 5fb1 e9bb 0a64 47be
00000240: b68e d6bd 459f f9bd 12e6 2ebd 2f14 33bd
00000250: 0e36 36bd 4810 1c3c beae 2ebe ed46 183d
00000260: 30d7 5abd 627e 2dbe 041d 273a 2074 05bd
00000270: b33e 56be 3922 9fbd 2439 e6bd 40ea 02be
00000280: 3aee 18bc 106b 96bd 7115 14bd 2651 a5bc
00000290: 6635 2cbe fbf8 bdbc c4e3 94bd 5020 a4bd
000002a0: ecc2 ec3c 343f 15be 2d2c 96bd e3da 38be
000002b0: e518 e6bc 8057 92bd 927a f2bd b737 14bd
000002c0: b284 f0bd 6a42 a5bd 76bf c6bd 195e debc
000002d0: c592 cfbd 06bc 43be 10ec 75bd 2951 1dbe
000002e0: 738e e23c b790 1fbd f857 13be c3ee 93bd
000002f0: 3144 03be 597c a3bc 7c13 b8bd 9202 eebd
00000300: 3a5e c6bd aee9 e8bd b937 ebbd f2ae b03c
00000310: 44b0 0aba 61ff 2bbe ee53 f7bd f047 873d
00000320: 7824 5cbd 809c 05be 61d7 dabd dba5 103d
00000330: 386f 91bc 6a4a 1dbe a658 5fbd 0804 f93c
00000340: 943c 27bd 5d2f 28bd 8fc0 74bd 605a dfbd
00000350: c8f6 01bd a9ce bfbc 4a25 9ebd 0ee2 91bd
00000360: 34af 08be 70f7 27bd ebf6 4a3b b20d 78bd
00000370: 041d c0bd ad65 aabc 8f64 08be 79e4 c93b
00000380: 5fb1 1e3c 6e68 823d f652 e2bd 0be4 b2bd
00000390: fefb 59bd bb7e b6bc 7f72 83bd cd08 66bd
000003a0: fd0f 46bd 4314 88bb 7920 22be 8def cabd
000003b0: 182c d1bd d721 16be 6994 7cbb 5f5d af3a
000003c0: a3e7 cdbd 90f5 9e3c 99e2 e7bd 57eb f93c
000003d0: 2742 1dbe 809e aabd f88b 303b 82d0 03be
000003e0: cfc3 bcbd 5698 1e3c e28f 4fbd 7a89 80bc
000003f0: 9857 82bd 464d afbd 8218 6abd 1562 cdbd

network_body._body_endoder.seq_layers.2.weight f4 [256, 256]
0.12541191 0.054742817 0.09770469 0.0237589 -0.12186637 0.10183441 0.03993514 0.1679609
0.005977651 0.05880444 0.00040516604 0.066785306 0.06634471 -0.038982764 0.14970005 0.05975172
0.09628375 -0.06742435 -0.16988567 0.0068432125 -0.051097553 0.12420244 0.019702848 0.0018967335
0.085103154 0.29306898 0.123840235 0.071454234 0.1795613 0.110086404 0.086824894 -0.18270543
0.06295752 -0.123579405 0.004991264 0.14082472 0.07497042 -0.090583816 0.03152975 0.14452775
0.14741227 -0.30732137 0.051897973 0.015271747 -0.14670625 -0.087013386 -0.1412548 -0.07746907
0.11130751 -0.17323896 0.16913019 -0.079077095 -0.08451623 -0.060968775 -0.24690594 -0.014558393
-0.05230805 0.12237463 0.046264682 0.042364746 -0.16709031 -0.08011566 0.010219564 -0.1832772
-0.04524886 0.07882305 0.1469355 0.08182661 -0.0046889684 -0.24961554 -0.029644953 0.100351505
0.10762708 -0.0035288688 -0.1629715 0.12696044 -0.08370659 0.0260809 0.028280284 0.23599716
0.101910226 0.17972188 0.028520077 -0.026024086 0.09359318 -0.058430173 0.047652543 0.11461997
0.053463813 -0.15756579 -0.122553535 -0.14665861 -0.18629816 -0.044530906 0.027505964 -0.06615808
0.04809007 -0.24478689 -0.0028946083 -0.06466422 -0.14978516 0.07505476 0.114893824 0.024620479
-0.07433175 -0.07716933 -0.10245015 -0.07520007 0.26827633 0.07437669 -0.29780194 -0.15830341
-0.08149285 0.16490988 -0.10983526 0.11417648 0.018338015 -0.07294744 -0.014381051 0.07547886
-0.06927426 0.010200012 0.008254121 0.09596233 0.011248206 0.02167622 0.08202305 -0.051787607
0.052448805 0.3212113 0.1361743 -0.07697648 -0.002345162 0.058623895 0.115589626 0.16570412
-0.03853207 -0.12451001 0.06571478 -0.09448951 0.10856413 0.19421065 0.11929521 -0.09288121
0.10833028 0.2621152 -0.017194958 0.12724139 -0.0049059773 -0.0016500226 -0.084432505 -0.039725017
-0.053280808 -0.009922217 0.04554328 -0.1319255 -0.05561094 0.041447654 0.08661415 -0.03618147
0.06509427 0.026575703 -0.2543163 0.11055126 0.03973258 -0.107916065 -0.05918852 0.132904
-0.10638535 -0.07863312 0.14419863 -0.25854993 0.008748165 0.023353374 0.031230059 0.08182093
-0.122383624 -0.0076353713 0.10644685 -0.005010273 0.043032587 -0.035559915 -0.041551955 0.13591854
-0.079466715 -0.16340856 0.2209633 0.12476446 0.11573416 -0.040912367 0.13340525 -0.23134333
-0.017922224 0.026307313 0.039635234 0.001719013 -0.10418706 -0.28273812 -0.0150631135 -0.21392293
-0.2080093 -0.30490977 0.07881317 -0.03865119 -0.1070053 0.0019102674 0.057959046 -0.2740379
-0.11065008 0.055236895 0.07695823 -0.021643281 0.25453204 -0.07660465 -0.0616286 -0.20438085
-0.1274966 -0.01800794 -0.2534479 -0.0012877643 -0.26192153 0.18974029 0.023976663 0.056625895
-0.019913604 -0.103370115 0.068436146 0.025958 -0.1847921 -0.034201894 -0.037745472 -0.01162625
0.06681182 -0.041681934 -0.077481225 0.07337662 0.09602777 -0.26906934 0.11668867 -0.08828155
0.06292757 -0.17708947 -0.11486477 -0.078809515 0.029937044 0.118637174 -0.16769822 -0.03617549
-0.005044468 0.08506047 0.08575062 -0.052751444 -0.037027806 0.21179706 -0.024456808 0.06524225
00000000: fb6b 003e 013a 603d 6619 c83d 06a2 c23c
00000010: 1395 f9bd 8f8e d03d 0893 233d f1fd 2b3e
00000020: 2ce0 c33b eddc 703d 776c d439 bcc6 883d
00000030: bcdf 873d 64ac 1fbd f84a 193e 38be 743d
00000040: 6a30 c53d c715 8abd 82f6 2dbe 073d e03b
00000050: ab4b 51bd d95d fe3d de67 a13c d19b f83a
00000060: 904a ae3d 230d 963e f39f fd3d 9956 923d
00000070: ebde 373e fb74 e13d 40d1 b13d 2217 3bbe
00000080: dfef 803d 3317 fdbd c28d a33b 5b34 103e
00000090: 178a 993d 0284 b9bd 5725 013d 15ff 133e
000000a0: 3ef3 163e 3a59 9dbe f892 543d 5936 7a3c
000000b0: 2a3a 16be 1334 b2bd 19a5 10be 1ba8 9ebd
000000c0: 31f5 e33d 8e65 31be 7730 2d3e 2cf3 a1bd
000000d0: d816 adbd 65ba 79bd e9d4 7cbe 5386 6ebc
000000e0: f740 56bd 8d9f fa3d 0980 3d3d a886 2d3d
000000f0: b919 2bbe ae13 a4bd f56f 273c 05ad 3bbe
00000100: de56 39bd fb6d a13d 4276 163e b694 a73d
00000110: eba5 99bb 379b 7fbe f9d9 f2bc 1785 cd3d
00000120: 966b dc3d 9844 67bb 00e2 26be eb01 023e
00000130: 5c6e abbd 9da7 d53c 0eac e73c 3da9 713e
00000140: 4fb6 d03d 0309 383e f0a2 e93c 7730 d5bc
00000150: c8ad bf3d 7a54 6fbd 502f 433d e0bd ea3d
00000160: dffc 5a3d ed58 21be 59fd fabd ad2d 16be
00000170: f2c4 3ebe 0a66 36bd 3054 e13c e37d 87bd
00000180: 18fa 443d 6aa9 7abe 78b3 3dbb ad6e 84bd
00000190: 4861 19be 4fb6 993d 744d eb3d e3b0 c93c
000001a0: 3f3b 98bd f40a 9ebd 62d1 d1bd 7f02 9abd
000001b0: 845b 893e ce52 983d 7f79 98be 4a1a 22be
000001c0: b9e5 a6bd 23de 283e 4ff1 e0bd 5cd5 e93d
000001d0: 9b39 963c 7865 95bd 809e 6bbc a994 9a3d
000001e0: aadf 8dbd f31d 273c 4b3c 073c e687 c43d
000001f0: 654a 383c 5492 b13c b3fb a73d 3e1f 54bd
00000200: 8fd4 563d cf75 a43e 4771 0b3e d8a5 9dbd
00000210: 4ab1 19bb 9c1f 703d 41ba ec3d 57ae 293e
00000220: ced3 1dbd 1bff febd 7895 863d b783 c1bd
00000230: df56 de3d 28df 463e 0c51 f43d 8138 bebd
00000240: 44dc dd3d f733 863e 71dc 8cbc 914b 023e
00000250: 52c2 a0bb 9245 d8ba f3ea acbd b3b6 22bd
00000260: fa3c 5abd cb90 22bc 978b 3a3d 7a17 07be
00000270: 4cc8 63bd 04c5 293d c262 b13d 0533 14bd
00000280: 2550 853d 4ab5 d93c bf35 82be b368 e23d
00000290: a1be 223d 1903 ddbd a96f 72bd fc17 083e
000002a0: 90e0 d9bd 670a a1bd cea8 133e a860 84be
000002b0: 7754 0f3c 934f bf3c 2ed6 ff3c bb91 a73d
000002c0: 44a4 fabd 2332 fabb ce00 da3d 372d a4bb
000002d0: f042 303d 46a7 11bd 6232 2abd 3b2e 0b3e
000002e0: 72bf a2bd 9354 27be 3444 623e 8284 ff3d
000002f0: 0806 ed3d ba93 27bd 639b 083e 44e5 6cbe
00000300: a1d1 92bc 6f82 d73c 8e58 223d 8150 e13a
00000310: 0660 d5bd 0dc3 90be 47cb 76bc 9d0e 5bbe
00000320: 6400 55be 221d 9cbe cd68 a13d b650 1ebd
00000330: 9825 dbbd f061 fa3a 7766 6d3d b24e 8cbe
00000340: 829c e2bd 1540 623d 479c 9d3d 404d b1bc
00000350: 0652 823e e6e2 9cbd 456e 7cbd 3749 51be
00000360: 788e 02be 6385 93bc ecc3 81be 33ca a8ba
00000370: 941a 86be 474b 423e b56a c43c 8ef0 673d
00000380: db21 a3bc b6b3 d3bd 4028 8c3d dfa5 d43c
00000390: 243a 3dbe 4917 0cbd ff9a 1abd 077c 3ebc
000003a0: a3d4 883d adba 2abd 7aae 9ebd 7b46 963d
000003b0: 35aa c43d 75c3 89be 78fa ee3d f5cc b4bd
000003c0: 2be0 803d f156 35be 383e ebbd e266 a1bd
000003d0: 883e f53c 0cf8 f23d 15b9 2bbe c02c 14bd
000003e0: 114c a5bb 2f34 ae3d 059e af3d e611 58bd
000003f0: 78aa 17bd 54e1 583e a559 c8bc bb9d 853d
