results/DalekRun12/DalekBehavior/DalekBehavior-19499962.onnx (onnx, 739093 bytes, 9 tensors)

action_model._discrete_distribution.branches.0.bias f4 [3]
000000 cb 79 07 be c2 e9 e0 3d 8a f5 62 3c
       -0.13230054 0.10982086 0.013852486

action_model._discrete_distribution.branches.0.weight f4 [3, 256]
000000 01 ee 30 3d 39 ba 13 3d 6b 39 24 bd 6e 18 e8 ba
       0.04319573 0.036066268 -0.04009382 -0.0017707476
000010 33 1a c8 bc 03 f3 96 bd 74 67 ee bc 39 39 af bd
       -0.024426555 -0.073705696 -0.029102065 -0.08555836
000020 9f 54 06 3d 41 ea 9a 3d 84 21 c3 bb 4d e7 a9 bd
       0.032795545 0.07564212 -0.005954923 -0.0829607
000030 c6 dd 35 3d a0 24 88 3d e3 14 0e 3d 0a 87 86 bd
       0.044400953 0.06647611 0.034687888 -0.065687254
000040 be b3 dc 3d cf 9b 3f 3d e2 ee 7a bb 31 ba 0c bd
       0.107764706 0.04677945 -0.0038289358 -0.034357253
000050 a4 91 47 3c 0c b6 18 be 08 3c 86 3c 2d 27 ff bc
       0.0121807195 -0.14913195 0.016386047 -0.03114661
000060 d6 6e 06 3d b4 25 2f 3c 2f de 92 3c ae 7d 4e 3d
       0.032820545 0.0106901415 0.017928211 0.050412826
000070 a3 fe b2 3b eb 00 9a bc c7 0d 42 bc c6 8c 07 3e
       0.005462484 -0.018799266 -0.011844105 0.13237295
000080 d1 34 21 3d ba ae 08 bd 85 6c 7e bc 97 e4 c2 bc
       0.03935701 -0.033369757 -0.015528803 -0.02379064
000090 f4 16 10 3d 7d b1 e2 bb 88 bb e5 bc 66 7a 6e 3d
       0.03517814 -0.006918131 -0.028043523 0.058222197
0000a0 15 44 35 bc a6 07 a1 3c 80 e3 1c 3d 1e 14 8e 3d
       -0.011063595 0.019656967 0.0383029 0.06937431
0000b0 9f 19 c3 bc 46 be 88 3d 90 8f ca 3c bd fd 90 bd
       -0.023815928 0.06676917 0.024726659 -0.07079647
0000c0 c5 b9 7d bd 4c b8 a1 bc b1 7d 18 3d 28 eb 15 3e
       -0.06194474 -0.0197412 0.037229244 0.14640486
0000d0 00 9f cc 3c 92 55 80 bb d8 9b 93 be 73 a5 79 3c
       0.02497816 -0.003916451 -0.28829837 0.0152372
0000e0 e4 5d 04 bd e2 80 0f 3d a7 8b 16 bd 5b b7 1b bc
       -0.032316104 0.03503502 -0.036754277 -0.009504165
0000f0 a2 d6 98 3d da 74 f5 3c 1c 1a ca 3d 61 76 4e 3c
       0.07462813 0.029962946 0.09868261 0.012601466
000100 8e 3b 48 3d 76 54 25 3c a8 34 cb 3b 24 ec 05 3e
       0.04888492 0.010090938 0.0062013455 0.13078362
000110 e6 12 d6 3d 2e 47 b9 bc 7a e3 3c bd 1c b0 d9 3d
       0.10452823 -0.022616949 -0.046115376 0.10629293
000120 16 cb 56 bc 5b ca f5 bd 85 9b 82 3c 09 d6 72 3c
       -0.013109943 -0.12001487 0.015943298 0.014821538
000130 21 27 53 bd 7e 2f 10 3a 87 23 85 3d e0 88 37 3d
       -0.051550988 0.0005500241 0.06500917 0.04480827
000140 73 22 20 be 82 99 ec 3c 3e 5c 30 3d 5a 13 7d 3d
       -0.15638141 0.028881792 0.04305672 0.061786033
000150 1d cb 88 3c f5 8c f1 3c ee 94 0b ba 7c f2 e3 3d
       0.016698414 0.029486159 -0.00053246215 0.111302346
000160 7f b7 11 bd b4 3f 69 3d cd ab b1 3c 99 dd af bd
       -0.035575386 0.056945518 0.021688366 -0.08587188
000170 e0 9f 8d 3d 23 6d 96 bd 70 ac d4 bd 8d 6f 99 3d
       0.06915259 -0.07345035 -0.10384452 0.0749198
000180 47 c9 1e be b3 ff 05 3e 45 c8 da 3c 9c 98 b5 bc
       -0.15506469 0.13085823 0.026706824 -0.022167496
000190 f4 86 96 3d de 3a df 3c 63 8e 95 3d 63 73 65 3d
       0.07349959 0.02724975 0.07302549 0.056018244
0001a0 a4 97 b7 bc d0 a3 8c bd 5f 01 8e bd 27 bf c4 3c
       -0.022411175 -0.06867182 -0.06933855 0.02401693
0001b0 64 13 1e 3d c3 07 8f 3c 4d e1 1d bd 5a 58 d9 3c
       0.03859271 0.017459756 -0.03854494 0.026531387
0001c0 0b b7 18 3c e4 1d c4 bd 87 53 a2 3d 48 b1 3d 3d
       0.009320985 -0.09576014 0.07926088 0.046311647
0001d0 4f 89 f4 3b 4d 56 24 3d ca d5 90 bc 18 72 c4 3d
       0.0074626575 0.040121365 -0.017680068 0.09592074
0001e0 bf ca 9d 3d b2 e5 42 3d ac 5f 3d 3d 92 28 a7 3c
       0.077046864 0.047582336 0.046233818 0.020405088
0001f0 f5 ce 44 3d 8c 77 cf bc a5 3b 96 3d 89 e3 09 3b
       0.048048932 -0.02532556 0.07335595 0.0021040163
000200 18 07 b8 bb a9 ec af 3c e6 7b ca bd 78 d9 83 bc
       -0.00561608 0.021475153 -0.09886913 -0.016094908
000210 98 79 57 3c df e4 8a 3c 9d d4 04 3e 04 fa b0 bd
       0.013151549 0.016954837 0.1297173 -0.08641437
000220 83 e7 52 bb 7c 54 f6 3a 5c c6 82 bb aa d1 c3 3c
       -0.0032181449 0.0018793489 -0.0039909314 0.023903687
000230 a1 aa e6 bd fc 6b b5 bc 24 61 8b bc f3 83 81 3c
       -0.11263014 -0.022146218 -0.017014094 0.015809989
000240 f8 2e e6 3d 04 11 85 3c 7d 63 9a bd 1e e3 57 3c
       0.11239427 0.016243465 -0.07538507 0.013176708
000250 52 8e f6 3c c7 e7 43 3c 5f 03 2b 3d 16 23 32 be
       0.03009716 0.0119571155 0.04175126 -0.17396197
000260 e3 3e c2 bc 99 d2 3e 3d fd 2b ca 3c e3 8d 92 bd
       -0.023711627 0.04658756 0.024679178 -0.07155969
000270 27 a7 c4 bc 5c 9b 25 3d dd b5 7f 3d 36 9d b6 bd
       -0.024005486 0.040431365 0.062429298 -0.08916704
000280 70 34 7c bd fa a8 45 3d 82 27 98 3d c4 56 26 3d
       -0.061573446 0.04825685 0.074294105 0.04061009
000290 0b 29 10 3d 9c c7 37 bc ab 10 0a 3d 29 b9 29 be
       0.03519539 -0.011217024 0.033707302 -0.16574539
0002a0 3e 12 3c bd bb c2 2b 3d 14 c7 eb 3c 87 9f 98 3d
       -0.045915835 0.041933756 0.028781451 0.074523024
0002b0 f1 c1 61 3d 2b 66 90 3d 2b 29 68 3d 6d 0c 77 bd
       0.055116598 0.07050737 0.056679886 -0.060314585
0002c0 13 b8 62 bd 59 17 e7 3c c4 f0 a5 3c 56 3e ca 3c
       -0.055351328 0.028209375 0.020256408 0.024687927
0002d0 6f f6 66 3d a3 4f 23 3d 90 da bf 3d 84 51 1d bc
       0.05638736 0.03987087 0.09367859 -0.009601954
0002e0 a0 6f 6b 3c d8 f5 93 3d 94 b9 2d 3d 15 8d a4 bc
       0.014369875 0.07224625 0.04241331 -0.020086804
0002f0 b0 b1 41 bc cf a6 86 bc 74 b2 d6 bd 7a 18 d3 3d
       -0.011822149 -0.016436962 -0.10483256 0.10307403
000300 d6 4a 85 3d 99 c8 88 3c 5c 12 16 3c 52 34 b2 3c
       0.065084144 0.016697215 0.009159651 0.021753464
000310 c2 58 19 be ee fb bd 3c 4e 86 e8 bc 34 68 5d 3d
       -0.14975265 0.023191418 -0.028384354 0.054054454
000320 f3 31 a6 3c b5 e2 d4 3b 14 99 f3 bb 3d d7 11 3d
       0.02028749 0.006496752 -0.00743402 0.035605658
000330 91 44 9a bc 61 6c 68 3d e3 f2 07 be 37 58 02 bc
       -0.018831523 0.056743983 -0.13276248 -0.007955602
000340 45 1e 4d bd e5 b9 5d bd e4 5d bf ba df 18 b1 3c
       -0.050077695 -0.05413236 -0.0014600125 0.021618305
000350 69 df 4e bd d0 ed 8f bd 71 9a 98 bd d1 88 00 3d
       -0.05050603 -0.07027781 -0.07451332 0.03138048
000360 bd e0 a4 3d 96 53 08 3e f1 3a 18 bd 4b 39 b9 3d
       0.08050678 0.13313136 -0.037165586 0.09044131
000370 02 9e eb 3d 66 10 ef 3c 34 ee 4d bd 91 43 86 3c
       0.11504747 0.029182624 -0.050275996 0.01638964
000380 b8 e9 07 3d 21 75 2a bb ac 0c 42 bd 1f af 94 3c
       0.033181876 -0.0026009756 -0.047375366 0.01814991
000390 bc 8e 4f 3b b8 85 38 3d 31 56 89 3d 87 51 78 3c
       0.003167077 0.0450494 0.06705893 0.015156156
0003a0 fc 84 b6 3d f9 40 e5 bd fe c6 8c 3d 22 f6 20 bd
       0.089120835 -0.11194033 0.06873892 -0.03929723
0003b0 c4 cd 27 3d 3d 1f 46 3d 2b 93 f5 3c c3 18 32 bd
       0.040967718 0.048369635 0.029977402 -0.043480646
0003c0 b3 2c c8 bc dd 9c d4 bb 14 51 75 3d 7c 1b 66 bd
       -0.024435377 -0.006488426 0.059891775 -0.056178555
0003d0 2d f1 94 bc e0 89 32 bd ce 05 4f 3d 18 e8 8c b8
       -0.018181408 -0.04358852 0.050542645 -6.718951e-05
0003e0 f6 b9 de bb 45 30 b9 bc f7 4b 03 3d dd 88 34 bd
       -0.0067970706 -0.022606025 0.032054868 -0.044075835
0003f0 29 e6 40 3d 9b 4a 5e 3d ed 53 cf bc 4e 2e 8d bb
       0.047094498 0.054270368 -0.025308574 -0.0043084985

action_model._discrete_distribution.branches.1.bias f4 [2]
000000 2c b7 4c bd ff b6 4c 3d
       -0.049979374 0.049979206

action_model._discrete_distribution.branches.1.weight f4 [2, 256]
000000 f5 28 b0 3d e5 7a 55 be 4d e3 4d 3c 7c 1b 7f 3d
       0.08601562 -0.20847662 0.0125664 0.06228207
000010 8c f9 e2 3d 02 e8 87 3d 90 7e 03 3e bf 16 83 3d
       0.110827535 0.06636049 0.12841249 0.06400823
000020 9c 63 33 bc b6 89 52 bd ce e5 19 be 69 23 85 3c
       -0.010949042 -0.051400863 -0.1502907 0.016252236
000030 6c 2d 8f 3a ec 1a fd bc 83 9c 83 bd b9 93 09 3d
       0.0010923571 -0.030896626 -0.064263366 0.033588145
000040 33 0f 5d 3c 04 0d 48 be 51 5e 30 3d a3 45 fc bd
       0.013492393 -0.19536215 0.043058697 -0.1231797
000050 32 6e 0d bc 2b 1f 71 3d 19 12 0f 3e 06 d1 39 3d
       -0.00863223 0.058867615 0.13971747 0.045365356
000060 82 85 cc bd cb 87 d0 bd c3 68 1c 3c d7 a5 6e bd
       -0.09986402 -0.101821505 0.0095464615 -0.058263626
000070 76 22 e1 bd 46 4d 36 bd 14 88 20 3d 7e 08 04 3c
       -0.10992901 -0.044507287 0.039192274 0.008058665
000080 7d 08 88 3c 4a ea 15 3e 76 12 14 be 98 c6 08 3e
       0.01660561 0.14640155 -0.14460167 0.13357008
000090 2a 96 70 3d 8b 5d bd bd e1 a5 b0 3c 43 f6 d8 bd
       0.058736958 -0.092463575 0.021563472 -0.10593846
0000a0 1e 46 b4 bd 2c 8c 5f 3d f3 5a 05 3d b8 29 21 3d
       -0.08802436 0.054577038 0.03255744 0.039346427
0000b0 81 7e 58 3b 62 0a 49 be ac 79 01 be 61 58 cb 3d
       0.0033034387 -0.19632867 -0.1264407 0.09928966
0000c0 cb e3 e6 3d 62 4c e9 bb b5 63 2e ba 7d a5 b9 bd
       0.11273917 -0.0071197012 -0.0006652431 -0.090647675
0000d0 4e a3 13 bd 79 4b f6 3c 5c 81 89 3d e1 cf a7 bd
       -0.03604441 0.030065285 0.067141265 -0.08193947
0000e0 04 f6 fa bd 47 85 8e bc 34 b5 8d bd 5b 49 bd bd
       -0.12253955 -0.017397536 -0.069193274 -0.09242507
0000f0 fc 18 b5 bd fe c1 ae ba 18 f2 89 bd cd da 0f bd
       -0.08842656 -0.0013332961 -0.06735629 -0.035120774
000100 3a 07 c3 3b f2 40 86 3c 6d ec 98 3d 4f 8d a8 bd
       0.005951789 0.01638839 0.0746697 -0.082300775
000110 5c 92 be 3d 4b e2 99 3d e1 10 89 3c 02 1d ce bd
       0.093052596 0.07513865 0.016731681 -0.100641266
000120 d2 a3 95 b9 9f 43 86 3d fc 1b 2d 3c 8a 51 25 be
       -0.0002854155 0.065558665 0.010565754 -0.16144386
000130 94 f8 b9 bd 57 db 22 3d 59 db 96 3d 61 7d 28 bd
       -0.09080616 0.03975996 0.07366056 -0.041135196
000140 60 53 9b 3d 56 48 ad bb fa 30 06 bd 72 15 e8 3c
       0.07584262 -0.005288164 -0.03276155 0.028330538
000150 19 5a 30 ba 0f f4 b8 bd 43 48 31 bd 4f e8 2a bd
       -0.0006727293 -0.090309255 -0.043281805 -0.041725453
000160 5d c4 07 bc 1f b1 dd 3c d4 7f af 3b 95 f8 eb 3d
       -0.008286563 0.027061997 0.0053558145 0.11522023
000170 ca 66 94 3d 71 1b d0 3c 60 4c 1f 3d ca 23 dc bc
       0.07246168 0.02540371 0.038891196 -0.026872534
000180 9c fa f1 3c fc 58 38 3c f1 14 07 bd 7f 42 37 bc
       0.029538445 0.011251684 -0.032978956 -0.0111852875
000190 85 00 d7 bd 7c ac c6 3b df c9 73 bd f2 48 cb 3b
       -0.10498146 0.006063042 -0.05951869 0.006203764
0001a0 36 e5 de 38 9a fe 0f 3e ca b8 55 3d f8 96 bf bc
       0.00010628479 0.14061967 0.05217818 -0.023387417
0001b0 68 fb db bd 50 b5 5b bd a9 29 bd 3c 81 f3 51 be
       -0.10741311 -0.05363971 0.023091154 -0.20503046
0001c0 7f 65 dc b9 09 e4 d4 3d f4 cb 1e 3d 31 ef 91 3b
       -0.0004203729 0.10395057 0.038768724 0.0044535627
0001d0 62 f4 38 be 06 c9 10 3d c7 19 b2 ba 73 10 e8 3c
       -0.18061975 0.03534796 -0.0013588005 0.028328156
0001e0 85 e5 72 3d b4 e5 34 3c 7b b4 c3 3c ac 29 29 bc
       0.059300918 0.011041094 0.02388977 -0.010324877
0001f0 ca de 21 bd 9d 83 ae bc c7 48 e4 bd ff ca 93 3a
       -0.03951911 -0.021302992 -0.11146694 0.0011275708
000200 b6 18 f7 bb 36 dd ae bd bb 51 1c bd 4a 56 53 3d
       -0.0075407876 -0.085382864 -0.03816388 0.051595964
000210 71 3a 06 3e d7 f5 30 be 85 ea 34 3d e9 c5 c2 3d
       0.13108231 -0.1728128 0.044168968 0.095104046
000220 e5 e0 46 3d 1f ae 34 bd 3f 16 78 3d fd de 01 3e
       0.04855432 -0.044111367 0.06056809 0.1268272
000230 e1 f9 d5 bd 7c 53 9d bd 52 32 af bd 66 50 1f 3d
       -0.10448051 -0.07681939 -0.0855452 0.038895033
000240 70 d9 28 3d 39 a5 93 3d 89 c9 3c 3d f9 06 2c 3d
       0.04122299 0.07209248 0.046090636 0.041998837
000250 b2 2d 7f bd e0 98 ab bc 09 72 be 3d 82 94 90 bc
       -0.062299438 -0.02094692 0.09299094 -0.017648939
000260 a3 ee 8d 3c ea 25 6d 3d 4e 5f 89 bd 58 50 72 3d
       0.017325705 0.057897486 -0.06707631 0.059158653
000270 46 fd 73 3c 04 7c f9 3c 45 f3 8c 3d 4f fc a8 3d
       0.014891928 0.030454643 0.068823375 0.08251249
000280 9f c2 ef ba e7 51 3f 3d f3 d0 78 bb 08 c9 57 bc
       -0.0018292255 0.046708968 -0.003796634 -0.013170488
000290 c5 de b5 3d 5c c3 2f bd f1 6d 48 bd 66 44 dd 3c
       0.088803805 -0.04291092 -0.048932973 0.027010154
0002a0 1e 9f 30 be 34 9e 44 3c 50 a6 94 bd 17 78 12 3d
       -0.17248198 0.012000609 -0.07258284 0.035759058
0002b0 b7 66 5a bc 17 ce 0c bd 95 04 b1 3c 08 c0 fe 3c
       -0.013330153 -0.03437623 0.02160863 0.031097427
0002c0 b9 f4 f4 3d 18 db 4a bd 24 5e 41 bc d1 8d 0b be
       0.1196074 -0.04952535 -0.01180223 -0.13628317
0002d0 35 23 3c bd d4 83 4d 3d b1 92 07 3d 3f 2d 3c 3d
       -0.045932014 0.05017455 0.03309888 0.045941588
0002e0 18 82 b7 bd 11 d1 bc bc 1f d9 5d bb 1c 03 21 3d
       -0.0896036 -0.02304891 -0.0033851338 0.039309606
0002f0 7b 88 a6 3c 6f 42 4e bd e9 80 b8 3d fb 41 3f 3d
       0.02032875 -0.050356325 0.09008963 0.046693783
000300 28 d1 01 be 59 e4 4e 3c ee 6c 52 bd 4a dd 8c bd
       -0.12677443 0.0126276845 -0.051373415 -0.06878145
000310 ad 5e 10 3e df f3 3a 3c db 42 b2 3c 2f 5e 94 bd
       0.14098616 0.011410682 0.021760395 -0.072445266
000320 10 cd 18 be ae db 53 bd 5e e4 a8 3c 54 28 b9 bd
       -0.14921975 -0.051723175 0.020616706 -0.09040895
000330 97 cc 83 bb 64 16 8e 3c 44 ee a5 3d 4e 0c b3 bd
       -0.0040221917 0.017344661 0.08102086 -0.08742581
000340 5e 85 dc 3c 0d 6d 25 3d 10 3d ab 3b 14 da e2 3d
       0.026919063 0.040387202 0.005225785 0.11076751
000350 b5 2d 06 3e b6 bd 9e bc aa 8e 6d 3c 7a b9 e8 bc
       0.13103373 -0.01937757 0.014499346 -0.028408755
000360 ef 88 2b 3d fa fd fa bc af 2a b8 bb f7 70 b9 3c
       0.041878637 -0.030638684 -0.0056203227 0.022636874
000370 ce 4c 6e 3c ce ba b1 bd fe 47 03 3d a2 8b c1 bd
       0.014544679 -0.08678208 0.03205108 -0.09450461
000380 ca 02 c3 bd d2 99 ef bd 50 14 4b 3d 40 d9 33 bc
       -0.09522016 -0.11699261 0.04957992 -0.010977089
000390 b2 c6 90 bc b8 8d 45 3c bb 6d c2 3d 71 d9 a5 bd
       -0.01767287 0.012057714 0.09493586 -0.08098114
0003a0 82 9d f0 bd 27 2e 6d 3d aa 12 3c 3d 61 cc c7 bb
       -0.11748792 0.057905342 0.045916237 -0.006097362
0003b0 74 e3 84 3d 6b 1d e7 bc 1e a2 69 3a a9 fb 0f be
       0.06488696 -0.02821227 0.0008912402 -0.14060844
0003c0 30 05 32 3d 86 8d 3c be bd 13 c4 3b e5 d8 6a bc
       0.04346198 -0.18413362 0.0059837983 -0.014333938
0003d0 ae b5 93 3c b1 6d 79 bc 2b 85 43 be 36 57 92 bd
       0.018030968 -0.015223906 -0.19093768 -0.071455404
0003e0 44 19 26 bd 4c 69 09 ba 6e 36 20 3d 5c c3 f4 3d
       -0.04055144 -0.0005241826 0.03911441 0.11951324
0003f0 e4 64 a1 bd 1f 2c b0 3d c9 c9 45 bd 8d 71 34 3d
       -0.078805715 0.086021654 -0.04828814 0.044053603

discrete_action_output_shape f4 [1, 2]
000000 00 00 40 40 00 00 00 40
       3.0 2.0

network_body._body_endoder.seq_layers.0.bias f4 [256]
000000 57 d0 3a bd 7a 20 37 bd 7d 07 0a bc 3f f1 9f bd
       -0.045608845 -0.044708706 -0.008424637 -0.07809686
000010 d8 3d d6 bc 37 78 37 bd f8 65 88 bd 2d 2f 7d bc
       -0.026152536 -0.04479238 -0.06660074 -0.015453142
000020 cd 85 49 bd ba de 22 bd 7a ac 62 bd d8 60 f8 bc
       -0.049199868 -0.03976319 -0.055340268 -0.030319616
000030 3b 8c 0e bc 3c f5 7f bd 9c 00 02 bd 75 5a 61 bd
       -0.008700426 -0.062489733 -0.031738862 -0.055017907
000040 ce 03 21 bc d0 8e d6 bd 75 ae bf ba e4 9d ab bb
       -0.009827567 -0.10476458 -0.0014624136 -0.005237328
000050 5a 05 6b bd 3a e1 69 bd b6 52 2a 3d 5a c2 d6 bd
       -0.05737815 -0.05709956 0.041582786 -0.10486288
000060 b7 85 db bc d3 57 a3 bc 1e 12 b8 3b 49 39 eb bd
       -0.026797159 -0.019939339 0.005617394 -0.11485536
000070 b5 a8 a9 bd 78 0b 09 bb bc 8a 9a bd 1d c6 01 bd
       -0.082841314 -0.0020911377 -0.07545993 -0.031683076
000080 63 8f 1d bd 27 5a 38 bc 0c e1 45 bc 6d ed e6 bb
       -0.038466822 -0.011251963 -0.012077581 -0.0070473463
000090 17 41 61 bd a8 16 95 bd 53 3e 92 bc 14 61 15 be
       -0.054993715 -0.07279712 -0.017851984 -0.14587814
0000a0 dd 79 7c bd 91 40 bb bc ff f9 4b bd d3 5b 2b bd
       -0.061639655 -0.022857936 -0.04979896 -0.041835617
0000b0 af b8 9e bd 6e 75 fb bc 8c 5d 91 b9 82 2c 83 bc
       -0.07750069 -0.030695643 -0.00027726253 -0.016012434
0000c0 a8 df 21 bd 82 4f 1f bd 28 1a 6c bc 6d 66 d0 bc
       -0.039519936 -0.038894184 -0.014410533 -0.025439465
0000d0 96 2a 9b 3b 63 77 0c bd 62 50 93 3c 41 b9 17 bd
       0.0047353012 -0.034293544 0.017982665 -0.037041906
0000e0 a5 24 98 bd 0f 6e 08 be a9 e2 9d bd 7c a4 4c bd
       -0.074288644 -0.13323234 -0.077092476 -0.049961552
0000f0 89 6e 5b bd 6a 11 0d be 82 33 b9 bb a9 96 a0 bd
       -0.05357221 -0.13776174 -0.005651892 -0.07841236
000100 a6 2c c2 bb 2c 89 ba bd 05 42 3f bd 42 87 3b bd
       -0.0059257327 -0.09108195 -0.04669382 -0.04578329
000110 f1 ee d0 3b 36 b1 7f bc 41 90 1d bd 40 37 03 bd
       0.0063761403 -0.015606215 -0.03846765 -0.032035112
000120 c5 0c 46 bd 7b 02 11 bc 6e 14 2c bd 31 c3 9d bc
       -0.04835202 -0.008850689 -0.04201167 -0.019258114
000130 7e bf 77 bd 30 b2 17 bd c8 54 af bd ac 1e d6 bd
       -0.060485356 -0.037035167 -0.085610926 -0.10455069
000140 c4 6d 8a bd a5 68 65 bd c6 e2 ea bc 12 11 0b bd
       -0.067592174 -0.056008 -0.028672587 -0.033951826
000150 59 cb dd bc 4b 1d b9 bd 04 fe 42 bd 9a 9e 8e bd
       -0.027074503 -0.0903879 -0.04760553 -0.069638446
000160 ac c7 83 3c 46 ed cc 3c 66 37 59 3c 57 3e 1a bd
       0.016086422 0.025015485 0.013257837 -0.03765711
000170 f2 c3 97 bc 3d 65 04 bd a3 cd 3c bd 09 24 1f be
       -0.018526051 -0.03232311 -0.046094548 -0.1554109
000180 a3 00 67 bd 38 a4 ee bc 67 1b a3 bc 9c 88 ea bc
       -0.05639709 -0.02913104 -0.019910527 -0.028629594
000190 cf 33 eb bb 5b eb 9e bd 83 f1 ed 3b 9c d8 94 bd
       -0.007177807 -0.07759734 0.0072614565 -0.072678775
0001a0 6f 97 0b be 6b 4e 94 bd 8f 54 0d bd f3 1f 0a bd
       -0.13631986 -0.072415195 -0.03450447 -0.033721875
0001b0 d1 e1 c3 bc bf 79 2f bd 23 4c fe bc 29 ce 8a bc
       -0.023911389 -0.042840715 -0.031042164 -0.016944008
0001c0 76 a8 51 bd af 9d 3a bd 86 0d da bc 6b a4 78 bb
       -0.051186047 -0.045560535 -0.026617777 -0.0037939798
0001d0 c0 87 22 bd 82 bc c8 bc 88 7f 28 bd a7 d8 8a 3c
       -0.039680243 -0.02450395 -0.04113725 0.016949011
0001e0 f7 a9 94 bc 4a f6 bf bd 68 81 bf bd b6 5c 24 bd
       -0.018147452 -0.09373148 -0.09350854 -0.04012748
0001f0 f7 8b e2 bc 9e 47 0d bd b2 07 2d bd 68 17 46 bd
       -0.027654631 -0.034492128 -0.042243667 -0.048362166
000200 a4 cc 59 bc 2c 43 ef 3c 7a eb aa bc cb 91 09 bd
       -0.013293419 0.029206835 -0.020864237 -0.033586305
000210 33 b9 a1 bd 66 08 31 bd 95 8e 80 bc 7d ba 4f bc
       -0.07896652 -0.0432209 -0.015692988 -0.01267874
000220 40 0d 67 bd 44 2e b6 bb 0f 7a 99 3c 98 08 3a bd
       -0.05640912 -0.0055597145 0.01873496 -0.045418352
000230 d8 64 7d bd ad 35 13 bd 16 62 55 bd 29 40 0e bd
       -0.06186375 -0.03593986 -0.052095495 -0.034729157
000240 30 e3 97 bd f9 80 02 bd 0a 79 b8 3c 21 f7 4e bd
       -0.074163795 -0.03186128 0.022518653 -0.05052865
000250 b6 be 26 bd a3 38 25 bd cd 00 45 bc 2f 6f 69 bc
       -0.04070922 -0.040337216 -0.012024117 -0.0142477
000260 8d 48 58 bd 75 75 89 bd b1 e2 fe bc f3 b5 81 bc
       -0.052803565 -0.06711856 -0.031113954 -0.01583383
000270 20 3b 5c bc 83 a1 cc bc 10 0a c5 bc 91 4d 8d bd
       -0.013441831 -0.024979359 -0.02405265 -0.0689956
000280 d8 04 33 bd 69 ef 4e bd 0a 39 18 bc 73 eb 20 bd
       -0.04370579 -0.050521288 -0.009290943 -0.039287042
000290 e6 72 d8 bd 60 c0 07 bd e2 59 01 bc bf 0a e0 bc
       -0.1056879 -0.033142447 -0.007894965 -0.027348874
0002a0 f6 24 8e bd a3 0e 26 bd 46 2b d8 bc 34 d2 b8 bc
       -0.069406435 -0.040541302 -0.026387822 -0.02256117
0002b0 53 db 55 3c 25 e4 5d bd f5 8b 75 bc 0c f3 13 be
       0.013052779 -0.054172654 -0.014986982 -0.14448184
0002c0 fe 76 49 bd 03 e5 ae bc 05 3c 98 bd f9 df a8 bd
       -0.049185745 -0.021349436 -0.07433323 -0.082458444
0002d0 2e 44 8b bc 0b 96 2b bc 6f 66 99 bb 08 cc 35 bd
       -0.017000284 -0.010472785 -0.0046814005 -0.044384032
0002e0 25 0f d3 bc 8f 2e a6 bd 3c 36 2b bd 01 95 07 bd
       -0.025764057 -0.08114349 -0.04179977 -0.033101086
0002f0 70 09 1f be e3 9c e9 bc 31 d6 25 bd ca 61 77 bc
       -0.15530944 -0.028517192 -0.040487472 -0.015098998
000300 07 a1 5b bc 65 87 61 bd ee eb 25 bd 33 5d 70 bd
       -0.013405091 -0.055060763 -0.040508203 -0.05868263
000310 20 26 b3 bc 84 46 a6 bb 71 43 80 bc 23 bc 8d bd
       -0.021868765 -0.005074324 -0.015657159 -0.0692065
000320 d8 e7 a7 bb 5f 87 01 bd ca 05 01 bd de 34 8c bd
       -0.0051240735 -0.03162324 -0.03149966 -0.06846021
000330 46 e3 7d 3b 76 a8 77 bc 38 35 ea bd 0b 28 87 3c
       0.0038740202 -0.015115848 -0.11435932 0.016498586
000340 d7 1e 61 bc c5 a1 34 bd ad 7c df bb 9e b3 42 bd
       -0.013740263 -0.044099588 -0.0068202824 -0.047534578
000350 2b d9 a5 bc 3a 0f ad bc 12 03 77 bb 5e 1d 2f bd
       -0.020245155 -0.021125425 -0.003769104 -0.042752616
000360 b2 2a 94 bd 7d 92 8a bc 97 46 0c bd d4 da 7b bd
       -0.07234706 -0.016915554 -0.034247007 -0.061487988
000370 b0 b3 c6 3c e1 96 7e bd 1c 5d 69 3c 0e c4 08 bd
       0.024255604 -0.062155608 0.01424339 -0.033390097
000380 21 8e d1 bc f7 f9 49 bd 71 fe b4 bc 80 17 26 be
       -0.025580468 -0.04931065 -0.022093983 -0.16219902
000390 74 47 34 bd bc 53 4b be ab 6f 97 bc 29 e4 c4 bc
       -0.044013456 -0.19856161 -0.018485865 -0.024034576
0003a0 4c 63 09 3a ec 7f f4 bc 7d 74 65 bd d5 fd d5 3b
       0.00052409316 -0.029846154 -0.056019295 0.0065305033
0003b0 e6 52 25 bd fe a4 29 bd ee cb b3 3a 2b 94 05 bd
       -0.04036226 -0.041417114 0.0013717392 -0.032612007
0003c0 4f b0 02 3c d0 75 4d bd ea 48 e5 bd a1 6d c0 bb
       0.007976606 -0.050161183 -0.11195548 -0.005872444
0003d0 4d d0 a1 bd bd cd 38 bd 08 c4 a6 bb 11 b7 92 bd
       -0.07901058 -0.045118082 -0.0050892867 -0.071638234
0003e0 d8 31 52 bd d9 51 8b bc 4b 96 a3 bc cb b9 92 bc
       -0.051317066 -0.017006801 -0.019969126 -0.017910859
0003f0 52 03 33 bd ad 6f fc bd 33 08 88 bd a3 62 c4 bc
       -0.04370434 -0.12325988 -0.06642189 -0.023972815

network_body._body_endoder.seq_layers.0.weight f4 [256, 456]
000000 c4 70 85 bc fb 8b c7 bc 0d 06 5e be 45 10 9a bc
       -0.016289122 -0.02435874 -0.21681996 -0.018806586
000010 b5 f0 41 bd 36 95 b3 bd b7 27 25 bc d0 1b 3f bc
       -0.047348697 -0.08768694 -0.01008027 -0.011664346
000020 b8 45 cc be 1f 30 92 bc be a3 89 bd c9 00 50 bc
       -0.3989694 -0.017845212 -0.067206845 -0.0126955
000030 9c d7 2b 3d 2b 66 f8 3d 27 db 21 bd 32 81 00 bb
       0.041953668 0.12128862 -0.03951564 -0.0019608256
000040 95 37 72 be 4e f2 94 be 58 ed 8e 3d 6c c5 6f bd
       -0.23654015 -0.29091114 0.069788635 -0.058537886
000050 2b bb 65 be 4e 29 9e 3d fc 50 97 3d 51 ba ae bd
       -0.2243468 0.07722722 0.073884934 -0.08531631
000060 e1 0f c1 3d ea e5 c1 3d 82 30 6d 3c 60 0d 37 be
       0.09426857 0.09467681 0.014476897 -0.17876196
000070 b8 6d 57 be 9a 85 61 be a4 6d 43 3e 78 bb 8e bb
       -0.21037948 -0.22023621 0.19084793 -0.004355844
000080 e6 d2 06 3d b5 48 36 be f2 93 56 3d 6f 08 20 bd
       0.032915972 -0.17801173 0.052387185 -0.039070543
000090 75 ec 0a 3e 06 f3 95 bd 70 78 82 3c ab bf 42 be
       0.13566764 -0.07321744 0.01592657 -0.19018428
0000a0 97 52 c7 3d ae 3d ab 3b 0e 23 89 bd b1 16 a4 bd
       0.0973255 0.0052258587 -0.06696139 -0.080121405
0000b0 53 c1 1b be 42 db 91 3e 43 f7 74 3d 3d 7f 56 3d
       -0.15210466 0.28487593 0.05980612 0.052367438
0000c0 c9 cb 1a 3d 52 64 ae bd 67 6d 86 bd 6c 8a 12 be
       0.037792 -0.08515228 -0.065638356 -0.14310616
0000d0 e9 af 89 3d 6e c2 95 bd 25 1b d4 3d 63 87 fe bd
       0.06723005 -0.07312475 0.1035674 -0.12428167
0000e0 84 d3 8c 3d a0 5c 9e bc 7a 1e bd bc 80 da d4 3b
       0.06876281 -0.019331276 -0.023085821 0.006495774
0000f0 9a 02 2d be 10 76 83 3d 7d dc d8 3d 1b 3c 63 bd
       -0.16895524 0.06419003 0.1058893 -0.055477243
000100 69 03 e0 3d 15 7b 75 bd 2b d9 29 3d 23 5c 8b bc
       0.109381504 -0.059931833 0.041466873 -0.017011708
000110 83 dc 96 be c5 17 d4 bd 32 85 ad 3b d7 67 39 be
       -0.29465112 -0.10356096 0.005295419 -0.18106018
000120 b2 4b bb bd 13 e5 b8 3d f6 14 8e be 28 05 82 bd
       -0.09145297 0.090280674 -0.27750367 -0.0634864
000130 49 a8 b6 bd 1b 5d 27 be 1a 97 b7 3d 22 18 83 3d
       -0.089188166 -0.1634411 0.08964367 0.06401087
000140 c2 31 42 be c5 46 36 3b 13 32 16 be 89 aa c6 be
       -0.18964294 0.0027813178 -0.1466754 -0.38801983
000150 bf 16 2a 3c 8b d4 7b 3d dd c0 17 be 83 62 d2 bd
       0.0103814 0.061481994 -0.14819665 -0.10272696
000160 96 ed 54 be 2d d4 5c be ec 5d ae 3d 2d a1 06 3b
       -0.20793757 -0.21565314 0.08514008 0.0020542846
000170 13 33 40 bd 45 55 f4 bc b9 b1 dd bd c0 4b c0 bd
       -0.04692371 -0.029825816 -0.108249135 -0.09389448
000180 11 62 28 3e fa b3 0d be 81 0f af bd 0e 0b e4 bc
       0.1644366 -0.13838187 -0.08547879 -0.027837303
000190 e9 f6 c8 3d 09 6e b4 bd f9 60 e8 3d 61 34 24 be
       0.098127194 -0.0881005 0.11346621 -0.16035606
0001a0 6e 53 c3 3c 3a 78 01 bd 13 44 f4 bc 44 09 83 bd
       0.023843493 -0.031608798 -0.029817617 -0.06398252
0001b0 f8 44 93 3d c9 15 be 3c 06 0c 4c 3d e3 40 23 3d
       0.07190889 0.023203747 0.049816154 0.039856803
0001c0 0d 9c 47 be 0c c2 dd bd ca 1e 0a 3e a6 92 e9 bd
       -0.19493122 -0.10828027 0.13488308 -0.11404924
0001d0 b7 b7 ca bd 3e 30 4b be cd 1c 1a be 36 cb 5d be
       -0.09898322 -0.19842622 -0.15050049 -0.2165955
0001e0 e6 9c ea 3d 3b 8f 8a bd 81 0c fa bb 8e 1c 97 3e
       0.11455707 -0.067656 -0.007630885 0.29513973
0001f0 d7 2c 48 be 3f 2b 81 bd 5c f9 ee 3c c1 b2 3c 3d
       -0.19548355 -0.06307077 0.029171638 0.04606891
000200 a0 63 ce bd 7d 96 71 be 70 5d 52 3c 3e ca b7 bd
       -0.10077596 -0.23592563 0.01283966 -0.089741215
000210 c8 6d 6b 3c 8e e1 0a bd ee 1e bc bd fa fd 18 be
       0.014369436 -0.033906512 -0.09185587 -0.14940634
000220 07 41 d4 bb e0 c0 85 be 38 45 c0 bd f0 83 66 3d
       -0.0064774784 -0.26123714 -0.093882024 0.05627817
000230 4f f0 83 be 0d 24 18 be 63 46 b4 3d 3e a6 8b 3c
       -0.25769278 -0.14857502 0.08802488 0.017047044
000240 6f 96 c4 3d fb 2d 27 bc 2c f7 49 be 16 6c 95 bd
       0.095990054 -0.010203834 -0.19723195 -0.072960064
000250 09 9e 64 be 50 a1 3d be 7a 4f 96 3c d6 a0 d3 bd
       -0.2232591 -0.18518567 0.018348444 -0.103334114
000260 c1 95 5e be 52 db c3 3b e3 ba 14 3b 36 d7 4e bc
       -0.21736814 0.0059770728 0.00226944 -0.0126245525
000270 d2 83 ca 3d 83 94 a5 bd 2c f4 ed bd 05 da d5 3d
       0.09888424 -0.08084967 -0.11618838 0.104419746
000280 d9 f8 6c bd f1 70 54 be 00 20 19 3e 3f 36 2c 3c
       -0.057854507 -0.20746209 0.14953613 0.01051098
000290 59 7a 82 be 6f ea cc 3a 26 0f 8e bd b9 4c 09 3d
       -0.2548397 0.0015633831 -0.06936483 0.033520434
0002a0 8d fc 8d 3d 7d b5 34 3d f9 d7 37 bd 4b c7 c6 bd
       0.06932936 0.044118393 -0.044883702 -0.09705981
0002b0 f8 24 7a be 59 81 34 be 12 3f 8f 3d bb aa 8f 3c
       -0.24428165 -0.17627467 0.069944516 0.017537465
0002c0 a6 6c 5b 3e ea bd 31 3e ce af 58 be 12 c0 8d bd
       0.21428165 0.17357603 -0.21160814 -0.069214
0002d0 cc f3 c1 3c 3a 38 41 3c 38 16 73 bd e7 35 4f bd
       0.023675822 0.011793191 -0.05934736 -0.050588515
0002e0 5f e2 2b be 48 eb 80 be e4 ec b8 3d 5b 2c 08 be
       -0.16785572 -0.25179505 0.09029558 -0.1329817
0002f0 25 ae 2f be a1 b5 7c 3e f9 8c 66 be a4 a5 e9 3b
       -0.17156275 0.24678661 -0.22514714 0.0071303416
000300 96 b8 69 3a b6 00 13 be f0 7f d7 3d 85 3c 50 bd
       0.000891575 -0.1435574 0.10522449 -0.050838966
000310 2d b9 c3 3c 6e d2 50 bd d6 d0 ec bc ef 7b 5c 3d
       0.02389201 -0.05098193 -0.028908174 0.05382913
000320 dc 23 73 be 4c c3 c6 be 49 00 2c bd 38 93 2d be
       -0.23744148 -0.38820875 -0.04199246 -0.16950691
000330 38 d7 35 bd d9 bf f6 3d 88 8c 02 be 94 36 a8 bb
       -0.0443947 0.12048311 -0.12748921 -0.0051334593
000340 c7 60 c5 bd 01 ac e9 bd e8 cb 88 bc a8 36 8f 3d
       -0.096375994 -0.1140976 -0.016698793 0.06992847
000350 63 eb 96 be 9f 70 a0 bd 57 d2 18 bd 45 e6 ca bd
       -0.2947646 -0.07833981 -0.03730997 -0.09907202
000360 e2 6e 59 3d c4 fd 1f bd 9c 4f 5a be d8 fa eb 3d
       0.05308426 -0.03906037 -0.21319431 0.11522454
000370 9c 27 93 bb 64 0c c0 3c 97 06 17 3c e4 30 00 3d
       -0.004490806 0.023443408 0.00921788 0.031296626
000380 f6 3f 29 be ab 0d 85 3d c4 ef c9 bd d5 53 54 be
       -0.16528305 0.064967476 -0.09860185 -0.20735104
000390 e5 db 16 3c 69 d7 e5 bd 1b b9 5a be 32 95 4a 3e
       0.0092077 -0.11222727 -0.21359675 0.19783476
0003a0 b2 b0 81 3d 08 a7 a8 3d 2a 87 d6 3d d6 9e 30 bd
       0.0633253 0.08234984 0.10474999 -0.043120228
0003b0 6c 81 2e bd 6a b9 3b bd 2e ee 92 be 2f 24 84 be
       -0.042603895 -0.04583112 -0.28697342 -0.25808856
0003c0 de 80 96 bd 27 4a 52 be 2c d6 1d be fa 1e 4f 3e
       -0.07348798 -0.205361 -0.15413731 0.2022666
0003d0 cc bd 17 be ec 68 13 3d 66 2e c3 bd 03 1d 5a 3d
       -0.14818496 0.035988733 -0.09530334 0.053250324
0003e0 d4 8f 97 3e 08 6b 0a bc 44 f5 8a 3a 6a be f5 bc
       0.2960192 -0.00844837 0.0010601659 -0.029998023
0003f0 d2 d9 43 3e 98 34 ef bd e2 38 3d be 45 08 0e be
       0.1912606 -0.11679953 -0.1847873 -0.13870342

network_body._body_endoder.seq_layers.2.bias f4 [256]
000000 6d eb a1 bd 0b 33 06 3d e9 a4 02 be 4d b6 9c bd
       -0.07906232 0.032763522 -0.1275822 -0.076519586
000010 c7 bf 7f bd 7f 3a ca 3c 16 af 85 bd 5d a6 14 bc
       -0.062438753 0.024686096 -0.065275356 -0.009072867
000020 d5 7f 3b bd 9d 4c d5 bd 08 bb ce bc 6c 59 f8 bc
       -0.045776207 -0.104150034 -0.025235668 -0.030316077
000030 84 3b d7 bc 31 8d b4 bd 68 26 94 bd ad 23 9c bd
       -0.026273496 -0.088159926 -0.07233888 -0.07623992
000040 18 96 dd bd 11 cb f5 3c 4f 85 d0 3c e8 49 8a 3b
       -0.10819644 0.030004056 0.025454191 0.004220236
000050 d3 33 b6 bd 69 14 91 bc 80 0d 47 be 99 d1 7e bd
       -0.088966034 -0.017709928 -0.19438744 -0.062211607
000060 da 62 43 bd 80 2a 32 bd 6b 2d e6 bd 13 c4 30 bd
       -0.047701694 -0.043497562 -0.112391315 -0.04315574
000070 4e 85 39 bc 88 30 e8 bc e6 d9 ff bd 9d 3b 81 bd
       -0.011323286 -0.028343454 -0.12492733 -0.063101985
000080 41 d3 43 be ad 29 33 be c5 64 17 bd 86 55 47 bc
       -0.19123556 -0.17496367 -0.036961336 -0.0121663865
000090 bb d6 27 be fa 91 2e 3c 2b 69 a8 bd 13 4f 25 ba
       -0.16390507 0.010654921 -0.08223184 -0.00063060335
0000a0 99 30 ee bc 73 e1 be bd 41 ee 6c be 3f a3 2a be
       -0.029075908 -0.09320345 -0.23137762 -0.16663836
0000b0 e1 60 4e bd f6 a5 f1 3c 6b 75 8f bc c4 db 00 be
       -0.05038536 0.029498082 -0.017512044 -0.12583834
0000c0 a0 66 77 3c 15 dc 0c be 3f 83 8c bd 06 27 ef bd
       0.015100151 -0.1375583 -0.06860971 -0.11677365
0000d0 29 85 c5 bc 8c fa 10 bd 0e 98 59 3d 5a f5 39 3d
       -0.024111347 -0.03539519 0.053123526 0.0454
0000e0 d6 97 ac bd 06 6e 45 be 3b fe a7 bd e8 39 38 bc
       -0.08427398 -0.19280252 -0.082027875 -0.011244275
0000f0 bb d5 a2 bd 3a a6 cf bd 8b 7a 04 be f7 d7 8e bd
       -0.07950922 -0.10139127 -0.12937371 -0.06974786
000100 7f fd 0f be 83 81 49 be 11 6a 05 be ee 97 fc bc
       -0.14061545 -0.19678311 -0.13028742 -0.030834164
000110 bc 42 f8 bd 6a d7 32 be b8 48 24 be 5f 6b a2 bd
       -0.121221036 -0.17464986 -0.16043365 -0.07930636
000120 b9 63 4b 3c 30 4f 68 bc 19 c3 f0 bd d9 25 0a 3d
       0.012413912 -0.014179036 -0.11755962 0.0337275
000130 07 6c 57 3d c1 4b 08 be a1 8f bd bd d2 f2 7a bd
       0.052593257 -0.13310148 -0.09255911 -0.061266728
000140 98 56 93 bc 69 d5 3e bd 09 88 15 bd c9 a3 80 be
       -0.017985627 -0.046590243 -0.036506686 -0.25124958
000150 cf 94 15 be c1 20 53 bd f1 8a d2 3c 2a 27 fc bd
       -0.14607547 -0.05154491 0.025701018 -0.123121575
000160 74 93 18 bd ba 27 29 be d4 d8 67 be b6 e6 fc bd
       -0.037249997 -0.1651906 -0.22641307 -0.12348692
000170 1c ee 25 be 2a 49 a0 bd 43 82 05 be f8 ef d9 bd
       -0.16204113 -0.07826455 -0.13037972 -0.106414735
000180 a3 54 99 bd 95 05 a2 bd f0 19 32 bd 09 e7 7d bd
       -0.07486846 -0.07911221 -0.043481767 -0.06198791
000190 bd 5c 50 3c 04 8c 18 be 42 91 87 bd 68 43 ef bd
       0.012717423 -0.14897162 -0.066195026 -0.116827786
0001a0 d2 60 17 be 7c de 88 bc 76 db c6 bd 0f c1 6b bc
       -0.14783028 -0.016707651 -0.097098276 -0.0143892905
0001b0 09 32 a0 3c 76 35 79 3c 3b c9 48 3c ae a6 32 bd
       0.019555109 0.0152105 0.012255008 -0.04361599
0001c0 06 a8 78 be cc c6 12 bd 59 90 df bd 48 03 4c be
       -0.24282846 -0.03583412 -0.10916204 -0.19923127
0001d0 4f 5f 39 bc 8b 8b 3d be 73 24 01 be 62 07 1c be
       -0.011314227 -0.18510263 -0.1261156 -0.15237191
0001e0 15 cc 48 bd 84 0e 2f be 33 fd fd bd ec d6 5d be
       -0.049022753 -0.17095381 -0.124018095 -0.21664017
0001f0 a7 fb 3a 3d e3 2b bb bd 7b c8 91 bd 99 eb 30 bd
       0.04565015 -0.0913923 -0.07118317 -0.043193433
000200 ee 96 e9 bd 9b 05 fc bd 8c a9 5c bd ef 4d 00 bd
       -0.11405741 -0.12305757 -0.05387263 -0.031324323
000210 e8 1d 02 be a5 77 db 3d be 32 f1 bd 23 fe a2 bc
       -0.12706721 0.1071618 -0.117772564 -0.019896572
000220 74 d6 04 be 58 05 69 bd 39 d6 43 be 0c 54 92 bd
       -0.12972432 -0.05688986 -0.19124688 -0.07144937
000230 bf 6c 2a 3d 86 ce 2d 3d 88 d9 fd bb b2 d1 45 be
       0.041607615 0.042433284 -0.007746879 -0.19318274
000240 d0 c4 d6 bd 96 68 f8 bd 1e ef 25 bd 84 44 35 bd
       -0.10486758 -0.12129323 -0.040511243 -0.044254795
000250 59 df 30 bd 08 30 28 3c 19 7e 2b be 99 00 21 3d
       -0.04318175 0.010265358 -0.16747321 0.03930721
000260 2a 4f 5b bd 98 32 2d be a6 8d c6 3a d3 75 01 bd
       -0.053542294 -0.16913831 0.0015148416 -0.031606507
000270 ab af 55 be fd e2 9a bd 19 d8 e0 bd 51 90 fb bd
       -0.20867793 -0.07562826 -0.10978717 -0.122833855
000280 9e b0 0b bc ed 19 95 bd 97 c4 20 bd d6 d8 a7 bc
       -0.008525996 -0.072803356 -0.039249983 -0.020489138
000290 99 e9 29 be eb e5 b1 bc 9a 5b 97 bd 34 fe a6 bd
       -0.16593017 -0.021716079 -0.073905185 -0.08153954
0002a0 23 9b fb 3c 12 a6 11 be ab 9d 98 bd 67 e1 36 be
       0.030713623 -0.14223507 -0.07451948 -0.17859422
0002b0 8b 3b e7 bc 48 0d 94 bd 53 3b ed bd 2c 42 14 bd
       -0.028226634 -0.07229096 -0.11583581 -0.03619592
0002c0 ae e7 ec bd 08 de a5 bd 07 66 c9 bd b8 ad d3 bc
       -0.11567627 -0.0809899 -0.09833913 -0.025839671
0002d0 e3 e5 cc bd 05 1d 47 be dd 9f 65 bd c5 f9 1b be
       -0.10004785 -0.19444664 -0.05606066 -0.15231998
0002e0 32 58 fc 3c f6 98 21 bd ef 5a 13 be 1e 2e 8e bd
       0.030803774 -0.039452516 -0.14390157 -0.0694239
0002f0 77 02 03 be f8 80 b2 bc fb dd b4 bd aa 11 ed bd
       -0.12793909 -0.021790013 -0.08831402 -0.11575635
000300 53 08 c8 bd f4 36 e5 bd 03 a7 e8 bd a2 53 bc 3c
       -0.09767213 -0.11192122 -0.1135998 0.022989098
000310 bc 92 b6 3a 3e e3 2c be a3 b0 f8 bd 56 fa 8a 3d
       0.0013929228 -0.16883561 -0.12143066 0.06786029
000320 61 ea 5c bd 7e f9 08 be 3a dc d7 bd ee 50 19 3d
       -0.05393446 -0.13376424 -0.10540052 0.037430696
000330 97 d5 80 bc 9a 91 1f be 3c ba 5d bd 6c b5 fd 3c
       -0.015726848 -0.15582886 -0.054132685 0.030970298
000340 1c 01 15 bd 7a 1b 27 bd b2 34 7a bd 83 5b de bd
       -0.03637801 -0.040797688 -0.06108541 -0.10857298
000350 ea 21 02 bd 9d 14 9b bc 12 57 9b bd 65 e8 90 bd
       -0.031770624 -0.018930728 -0.07584967 -0.07075576
000360 1d 7b 08 be a9 89 26 bd 1a c9 55 3b 59 57 78 bd
       -0.13328214 -0.040658627 0.0032621087 -0.060630176
000370 f0 5d bf bd 62 22 b1 bc 3e c9 04 be 58 f7 8d 3b
       -0.09344089 -0.02162284 -0.12967393 0.004332464
000380 f7 62 02 3c e6 16 83 3d 48 55 e0 bd b6 11 bc bd
       0.007958165 0.06400852 -0.10953766 -0.091830656
000390 1a 8f 47 bd 66 99 b7 bc 69 22 84 bd 22 96 55 bd
       -0.048720457 -0.022412013 -0.06451876 -0.05214513
0003a0 d8 fd 45 bd 58 87 50 bb 73 9e 21 be 97 c5 d1 bd
       -0.048337787 -0.0031818952 -0.157831 -0.102427654
0003b0 c2 75 d0 bd 1f 9b 1c be 6e 38 08 bb e4 ab 0e 3b
       -0.101787105 -0.15293549 -0.0020785588 0.0021769935
0003c0 92 55 c9 bd 4f 32 a3 3c 07 8e e8 bd cd 7a f1 3c
       -0.09830774 0.01992145 -0.113552146 0.029477501
0003d0 c1 20 1b be 62 07 ac bd ee 04 ed 3a 39 f9 05 be
       -0.15149213 -0.08399846 0.0018083134 -0.13083352
0003e0 e3 cc b7 bd 85 74 11 3c e2 16 48 bd eb 65 81 bc
       -0.08974626 0.008877878 -0.048849948 -0.015795669
0003f0 0f 9a 82 bd 1b e0 b2 bd 16 55 64 bd 52 3c c8 bd
       -0.063770406 -0.08734151 -0.055745207 -0.0977713

network_body._body_endoder.seq_layers.2.weight f4 [256, 256]
000000 fe c2 01 3e 72 7a 60 3d b9 6d c9 3d e8 5c f6 3c
       0.1267204 0.054804273 0.09835381 0.030073598
000010 b8 07 fb bd 0d 12 d3 3d 3f 57 17 3d 57 3e 24 3e
       -0.122573316 0.10306177 0.03694844 0.16039406
000020 87 30 f3 3b 6c 48 76 3d a9 75 b4 ba 6c e8 8d 3d
       0.0074215564 0.06012766 -0.0013767976 0.069290966
000030 ec 67 86 3d 75 32 29 bd 19 c1 17 3e 81 1a 7a 3d
       0.0656279 -0.041307885 0.14819755 0.061060432
000040 da e7 bd 3d a6 51 84 bd d8 b7 2c be 1d 64 e2 3b
       0.09272738 -0.06460886 -0.16867006 0.006908907
000050 4a 14 51 bd 2c 26 00 3e 96 26 a8 3c 98 f0 16 3b
       -0.05104474 0.12514561 0.020526212 0.0023031589
000060 ec b6 a9 3d 4d b6 96 3e bf ce fc 3d bc 44 8c 3d
       0.08286843 0.2943596 0.12344121 0.068490475
000070 90 43 38 3e c4 ae de 3d c0 6d ad 3d 3e cb 3c be
       0.17994523 0.10873178 0.08468199 -0.18436906
000080 eb 1d 7d 3d d7 ba 01 be f8 95 fc 3a 62 0d 11 3e
       0.06179611 -0.1266893 0.0019270768 0.14165261
000090 0d bd 92 3d 8e f6 bc bd d4 e2 05 3d 61 32 18 3e
       0.07164965 -0.09226714 0.032687023 0.14862968
0000a0 cd 36 16 3e 3f 2f 9d be 08 d3 5a 3d 69 03 8c 3c
       0.14669342 -0.30700108 0.05342391 0.01709147
0000b0 1f 4b 15 be 6c cf b1 bd 72 d7 0e be d8 07 a0 bd
       -0.14579438 -0.08682141 -0.13949373 -0.07813996
0000c0 b5 12 dd 3d c1 f6 2d be 23 dd 33 3e 60 72 a0 bd
       0.10794584 -0.1698866 0.17564826 -0.07834315
0000d0 3e 9b ad bd 7b 12 84 bd c9 34 79 be bb 00 6f bc
       -0.08476876 -0.06448837 -0.24336542 -0.0145875765
0000e0 0d 71 5d bd bb 3c fa 3d a5 db 2e 3d 38 37 3d 3d
       -0.05406289 0.12218615 0.042689938 0.04619524
0000f0 4c f3 2d be d4 27 a0 bd af 4a 53 3c 8a e0 3c be
       -0.16987342 -0.078200966 0.012896224 -0.1844503
000100 19 98 45 bd 11 db 9f 3d 97 3a 19 3e e2 ea b0 3d
       -0.048240755 0.078054555 0.14963757 0.0863855
000110 47 7a ba bb 01 d7 7e be bb c4 00 bd 31 c7 cc 3d
       -0.005690846 -0.24886705 -0.031437617 0.0999893
000120 7e 57 d8 3d f8 ce 3f bb 94 fb 25 be e1 e3 ff 3d
       0.10563563 -0.002926765 -0.1620925 0.12494636
000130 1f 72 a5 bd 22 e3 d6 3c fb 94 d9 3c cf d2 71 3e
       -0.080784075 0.026231352 0.026560297 0.23615573
000140 6f 32 cd 3d 9e 7c 3b 3e b2 6b 06 3d b9 24 f6 bc
       0.10019385 0.18309256 0.03281755 -0.030046808
000150 98 5a c2 3d 17 25 59 bd 3b 2c 32 3d f6 92 ec 3d
       0.09489936 -0.053013887 0.043499213 0.11551468
000160 d7 44 59 3d 9f 77 1e be ed 77 f8 bd 45 ff 12 be
       0.053044166 -0.1547532 -0.12132249 -0.1435519
000170 51 cd 38 be fa d0 39 bd 00 8d e8 3c b1 5e 8b bd
       -0.18047072 -0.04536531 0.028387547 -0.0680517
000180 70 89 46 3d 2a d3 79 be fb ae 6d bb a3 ec 83 bd
       0.048470914 -0.24396959 -0.0036267627 -0.06441619
000190 43 3b 1e be f3 2b 9c 3d 9d 12 ea 3d a3 9c ea 3c
       -0.15452294 0.0762557 0.114293315 0.028639143
0001a0 65 4b 92 bd c6 27 a3 bd 05 58 cd bd 96 ff 98 bd
       -0.071432866 -0.079665706 -0.10026554 -0.07470624
0001b0 15 fc 87 3e 5d 82 96 3d 22 c2 99 be cc 30 23 be
       0.2655951 0.073490836 -0.30030924 -0.15936583
0001c0 4e d1 a3 bd 14 51 27 3e 5f cb e0 bd 0a e1 e7 3d
       -0.07998906 0.16339523 -0.1097629 0.1132222
0001d0 ff b8 9f 3c b9 37 9f bd 28 c8 5f bc c1 b4 9d 3d
       0.019497393 -0.077743 -0.013658561 0.07700492
0001e0 36 b5 8c bd 8a 75 0c 3c 2b 98 0d 3c 64 b2 c9 3d
       -0.06870501 0.008572945 0.008642237 0.098484784
0001f0 ab 88 7b 3c ad a4 b0 3c f8 e8 a5 3d 84 94 5a bd
       0.015352408 0.021562899 0.08101076 -0.05336429
000200 c5 a4 5d 3d bb 70 a6 3e fd db 09 3e 06 50 96 bd
       0.054112215 0.32507882 0.13462825 -0.07339482
000210 a0 98 5c bb b1 10 80 3d 68 b0 f2 3d 7e 7f 24 3e
       -0.0033660308 0.06253184 0.11850053 0.1606426
000220 39 dc 29 bd c4 88 02 be dd bd 8a 3d 43 40 c5 bd
       -0.041469786 -0.12747484 0.06774495 -0.096313976
000230 01 9a e3 3d e5 99 46 3e 95 04 ef 3d 84 b1 bb bd
       0.11113358 0.19394644 0.11670796 -0.09164718
000240 a8 83 db 3d 31 6b 86 3e 72 d8 65 bc 7c 0f 07 3e
       0.10718471 0.26253656 -0.014028655 0.131895
000250 f7 10 a2 bb b0 d0 02 bb bc 6c aa bd a2 6d 30 bd
       -0.00494587 -0.0019960813 -0.08321521 -0.043073304
000260 e6 70 57 bd fe 9c 1f bc 46 ff 4b 3d 0a 2f 04 be
       -0.052597903 -0.00974202 0.049803995 -0.12908569
000270 ff 1f 60 bd 6a f8 10 3d 05 ce af 3d 1e f5 24 bd
       -0.054718014 0.035393156 0.08584217 -0.040272824
000280 e3 50 83 3d 04 2d de 3c c6 b5 7f be 33 c8 e2 3d
       0.06411912 0.027121074 -0.24971685 0.11073341
000290 0a ec 2b 3d bc 4c d6 bd 4d 67 73 bd 0d d2 08 3e
       0.04197315 -0.10463855 -0.059424687 0.13361378
0002a0 42 ec da bd 06 15 a3 bd 8c ee 0c 3e 5e 30 84 be
       -0.10689594 -0.07962994 0.13762873 -0.2581815
0002b0 2e c0 f6 3b a1 ef d2 3c 37 64 03 3d 56 e1 ae 3d
       0.007530234 0.02574903 0.032077994 0.08539073
0002c0 78 f7 f2 bd 06 fc 82 bb 5b f5 d5 3d e8 88 84 bb
       -0.11863607 -0.0039973287 0.104471885 -0.004044641
0002d0 29 18 27 3d 9b 08 0c bd 71 8c 2a bd 93 08 0c 3e
       0.040794525 -0.034187894 -0.04163784 0.13675146
0002e0 58 4d a6 bd ad 13 27 be 3a 5a 61 3e 85 82 fc 3d
       -0.08120221 -0.163161 0.22007075 0.12329582
0002f0 66 4b f2 3d da 16 2d bd 5c f8 0c 3e ce 7e 70 be
       0.11830787 -0.04225812 0.13766617 -0.23485872
000300 b0 3b c5 bc f0 f2 c9 3c dd 69 1e 3d 29 06 30 39
       -0.024076313 0.024651974 0.038675178 0.00016786963
000310 7f 2f db bd 85 c8 90 be 3a 9f 4b bc c7 2e 5b be
       -0.107024185 -0.28277984 -0.012428099 -0.21404563
000320 40 f7 51 be b7 b9 9b be 2a 45 9c 3d b4 bc 18 bd
       -0.20504475 -0.30415127 0.076303795 -0.037289336
000330 5f f9 df bd 63 ba b3 3a fe fb 7a 3d aa 60 8b be
       -0.10936236 0.0013712164 0.061275475 -0.27222186
000340 13 57 de bd 65 c4 58 3d 24 54 a7 3d ec 4e a8 bc
       -0.10856452 0.05292167 0.081703454 -0.020545445
000350 b9 7c 84 3e 20 90 9d bd 31 f9 83 bd 09 54 4f be
       0.25876406 -0.07693505 -0.06444014 -0.202469
000360 db 58 05 be 14 ee 9b bc bc f5 81 be 17 67 91 b9
       -0.13022177 -0.019034423 -0.25382793 -0.00027733363
000370 6e e7 87 be 8e 1e 44 3e 21 0c d4 3c 2c 1e 5d 3d
       -0.26543754 0.1915228 0.02588469 0.053983852
000380 be b6 b4 bc 12 a8 d6 bd 7a 1a 91 3d 5d 1c db 3c
       -0.022059795 -0.104812756 0.07085128 0.026746923
000390 6e eb 3d be 27 ff 06 bd e5 b0 0c bd a4 13 6b bc
       -0.1854684 -0.032958176 -0.034348387 -0.014347944
0003a0 7a 01 82 3d 64 b5 26 bd 00 cf 9f bd 1c ac 92 3d
       0.06347938 -0.04070033 -0.07803154 0.071617335
0003b0 ad 5c c1 3d e2 cb 89 be 87 41 f3 3d de 05 b4 bd
       0.094415046 -0.26913363 0.11877733 -0.087901816
0003c0 df 67 80 3d fc c3 36 be 6c ab e4 bd 8f 65 ab bd
       0.06269812 -0.178482 -0.11165509 -0.0836898
0003d0 a1 75 ff 3c a9 4a f4 3d 7d 2f 2a be d1 1b 1d bd
       0.03118402 0.11928303 -0.16619678 -0.038356606
0003e0 c3 d2 87 bb 4f e8 b6 3d c8 50 ac 3d de 3a 50 bd
       -0.004144998 0.08931028 0.08413845 -0.05083739
0003f0 3d b9 0a bd 28 18 57 3e 14 b6 d8 bc a7 de 7d 3d
       -0.033868063 0.21005309 -0.02645401 0.061979916
