results/DalekRun12/DalekBehavior/DalekBehavior-18999915.onnx (onnx, 739093 bytes, 9 tensors)

action_model._discrete_distribution.branches.0.bias f4 [3]
000000 4c c9 07 be 1d d4 e3 3d 6b 43 4f 3c
       -0.13260382 0.11124442 0.012650351

action_model._discrete_distribution.branches.0.weight f4 [3, 256]
000000 72 f5 35 3d 49 80 18 3d 77 8b 1f bd ce 52 7a b9
       0.044423528 0.037231717 -0.038951363 -0.00023872705
000010 f6 3d be bc bb 92 8f bd 9a 2a e9 bc 75 d4 ae bd
       -0.023222905 -0.070104085 -0.028462697 -0.08536617
000020 24 f2 06 3d 1f 34 9a 3d d7 87 ae bb f1 16 ab bd
       0.032945767 0.075294726 -0.005326252 -0.08353985
000030 97 b7 26 3d 76 9d 88 3d ef fd 16 3d 2a 71 82 bd
       0.04070243 0.06670658 0.036863264 -0.063692406
000040 34 2f e2 3d f8 4d 42 3d f1 7c a0 ba 18 9c 03 bd
       0.110441595 0.047437638 -0.0012244267 -0.032131284
000050 ee 61 4d 3c c7 59 17 be e5 ac 82 3c 26 44 fd bc
       0.012535555 -0.14780341 0.015951583 -0.030916285
000060 0f 4b 0f 3d a1 97 4f 3c 77 5a a3 3c 80 04 5a 3d
       0.03498369 0.0126704285 0.019940598 0.053226948
000070 f8 31 95 3b 0a 08 8b bc b6 85 49 bc e0 b5 07 3e
       0.004553076 -0.016971607 -0.012299946 0.13252974
000080 9c 30 2b 3d ae 53 0a bd 10 94 54 bc 74 52 b9 bc
       0.041794404 -0.03377121 -0.012974754 -0.022622325
000090 6e c9 08 3d 80 ce 4e bb f1 b6 e2 bc 6b 1d 72 3d
       0.033395223 -0.003155619 -0.027675124 0.059110086
0000a0 bb 4c 3f bc 6a f2 a6 3c 87 7c 1f 3d 61 0c 94 3d
       -0.011676009 0.020379264 0.038937118 0.072289236
0000b0 16 76 a6 bc 0d 87 89 3d ed 68 d9 3c 4f b5 91 bd
       -0.02031998 0.06715212 0.02653929 -0.0711466
0000c0 c5 48 77 bd d9 d7 ae bc 10 0a 23 3d 4b 15 15 3e
       -0.060372133 -0.021343159 0.03980452 0.14558904
0000d0 15 5a cb 3c b0 6f 54 bb 04 2b 93 be 5e de 79 3c
       0.024823228 -0.0032415204 -0.28743756 0.01525077
0000e0 af 77 fa bc 1e b0 11 3d ec 6a 1b bd 04 92 13 bc
       -0.030574648 0.03556835 -0.037943766 -0.009006981
0000f0 06 cb 95 3d 61 a1 ea 3c 81 a2 c9 3d 24 6f 56 3c
       0.07314114 0.028641405 0.09845448 0.013088021
000100 90 31 51 3d f8 c7 22 3c 7c 77 0d 3c 9a cc 06 3e
       0.051072657 0.009935372 0.008634444 0.13163987
000110 19 74 dd 3d 13 ec b0 bc a1 17 36 bd 67 7e dd 3d
       0.108131595 -0.021596944 -0.044456128 0.10815125
000120 4f 38 3b bc fd 87 f5 bd a6 98 58 3c a5 4e 8a 3c
       -0.011426999 -0.11988828 0.013219988 0.016883204
000130 ad 6b 53 bd a0 ac d3 3a c7 c6 80 3d 55 41 3d 3d
       -0.05161636 0.0016149469 0.06287914 0.046204884
000140 c1 75 20 be bd 3c f9 3c f0 60 38 3d e5 0d 82 3d
       -0.1566992 0.03042447 0.04501432 0.063503064
000150 d2 ac 90 3c 92 e9 f3 3c 58 8f a3 ba a2 06 ea 3d
       0.017660532 0.029774461 -0.0012478633 0.11427046
000160 0c 44 0d bd 14 e2 64 3d 82 a3 b3 3c 37 93 b0 bd
       -0.034488723 0.055879667 0.021928553 -0.08621829
000170 17 14 8a 3d 46 0b 92 bd 1e 91 d9 bd 77 92 9b 3d
       0.06742113 -0.071310565 -0.10623382 0.07596295
000180 51 c3 1f be 55 71 06 3e f3 e1 e4 3c c6 60 bd bc
       -0.15601851 0.1312917 0.027939772 -0.023117434
000190 f8 d5 96 3d 1c a0 e4 3c 1f e8 94 3d 70 b0 6e 3d
       0.0736503 0.027908377 0.07270836 0.058273733
0001a0 12 ba 96 bc 64 44 8e bd 78 18 8f bd b6 c3 e0 3c
       -0.018399272 -0.06946638 -0.06987089 0.027437072
0001b0 d8 f8 16 3d 93 6a 98 3c 86 de 1a bd 21 6b ea 3c
       0.03685841 0.018605506 -0.03780987 0.028615536
0001c0 d6 84 22 3c 53 20 c6 bd 82 fe a3 3d 58 b0 43 3d
       0.009919366 -0.09674134 0.08007528 0.047775596
0001d0 9e 8e 16 3c 44 ad 23 3d d3 02 8c bc 16 22 c2 3d
       0.009189276 0.03996016 -0.01709119 0.094791576
0001e0 be ec a4 3d 44 59 3e 3d 84 12 3d 3d 60 b3 ac 3c
       0.080529675 0.04647185 0.046160236 0.021081626
0001f0 f7 16 45 3d 6d 61 ce bc a6 da 9a 3d 9d f2 72 3b
       0.048117604 -0.02519294 0.07561235 0.0037070878
000200 d9 69 03 bc 15 b5 b8 3c 7d 23 cd bd 7c fb 4c bc
       -0.0080208415 0.022547284 -0.100165345 -0.01251113
000210 5f 95 4d 3c 61 3f 8c 3c ae 9a 04 3e a2 f0 ad bd
       0.01254782 0.017120065 0.1294963 -0.08493163
000220 aa 29 1f bb 9b fe cd 3b ec 58 85 bb 97 08 df 3c
       -0.0024286308 0.006286455 -0.004069438 0.027225776
000230 d3 ed e5 bd c8 6c b0 bc 36 04 94 bc 6a 4a 85 3c
       -0.11227002 -0.021536246 -0.018068414 0.016270835
000240 dc f6 ea 3d 0e 39 91 3c 16 91 94 bd 7b 31 66 3c
       0.11472866 0.017727401 -0.072542354 0.014049883
000250 21 49 01 3d 13 c9 3f 3c 19 81 2a 3d ac 22 2f be
       0.03156388 0.011705655 0.041627023 -0.1710307
000260 0c a7 a8 bc 1a 41 3c 3d 2d ce cc 3c 80 fa 8d bd
       -0.020587467 0.045960523 0.025000656 -0.06932545
000270 34 96 ba bc 08 65 2b 3d d7 d6 82 3d db 68 b4 bd
       -0.0227767 0.041844398 0.06388634 -0.08809062
000280 4a 63 7b bd 6a 3a 44 3d 58 80 9a 3d d3 96 36 3d
       -0.061373986 0.04790727 0.07544011 0.04457743
000290 d2 7a 0e 3d 11 7e 29 bc 56 18 0f 3d 66 12 2b be
       0.0347851 -0.010344998 0.034935318 -0.16706237
0002a0 d1 12 36 bd 83 af 32 3d 35 1b 01 3d 87 b9 96 3d
       -0.04445154 0.043624412 0.031520087 0.07359605
0002b0 8b d9 50 3d 0a 3b 8f 3d a7 3d 5f 3d 7f 7b 70 bd
       0.050988715 0.06993683 0.054502156 -0.058711525
0002c0 12 eb 4d bd 9e 5f e3 3c 6c 93 ac 3c 18 00 d3 3c
       -0.05027301 0.027755555 0.02106639 0.02575688
0002d0 4c 18 6b 3d cd 9a 26 3d b0 a5 c4 3d e1 d6 0f bc
       0.05739622 0.040674973 0.09601915 -0.0087792585
0002e0 9f c7 5a 3c 54 56 94 3d 36 6c 36 3d 6f b5 8a bc
       0.013353257 0.07243028 0.04453679 -0.016932217
0002f0 5e 90 1a bc 9c 4d 92 bc 65 9f d2 bd 42 af d6 3d
       -0.009433834 -0.017859273 -0.10284308 0.104826465
000300 4a 63 84 3d 32 35 ae 3c cd b4 24 3c fd d0 b7 3c
       0.064642504 0.0212656 0.010052872 0.02243852
000310 47 6f 17 be c9 dc b3 3c fb ed fa bc f5 ff 5c 3d
       -0.14788543 0.021955865 -0.030631056 0.053955037
000320 75 e5 c1 3c 66 a2 bd 3b ac e5 b4 bb 3e 7b 13 3d
       0.023668984 0.0057871817 -0.005520543 0.036006205
000330 08 11 94 bc a2 48 66 3d de 91 08 be 23 cd cd bb
       -0.018074527 0.05622161 -0.13336894 -0.0062805577
000340 13 ee 49 bd 44 2c 69 bd 6d 0b 65 ba 5b e6 b5 3c
       -0.04929931 -0.05692698 -0.00087373593 0.022204569
000350 a5 83 4d bd 71 ab 8a bd 1e d7 92 bd fb dd 03 3d
       -0.050174374 -0.06770981 -0.071699366 0.03219412
000360 3f 94 a7 3d c0 ef 05 3e 55 f3 16 bd 06 8f bd 3d
       0.081825726 0.13079739 -0.036853153 0.09255795
000370 5b 37 ee 3d 7c 44 e8 3c b4 3b 45 bd 3b c3 85 3c
       0.11631652 0.028352968 -0.04815264 0.016328445
000380 df 95 07 3d 58 8c 89 bb 6b 99 45 bd f1 29 b1 3c
       0.033101913 -0.0041976385 -0.048242014 0.021626445
000390 1f a6 8d 3b c4 e1 40 3d 63 80 8b 3d 28 15 83 3c
       0.0043227817 0.047090307 0.06811597 0.016001299
0003a0 f9 2a bc 3d b3 2a e2 bd b8 9e 8e 3d 99 da 1d bd
       0.09187884 -0.110433005 0.06963867 -0.03853855
0003b0 30 05 24 3d 0b eb 4e 3d 58 85 00 3d 01 65 2e bd
       0.04004401 0.050517123 0.031377167 -0.042576794
0003c0 39 13 ab bc a9 46 a8 bb 17 a8 76 3d 5a 6d 57 bd
       -0.02088319 -0.0051353765 0.060218897 -0.05259452
0003d0 48 ff a3 bc a2 5d 33 bd 27 be 58 3d be 03 18 b9
       -0.020019189 -0.043790467 0.05291572 -0.00014497244
0003e0 d8 cd 68 bb a8 0a a2 bc d5 47 0a 3d cf a3 31 bd
       -0.0035523083 -0.019780472 0.03375991 -0.04336911
0003f0 02 d8 47 3d f7 0a 65 3d 15 1c cb bc 3b 43 9a ba
       0.048789985 0.05591866 -0.024793664 -0.0011769304

action_model._discrete_distribution.branches.1.bias f4 [2]
000000 38 73 48 bd 0a 73 48 3d
       -0.048938006 0.048937835

action_model._discrete_distribution.branches.1.weight f4 [2, 256]
000000 fe d6 af 3d b3 c2 55 be ca 33 61 3c 85 9d 7e 3d
       0.085859284 -0.20875053 0.013745258 0.06216194
000010 6e e4 e1 3d 11 e8 80 3d 6b ad 02 3e 9d fe 7d 3d
       0.11029898 0.06294263 0.12761466 0.062010396
000020 41 f0 3f bc 73 41 51 bd b5 d9 18 be f7 e3 7c 3c
       -0.011714996 -0.051087808 -0.14926799 0.01543521
000030 20 e5 db 3a 26 d3 01 bd a8 92 83 bd ac 8c 0a 3d
       0.0016776659 -0.031695507 -0.06424457 0.03382556
000040 aa 83 63 3c 0a 44 46 be e4 43 26 3d 34 ed fb bd
       0.013886372 -0.19361892 0.04059209 -0.12301102
000050 b1 02 0e bc 0c 4f 67 3d ad eb 0e 3e 4a 64 3b 3d
       -0.008667634 0.05647187 0.1395709 0.04574994
000060 27 6e cc bd c3 83 ce bd 94 a8 0a 3c 46 9e 6f bd
       -0.099819474 -0.10083725 0.008463044 -0.05850055
000070 25 2a e0 bd ca 18 38 bd 47 7a 22 3d 59 96 f4 3b
       -0.109455384 -0.044945516 0.039667394 0.007464212
000080 9e dd 93 3c 46 09 14 3e 48 2b 13 be b5 1f 08 3e
       0.018050011 0.14456663 -0.14371979 0.13293345
000090 d9 8d 6c 3d 4f 72 be bd 4a 3d aa 3c c5 a7 d6 bd
       0.057752464 -0.092991464 0.020781178 -0.10481218
0000a0 c0 1c b2 bd 1d 31 57 3d c5 4c fd 3c 08 d7 1c 3d
       -0.0869689 0.052537072 0.030920396 0.038291007
0000b0 b5 6b 19 3b b9 78 47 be c2 ea 01 be 6a 96 cb 3d
       0.0023410146 -0.19479646 -0.12687209 0.099407986
0000c0 c6 20 e6 3d 94 d3 f0 bb e4 57 89 3a b5 3c b8 bd
       0.1123672 -0.007349441 0.0010478464 -0.08995954
0000d0 12 33 15 bd 4c 3b e9 3c f6 07 88 3d 26 cb a8 bd
       -0.036425658 0.028470658 0.066421434 -0.082418725
0000e0 56 ee fa bd 50 ef 8f bc bf e9 88 bd e2 ea bb bd
       -0.1225249 -0.017570168 -0.066852085 -0.0917566
0000f0 61 10 b3 bd 8a 5e 37 bb d6 8e 8a bd d6 73 14 bd
       -0.087433584 -0.0027979934 -0.06765525 -0.036243282
000100 8b e8 89 3b 96 cc 83 3c e7 bc 9b 3d 35 25 a6 bd
       0.0042086295 0.016088765 0.0760439 -0.081125654
000110 89 05 bb 3d c6 5b 97 3d d4 d9 8d 3c a6 5a cb bd
       0.09131915 0.07390551 0.017315783 -0.09929399
000120 6f ee be ba 1b 83 85 3d 00 e9 21 3c d5 e0 23 be
       -0.0014566908 0.06519147 0.009882212 -0.16003735
000130 8f d1 b5 bd b0 e6 14 3d 9b fa 97 3d 2f 91 2f bd
       -0.08877861 0.036352813 0.07420846 -0.042863067
000140 9a 62 98 3d e7 29 e3 bb ac 68 00 bd 83 4c eb 3c
       0.07440682 -0.0069324854 -0.031349823 0.028723007
000150 3d 98 9e ba 25 b7 b7 bd 41 8d 2c bd 1c 9b 2f bd
       -0.0012099814 -0.08970479 -0.042126898 -0.042872533
000160 44 af 1a bc ab 6e e6 3c 5e e2 c1 3b 3e f4 eb 3d
       -0.009441201 0.028128942 0.0059168776 0.11521195
000170 7c c1 93 3d eb b0 ca 3c 76 30 1b 3d 74 d5 dd bc
       0.072146386 0.024742564 0.037888013 -0.027079321
000180 de 42 ef 3c 92 70 1b 3c d4 4a 16 bd 3b 44 41 bc
       0.02920669 0.009487288 -0.036692455 -0.011796053
000190 5b b1 d7 bd 8c 74 c2 3b d8 d0 73 bd f2 7b bf 3b
       -0.10531875 0.0059343036 -0.05952534 0.005843633
0001a0 a9 78 14 b9 e4 19 10 3e 8b c8 56 3d 6e 57 c1 bc
       -0.0001415933 0.14072376 0.052437346 -0.02360126
0001b0 3c 9d de bd 69 d3 5a bd 20 2d c7 3c 40 0d 52 be
       -0.10869834 -0.053424273 0.02431351 -0.20512867
0001c0 53 a1 b0 ba b9 7d d4 3d 2b 55 1f 3d 09 18 a3 3b
       -0.0013475813 0.10375542 0.038899582 0.0049772304
0001d0 8e b2 37 be ae f4 09 3d f8 b2 42 bb c6 f6 ec 3c
       -0.17939207 0.03368061 -0.0029708724 0.028926264
0001e0 93 e4 6a 3d 71 01 55 3c e0 b1 c3 3c 1b 08 33 bc
       0.05734689 0.013000832 0.023888528 -0.010927225
0001f0 91 87 19 bd 2f 53 a1 bc aa 62 e1 bd 1b 88 d3 3a
       -0.0374828 -0.019692985 -0.11005147 0.0016138585
000200 58 d7 e6 bb 03 0b ad bd fa e5 12 bd 10 44 4b 3d
       -0.007044714 -0.08449366 -0.035863854 0.049625456
000210 c3 62 06 3e 5b 32 30 be 90 2f 2d 3d 36 86 c0 3d
       0.13123612 -0.17206709 0.042281687 0.09400599
000220 40 36 43 3d b8 9d 33 bd 5b 78 72 3d 20 49 02 3e
       0.04765916 -0.043851584 0.05919681 0.12723207
000230 84 25 d4 bd 91 5f a0 bd ec 7c ac bd f1 1a 24 3d
       -0.10358718 -0.07830728 -0.084222645 0.040064756
000240 29 74 27 3d 86 9e 91 3d 10 9f 2f 3d 0e 2c 2c 3d
       0.040882263 0.07110314 0.042876303 0.0420342
000250 3e 14 7d bd eb e2 b0 bc 38 83 ba 3d 23 03 95 bc
       -0.061786883 -0.021592578 0.09107059 -0.018189972
000260 5a 0a 83 3c d6 46 6b 3d 10 62 87 bd be 9a 74 3d
       0.015996147 0.0574406 -0.06610501 0.059717886
000270 09 dd 62 3c 7a 90 d8 3c de 74 8e 3d 2d 39 a7 3d
       0.013846644 0.02643608 0.069558844 0.08165202
000280 39 23 83 bb 93 db 3a 3d fd cc a0 bb 49 d5 46 bc
       -0.0040020016 0.04561956 -0.004907249 -0.012135812
000290 22 59 b2 3d 84 66 32 bd e9 b2 47 bd b9 b5 e9 3c
       0.08708407 -0.043554798 -0.048754606 0.028529035
0002a0 78 12 30 be 02 02 39 3c 21 c3 94 bd 85 44 11 3d
       -0.17194545 0.011291983 -0.072637804 0.035465736
0002b0 f5 63 33 bc 93 0a 12 bd 2c 35 a9 3c 8a 92 f1 3c
       -0.010949125 -0.035654616 0.020655237 0.02948882
0002c0 64 54 ee 3d fa 61 42 bd 51 d9 26 bc 8e 15 0b be
       0.1163719 -0.04745672 -0.010183648 -0.13582441
0002d0 d5 75 3b bd fc d6 46 3d d8 b2 0e 3d c7 ba 3d 3d
       -0.04576667 0.04854487 0.034838527 0.046320703
0002e0 90 d1 b3 bd 57 72 bb bc 90 9e 7c bb 62 5d 1e 3d
       -0.08780205 -0.02288167 -0.003854666 0.038663276
0002f0 05 e4 a6 3c ee 62 4c bd bf af b5 3d 94 16 3d 3d
       0.0203724 -0.049899034 0.088714115 0.04616411
000300 80 8f 02 be 35 37 20 3c 94 7a 4c bd 98 83 88 bd
       -0.12750053 0.009778787 -0.049921587 -0.066657245
000310 4c a4 0e 3e ff 72 1b 3c 5b 8f b4 3c bf 67 95 bd
       0.13929862 0.009487866 0.022041013 -0.072951786
000320 c8 62 18 be dd 7a 57 bd 96 83 9d 3c d3 02 b6 bd
       -0.14881432 -0.052607406 0.019227784 -0.088872574
000330 06 1f 67 bb 50 6f 8d 3c ab cd a5 3d 12 bc b5 bd
       -0.0035266294 0.017264992 0.08095869 -0.08873762
000340 31 ef c8 3c b1 36 2f 3d c3 b9 6b 3b 37 1b e2 3d
       0.024528118 0.042776767 0.0035968877 0.11040347
000350 ca 38 06 3e e2 50 a6 bc 59 44 63 3c a0 6c de bc
       0.13107601 -0.02030224 0.013871276 -0.027151406
000360 c7 9a 25 3d de 24 05 bd 2c 5c 02 bc 26 2a b1 3c
       0.04043081 -0.032505862 -0.007956546 0.021626543
000370 1d fc 82 3c e8 c9 b1 bd 8c 0b ff 3c a5 8a c0 bd
       0.015989358 -0.08681089 0.031133436 -0.09401444
000380 39 76 c1 bd 53 bd f1 bd c7 de 4a 3d 21 80 43 bc
       -0.09446377 -0.11803689 0.049528863 -0.011932404
000390 09 e5 a0 bc 84 f9 52 3c 71 72 c1 3d 1e 5a a3 bd
       -0.019640462 0.012876872 0.09445656 -0.07976173
0003a0 3f 91 f0 bd d8 d2 67 3d 23 24 3f 3d 0d 55 df bb
       -0.117464535 0.05659756 0.046665322 -0.0068155588
0003b0 2f 8f 8b 3d 80 d2 f1 bc 6c 9b 73 ba 07 d3 0f be
       0.068144195 -0.02951932 -0.0009292874 -0.14045344
0003c0 bd eb 33 3d b0 87 3c be 2b 4c 9d 3b 73 25 87 bc
       0.04392599 -0.18411136 0.0048003397 -0.01649735
0003d0 e9 c0 92 3c 3f c9 5c bc 95 75 45 be 74 cb 8d bd
       0.017914252 -0.013475715 -0.19283135 -0.06923571
0003e0 2c 5b 28 bd c3 c7 89 ba 96 14 16 3d 15 b2 f1 3d
       -0.041102573 -0.0010511804 0.036640726 0.118015446
0003f0 a2 04 a8 bd 59 a9 aa 3d 33 21 3b bd e0 d2 24 3d
       -0.08204009 0.08333082 -0.045685958 0.04024017

discrete_action_output_shape f4 [1, 2]
000000 00 00 40 40 00 00 00 40
       3.0 2.0

network_body._body_endoder.seq_layers.0.bias f4 [256]
000000 8e c0 35 bd 1f 38 33 bd e0 2b 2b bc ce 2f a0 bd
       -0.044373088 -0.043754693 -0.010447472 -0.07821618
000010 dd ac d7 bc 5c e1 34 bd ce 4b 86 bd b9 a2 8b bc
       -0.026327545 -0.044160232 -0.06557427 -0.017045366
000020 ed d6 4e bd 84 37 2c bd 01 f7 67 bd 6b 20 fe bc
       -0.050497938 -0.04204513 -0.056632046 -0.031021317
000030 16 42 e8 bb e7 6f 76 bd 18 b8 03 bd ea 73 5c bd
       -0.007087956 -0.060165312 -0.032157987 -0.05382148
000040 31 41 32 bc 41 ed d5 bd 5f aa a5 ba 5e c5 a9 bb
       -0.010879801 -0.10445643 -0.0012639276 -0.0051809987
000050 7a 84 6e bd eb 2e 66 bd c6 46 2a 3d 6d 61 d1 bd
       -0.05823181 -0.05619709 0.0415714 -0.102236606
000060 18 58 ed bc f7 fd 9f bc fa 81 a9 3b 32 bf e8 bd
       -0.02897267 -0.01953028 0.005172965 -0.113645926
000070 12 f1 ad bd e1 1b 5e ba 8d 60 96 bd e2 70 0b bd
       -0.08493246 -0.0008472782 -0.07342634 -0.0340432
000080 b5 7e 1c bd fe b9 2d bc 1a 19 72 bc c1 59 03 bc
       -0.038206775 -0.010603426 -0.0147764925 -0.0080170045
000090 6a 05 6f bd 9b 96 99 bd 22 7d 90 bc 08 d2 15 be
       -0.058354773 -0.07499429 -0.017637793 -0.14630902
0000a0 93 35 75 bd ae 04 c4 bc 22 54 4a bd 22 a2 2b bd
       -0.059865545 -0.023928013 -0.04939664 -0.04190267
0000b0 eb 95 9e bd ca c5 fd bc 0a 01 8a b9 5a f9 82 bc
       -0.07743438 -0.030978102 -0.00026322185 -0.01598804
0000c0 ec 08 1c bd 84 7e 28 bd ac 71 70 bc 98 37 cc bc
       -0.038094446 -0.04113628 -0.014675539 -0.024928853
0000d0 4d f1 74 3b 74 25 12 bd e8 3e 88 3c 90 eb 11 bd
       0.0037375272 -0.03568025 0.016631559 -0.03562504
0000e0 15 ab 9a bd 32 3d 0b be e1 ec a1 bd 20 46 4b bd
       -0.075521626 -0.13597563 -0.07906509 -0.049627423
0000f0 44 4d 63 bd 84 78 0a be ab 32 be bb f3 0d a5 bd
       -0.055493608 -0.13522536 -0.00580438 -0.08059301
000100 20 1b dc bb 9f 00 bc bd ce 88 38 bd 88 43 4b bd
       -0.0067171007 -0.09179806 -0.045052342 -0.04962495
000110 c9 19 d3 3b 77 da 84 bc b3 b7 1f bd 96 d8 0a bd
       0.006442283 -0.016217453 -0.03899355 -0.03389796
000120 7e f1 49 bd d4 59 34 bc 52 9c 30 bd bc 10 91 bc
       -0.04930257 -0.011007745 -0.04311783 -0.017708175
000130 61 d7 71 bd f8 44 18 bd 7f fd af bd de 21 d7 bd
       -0.059043292 -0.03717515 -0.085932724 -0.105045065
000140 0b 23 8d bd 75 d2 62 bd 22 81 f3 bc 69 17 0d bd
       -0.068914495 -0.05537649 -0.029724661 -0.034446154
000150 a4 27 dc bc ae 40 b6 bd a6 26 44 bd 88 e9 8f bd
       -0.02687437 -0.088990554 -0.04788842 -0.070269644
000160 6c cf 90 3c de 7b ca 3c fa e2 4e 3c d5 ff 12 bd
       0.017677031 0.024717268 0.012627358 -0.03588851
000170 7a 25 8a bc 78 e1 ff bc 20 e4 3c bd 7e 69 20 be
       -0.016863573 -0.031235442 -0.046115994 -0.15665242
000180 91 b5 64 bd 21 25 e9 bc 02 c2 a8 bc c0 02 f2 bc
       -0.055837218 -0.028460087 -0.020600323 -0.029542327
000190 24 cc fe bb 13 f6 a1 bd 15 37 fb 3b cf a3 91 bd
       -0.0077758003 -0.07908263 0.0076664784 -0.07111322
0001a0 94 43 0a be 0a 3f 95 bd 2a 3c 06 bd 16 94 0b bd
       -0.13502342 -0.07287414 -0.03277222 -0.034076773
0001b0 91 70 bd bc de d6 26 bd d6 32 fc bc 7d 74 90 bc
       -0.023124965 -0.040732257 -0.03078596 -0.017633671
0001c0 f1 ec 51 bd d1 9f 3b bd 99 b2 dd bc ed fc 8d bb
       -0.051251356 -0.04580671 -0.027062701 -0.0043331296
0001d0 6d 6d 1b bd 56 e8 d2 bc b1 6d 20 bd f3 56 8c 3c
       -0.037946153 -0.025745552 -0.03916711 0.017131304
0001e0 8f 10 97 bc 75 e8 bf bd 64 de be bd b6 b8 28 bd
       -0.018440513 -0.093705095 -0.093197614 -0.04119178
0001f0 37 ba d6 bc a8 83 02 bd b9 d0 27 bd 00 6b 4b bd
       -0.026211841 -0.03186384 -0.040970538 -0.04966259
000200 d8 38 55 bc 59 25 f5 3c 4f 96 ab bc 47 24 01 bd
       -0.013014041 0.029925035 -0.020945696 -0.031528737
000210 bf e8 9d bd e5 8f 2f bd 19 fa 7a bc 52 16 4a bc
       -0.077104084 -0.042861838 -0.015318417 -0.012334423
000220 6c 4f 67 bd ac c9 cd bb a2 72 9c 3c f6 5d 3d bd
       -0.056472227 -0.0062801447 0.01909763 -0.046232186
000230 12 e0 80 bd 06 d8 0e bd d7 62 5a bd bd 37 0d bd
       -0.06292738 -0.034873985 -0.053316917 -0.034476984
000240 f6 2d 9a bd 05 84 04 bd d5 be b7 3c ae d8 51 bd
       -0.075282976 -0.032352466 0.022429863 -0.051232032
000250 5b 66 25 bd 4d f7 1f bd d3 58 31 bc 6a 79 60 bc
       -0.040380817 -0.039054204 -0.0108244 -0.013700822
000260 ec 58 5d bd 42 bf 8a bd 42 38 fc bc f0 f0 a3 bc
       -0.05403988 -0.06774761 -0.030788545 -0.020012349
000270 70 bc 59 bc 6b 6f d5 bc c0 e6 d2 bc 87 33 8e bd
       -0.013289556 -0.026054105 -0.025744796 -0.06943422
000280 da 59 2e bd b4 24 4f bd c5 a4 0d bc 07 39 20 bd
       -0.042566158 -0.050572112 -0.008645241 -0.039116886
000290 01 7b d7 bd ac f3 0f bd e2 13 ec bb 41 4e d3 bc
       -0.10521508 -0.035144493 -0.0072045187 -0.02579415
0002a0 2b 3a 8a bd af e0 23 bd a8 48 ec bc 70 bd a8 bc
       -0.06749376 -0.040009197 -0.028843239 -0.020598143
0002b0 d0 b6 3c 3c c0 9e 59 bd 65 5e 55 bc b7 ee 12 be
       0.011518195 -0.05312991 -0.013022994 -0.14348875
0002c0 ce 3d 39 bd 62 fa a9 bc 34 9d 92 bd 9f 24 a9 bd
       -0.045224957 -0.020749275 -0.0715889 -0.08258938
0002d0 43 bc 96 bc de 4a 26 bc f1 81 a9 bb 33 fc 37 bd
       -0.018400317 -0.010149686 -0.005172961 -0.04491825
0002e0 5a 1e de bc 5d 5e a7 bd 59 38 31 bd b7 33 13 bd
       -0.027114082 -0.08172295 -0.043266628 -0.03593799
0002f0 fc 71 1f be 80 21 e0 bc 05 2e 29 bd 6f d7 73 bc
       -0.15570825 -0.027359724 -0.041303653 -0.014882906
000300 8f 67 69 bc da 38 61 bd ab a9 25 bd b1 37 6f bd
       -0.014245882 -0.05498586 -0.04044501 -0.05840272
000310 e8 48 9f bc 8c 82 82 bb 4a 4c 87 bc e4 1c 8e bd
       -0.019443944 -0.0039828476 -0.01651587 -0.06939104
000320 26 c1 8d bb 61 3d 00 bd 18 91 06 bd be b8 8a bd
       -0.0043260036 -0.031308535 -0.032853216 -0.06773518
000330 18 cf bd 3b bb 7d 6d bc ea dd e8 bd 32 78 8b 3c
       0.0057925098 -0.0144953085 -0.11370452 0.017025087
000340 cb 72 5d bc 92 ad 31 bd 88 e1 eb bb 0d 3a 45 bd
       -0.013516138 -0.04337842 -0.0071985163 -0.048151065
000350 2d b8 9e bc ff d7 b6 bc fd db 46 bb 25 5c 33 bd
       -0.019374931 -0.022319792 -0.0030343526 -0.043789048
000360 56 41 94 bd bb dd 89 bc a1 72 0e bd dc 5d 7f bd
       -0.07239024 -0.016829362 -0.034777287 -0.06234537
000370 fa ee cf 3c ed 07 7f bd 3a 54 7b 3c e7 44 0a bd
       0.025382508 -0.062263418 0.015339905 -0.033757117
000380 0a b1 f5 bc f2 af 4c bd ca 77 aa bc 92 12 28 be
       -0.029991645 -0.049972482 -0.020809073 -0.16413334
000390 d0 34 34 bd be d1 4b be 54 86 a4 bc cb 1a bd bc
       -0.04399568 -0.19904229 -0.020083584 -0.023084065
0003a0 c0 6b 31 3b aa 32 f7 bc c5 26 5f bd a5 a6 d6 3b
       0.002707228 -0.030175526 -0.054480333 0.0065506273
0003b0 a6 24 25 bd 16 b1 29 bd 0f 92 83 3a af 7e 00 bd
       -0.040318154 -0.041428648 0.0010038036 -0.031370815
0003c0 07 ee a6 3b 01 79 4c bd 3e f7 e1 bd e9 86 d0 bb
       0.005094293 -0.049920086 -0.11033486 -0.006363739
0003d0 17 b2 a0 bd 14 70 33 bd 32 f4 a6 bb e0 34 95 bd
       -0.07846468 -0.043808058 -0.0050950283 -0.07285476
0003e0 a1 cc 56 bd be 6f 9f bc 7b 5c a5 bc 50 47 97 bc
       -0.052441243 -0.019462463 -0.0201857 -0.018466622
0003f0 88 7b 34 bd c9 7d fa bd 7c 67 85 bd f3 5a d3 bc
       -0.04406312 -0.12231023 -0.06513879 -0.025800204

network_body._body_endoder.seq_layers.0.weight f4 [256, 456]
000000 0d ea 56 bc 3e 78 c1 bc d9 81 5e be e2 88 ab bc
       -0.0131173255 -0.023616906 -0.2172922 -0.020939294
000010 87 b2 3e bd 45 33 b1 bd 11 15 de bb c5 ef 3c bc
       -0.046556976 -0.08652357 -0.0067774137 -0.011531775
000020 e3 25 cc be 12 06 9e bc db c5 86 bd 11 4c 38 bc
       -0.39872655 -0.019290004 -0.06580707 -0.011248604
000030 fa 66 35 3d e1 71 f9 3d 7d 97 29 bd 5c 61 87 bb
       0.04428766 0.12179924 -0.041404236 -0.004131479
000040 23 52 6f be a2 86 93 be f4 4d 92 3d 94 12 69 bd
       -0.23371176 -0.28813654 0.07143775 -0.056902483
000050 97 99 63 be 99 d6 9e 3d 2b 15 93 3d b5 97 ad bd
       -0.22226559 0.07755775 0.07181772 -0.084762014
000060 ac 34 c5 3d d7 77 c0 3d 8d d1 3e 3c b0 52 39 be
       0.09629187 0.09397858 0.0116466405 -0.18097949
000070 4f 13 56 be 49 12 5f be 26 41 45 3e 7c 0f 46 bb
       -0.20905803 -0.21784319 0.19263133 -0.0030221632
000080 42 28 07 3d 96 a3 35 be 4b e5 53 3d 7b 28 1c bd
       0.032997377 -0.17738184 0.051732343 -0.038124543
000090 0e 03 0c 3e 53 9f 94 bd f1 70 83 3c 37 8c 41 be
       0.1367304 -0.07256951 0.016045066 -0.18901144
0000a0 9e 67 cb 3d 30 fe 01 3c 58 51 89 bd 52 06 a3 bd
       0.09931873 0.007934138 -0.06704968 -0.0796019
0000b0 a7 33 1c be 54 63 92 3e 14 20 7e 3d 04 36 60 3d
       -0.15254079 0.28591406 0.06204231 0.054739013
0000c0 59 50 20 3d 68 62 af bd 7e 84 86 bd b1 44 12 be
       0.039139125 -0.085636914 -0.0656824 -0.14284016
0000d0 95 cf 8a 3d 26 fa 93 bd 15 34 d2 3d 90 19 ff bd
       0.067778744 -0.072254464 0.1026384 -0.124560475
0000e0 65 31 8d 3d b0 b4 92 bc 8f 9d bc bc 1d f3 ed 3b
       0.06894187 -0.017908424 -0.023024349 0.0072616474
0000f0 1b 77 2b be 8c 5f 7f 3d e0 79 d0 3d 9b 45 67 bd
       -0.16744654 0.06234698 0.10179496 -0.056462865
000100 ce a2 e1 3d 51 c7 70 bd 66 2a 38 3d a4 b1 8b bc
       0.11017381 -0.058783833 0.04496231 -0.01705248
000110 b5 20 98 be f0 58 d9 bd 99 df fa 3b de 97 37 be
       -0.29712453 -0.106126666 0.0076560494 -0.17929026
000120 10 70 b4 bd e3 56 b8 3d b7 8c 8e be 36 88 84 bd
       -0.08810437 0.09000947 -0.27841732 -0.06471293
000130 25 48 b7 bd b2 bc 25 be 52 34 bc 3d 5f c1 83 3d
       -0.08949307 -0.16185263 0.09189667 0.06433367
000140 13 dc 43 be ef 62 53 3a b8 21 15 be 0d 29 c6 be
       -0.1912692 0.00080637535 -0.14563644 -0.38703194
000150 17 74 3e 3c 7f cf 81 3d a5 c3 19 be b0 c6 d0 bd
       0.011624358 0.06338405 -0.15016039 -0.10194147
000160 a3 2d 57 be 02 02 5d be e0 02 b2 3d 67 2d 92 3a
       -0.21013503 -0.21582797 0.086919546 0.0011152447
000170 ea 7f 42 bd 63 e0 fc bc 88 76 d5 bd f8 71 b8 bd
       -0.04748527 -0.030868715 -0.10422999 -0.09006113
000180 c4 94 28 3e 1d 0b 0d be dd d8 ab bd e2 86 d8 bc
       0.16463 -0.1377377 -0.08390973 -0.026431505
000190 36 f9 c8 3d 10 c9 b0 bd 45 51 eb 3d 5e 42 24 be
       0.09813158 -0.086321 0.1149011 -0.16040942
0001a0 7b 65 bf 3c 24 28 ff bc 8d 80 da bc 05 18 7f bd
       0.02336382 -0.03114707 -0.026672626 -0.062278766
0001b0 66 58 92 3d 58 48 b5 3c 2f 5f 48 3d e9 39 2a 3d
       0.07145767 0.022129223 0.0489189 0.041559134
0001c0 2b 4a 48 be f1 a6 da bd 42 6c 0b 3e 18 d6 ed bd
       -0.19559543 -0.10676373 0.13615516 -0.11613101
0001d0 aa 30 c9 bd 2e 80 49 be d8 bc 16 be a2 2b 5b be
       -0.09823735 -0.19677803 -0.14720476 -0.21403363
0001e0 ce 39 ec 3d 79 f9 8a bd a4 32 08 bc d9 8b 97 3e
       0.11534463 -0.067858644 -0.008312855 0.29598883
0001f0 7b 75 47 be 4a ce 7e bd 17 4b f7 3c d0 dd 3f 3d
       -0.19478409 -0.06220845 0.030187173 0.046842396
000200 3c b5 ce bd 1c ca 71 be 86 b5 56 3c ed c3 b5 bd
       -0.100931615 -0.23612255 0.013104802 -0.088752605
000210 ee b4 97 3c d0 42 0d bd 32 ef bf bd 6b 09 1c be
       0.018518891 -0.034487545 -0.09371795 -0.15237968
000220 b1 1b cf bb b0 9e 85 be 6e 62 ba bd 67 ad 6a 3d
       -0.0063204397 -0.2609763 -0.09100805 0.057294276
000230 3b 41 84 be 33 40 19 be 90 d5 b5 3d 12 ff 96 3c
       -0.25831017 -0.14965896 0.088786244 0.018432174
000240 69 96 c9 3d e8 ba 22 bc fd ff 4a be 09 85 9a bd
       0.098431416 -0.009932257 -0.19824214 -0.07544906
000250 61 05 64 be ac 75 3d be cf 29 a0 3c 84 06 d2 bd
       -0.22267677 -0.1850192 0.019551186 -0.10255149
000260 03 ed 5d be ee 17 e5 3b 9f 3c 2f 3b 4c 1e 34 bc
       -0.21672444 0.006991378 0.0026739014 -0.010993551
000270 27 bd cc 3d 77 b4 a3 bd af 71 ec bd a6 56 da 3d
       0.099970154 -0.07993405 -0.11545121 0.10661058
000280 7f 83 62 bd 9e 02 53 be bd 88 1b 3e 4b 4b 17 3c
       -0.055301186 -0.20606467 0.1518888 0.00923426
000290 e5 b5 81 be 0d 31 0a 3b 53 6b 8c bd 45 85 12 3d
       -0.25334087 0.0021086365 -0.06856408 0.035771627
0002a0 73 17 91 3d 18 00 32 3d 9f 41 31 bd 2b f8 c7 bd
       0.07084551 0.04345712 -0.04327547 -0.09764131
0002b0 48 28 76 be 20 46 31 be 2f 95 90 3d 1b a7 8f 3c
       -0.24038804 -0.17311907 0.070597045 0.017535737
0002c0 06 74 5a 3e ce 9e 32 3e 9e a9 56 be ec e6 89 bd
       0.21333322 0.17443392 -0.20963141 -0.06733498
0002d0 a2 d8 cd 3c 23 d7 3b 3c 14 97 64 bd 08 7c 56 bd
       0.025127713 0.011464867 -0.05580814 -0.05236438
0002e0 93 d8 28 be 43 02 7f be 88 6c b9 3d 9e 33 09 be
       -0.16488867 -0.24903207 0.09053904 -0.13398597
0002f0 80 39 30 be c4 de 7d 3e 41 ab 65 be 67 7c 11 3c
       -0.17209435 0.2479201 -0.2242861 0.0088797575
000300 f6 8b 13 3b 4d 3d 13 be 33 b1 d3 3d 52 74 52 bd
       0.0022513843 -0.14378853 0.103365324 -0.051380463
000310 3f 8f cb 3c 6a 45 48 bd aa 3e d8 bc 3b e3 60 3d
       0.024848578 -0.048894323 -0.026397068 0.054904204
000320 8a 2f 73 be f2 79 c7 be 43 00 26 bd 76 00 2c be
       -0.23748603 -0.38960224 -0.040527593 -0.16797051
000330 20 c3 2a bd 32 87 f6 3d 03 f5 04 be 97 8f be bb
       -0.041689992 0.12037505 -0.1298409 -0.005815457
000340 09 bc c2 bd 1e e8 e7 bd 71 d2 74 bc 72 76 91 3d
       -0.09508521 -0.1132357 -0.014942751 0.0710267
000350 a1 d6 98 be 66 62 a2 bd d4 3f 18 bd 99 31 cc bd
       -0.2985125 -0.07928924 -0.037170246 -0.099703975
000360 84 23 60 3d 12 58 22 bd 0c 36 59 be 4c e4 ed 3d
       0.05472137 -0.03963477 -0.21212023 0.1161581
000370 87 18 b0 bb ca 05 cd 3c 63 6d 3c 3c 62 d7 02 3d
       -0.0053740176 0.025027175 0.011500689 0.031943686
000380 07 46 2b be 94 75 7e 3d 94 d9 c9 bd 75 ae 54 be
       -0.16725932 0.06212385 -0.09855953 -0.20769675
000390 a2 99 13 3c 2d f1 e6 bd e0 a5 5b be 33 41 4c 3e
       0.009008797 -0.112764694 -0.21449995 0.19946747
0003a0 d8 a3 82 3d e8 ff aa 3d 63 9c d9 3d 55 66 33 bd
       0.06378907 0.083495915 0.106255315 -0.043798763
0003b0 79 70 24 bd 1f 11 38 bd 97 0e 92 be ac 73 83 be
       -0.040146325 -0.044938203 -0.28526756 -0.25674188
0003c0 1e de 96 bd 75 8d 52 be 88 c3 1c be 3a 05 51 3e
       -0.07366584 -0.20561774 -0.15308964 0.2041215
0003d0 3d 06 18 be fc c4 16 3d 46 f6 bf bd 4c 2b 54 3d
       -0.1484613 0.036808953 -0.09373145 0.051799104
0003e0 6e 15 98 3e 5b 89 1b bc c5 aa 59 3b e7 58 e9 bc
       0.2970385 -0.009493197 0.003321336 -0.028484775
0003f0 0a c3 43 3e 49 e3 ef bd fe bb 3b be 6c b9 0c be
       0.1911737 -0.11713273 -0.18333432 -0.13742608

network_body._body_endoder.seq_layers.2.bias f4 [256]
000000 89 a9 a3 bd d6 57 0a 3d 6b e7 02 be 06 19 9a bd
       -0.07991321 0.033775173 -0.12783591 -0.07524304
000010 7a 76 81 bd 9c 4a bb 3c 81 2c 88 bd af 6d 30 bc
       -0.06321426 0.022862725 -0.066491134 -0.010768338
000020 b9 18 3d bd 7a 1b d3 bd b7 b8 cb bc 2e 81 00 bd
       -0.046166155 -0.10307975 -0.024868352 -0.031373195
000030 52 19 c7 bc ff 97 b3 bd ea 8b 92 bd 15 1b 9f bd
       -0.024304066 -0.08769225 -0.07155593 -0.07768837
000040 d6 10 dd bd c8 d0 f4 3c 64 5e c8 3c e8 1b 85 3b
       -0.10794227 0.02988471 0.024459071 0.0040621646
000050 82 df b6 bd 23 a5 a2 bc 65 12 47 be 1c 22 81 bd
       -0.089293495 -0.019854134 -0.1944061 -0.06305334
000060 14 6d 3f bd 70 b2 30 bd 36 fd e2 bd 58 14 30 bd
       -0.046734884 -0.04313892 -0.110834524 -0.04298815
000070 de dd 38 bc 0d 96 e3 bc ac a4 fd bd 9a 3e 82 bd
       -0.011283366 -0.02778151 -0.12384924 -0.063595966
000080 33 e2 41 be a6 85 34 be 1f 29 19 bd 67 b1 40 bc
       -0.18933944 -0.17629108 -0.03739273 -0.011761046
000090 16 c7 27 be 84 c8 2b 3c 00 f4 a8 bd 0d dd 06 b9
       -0.16384539 0.010484818 -0.08249664 -0.00012861584
0000a0 23 52 ec bc 05 0b c3 bd 89 2f 6d be 81 6e 29 be
       -0.02884776 -0.09523586 -0.23162664 -0.1654606
0000b0 92 fb 49 bd 74 4c eb 3c 47 ee 89 bc f0 9a 01 be
       -0.04931218 0.02872298 -0.016837252 -0.1265676
0000c0 6b be 6b 3c 62 dc 0d be f3 5a 8b bd 8a 21 ef bd
       0.014388661 -0.138536 -0.068044566 -0.11676319
0000d0 a6 84 c7 bc 22 c9 18 bd 06 c2 57 3d 95 2e 3f 3d
       -0.024355244 -0.03730119 0.05267527 0.046675283
0000e0 96 48 ab bd a7 0b 46 be 54 94 a9 bd 80 b1 37 bc
       -0.08363454 -0.19340383 -0.082802445 -0.011211753
0000f0 7e ec a8 bd e6 f7 d0 bd dd 51 06 be 5a 26 8e bd
       -0.08248232 -0.10203533 -0.13117166 -0.06940909
000100 c0 c8 0d be 28 25 4a be 9a 76 05 be f3 20 fe bc
       -0.13846111 -0.19740736 -0.13033524 -0.03102157
000110 a9 a5 f7 bd 14 e6 33 be 4c 60 26 be 3f e2 a1 bd
       -0.12092144 -0.17568237 -0.16247672 -0.07904481
000120 13 db 65 3c 2a aa 78 bc b7 ac ef bd bd 05 08 3d
       0.014029282 -0.015177289 -0.117028646 0.033208597
000130 ef b2 53 3d c5 c8 09 be a2 0f bc bd e1 34 78 bd
       0.051684316 -0.13455494 -0.09182669 -0.060597304
000140 d8 ea 9a bc e2 7c 3d bd ca ff 11 bd da 6e 80 be
       -0.01891081 -0.046261676 -0.03564433 -0.25084573
000150 d5 9c 16 be 73 d5 51 bd b2 bb db 3c 51 a8 fc bd
       -0.14708264 -0.05122895 0.026822899 -0.12336791
000160 6c 1f 1f bd eb ac 27 be 0b 1b 67 be 35 2d fd bd
       -0.038848326 -0.16374557 -0.2256891 -0.12362138
000170 8c 8c 27 be e6 7a a4 bd 24 a9 05 be a3 fd d7 bd
       -0.16362208 -0.080312535 -0.13052803 -0.10546424
000180 04 1e 99 bd 78 00 a2 bd 0d 00 32 bd c1 33 7f bd
       -0.07476428 -0.07910246 -0.04345708 -0.062305216
000190 79 4c 5f 3c c8 d7 17 be 14 f1 87 bd f5 be ed bd
       0.013629072 -0.14828408 -0.06637779 -0.11608688
0001a0 12 7f 17 be 26 72 81 bc ad 7b c3 bd d9 e8 5e bc
       -0.14794567 -0.0158015 -0.09545074 -0.01360532
0001b0 46 76 a7 3c a7 b3 71 3c fa 17 36 3c 71 72 2e bd
       0.02044214 0.014752305 0.011114115 -0.04258961
0001c0 a2 d9 79 be b0 6f 14 bd 6c 9e df bd 97 e3 4a be
       -0.24399427 -0.036239326 -0.109188884 -0.19813381
0001d0 e5 5f 44 bc b4 d6 3f be ba 53 ff bd 63 f9 1c be
       -0.011985754 -0.18734246 -0.124671414 -0.15329508
0001e0 99 64 46 bd f8 71 31 be d8 bc 00 be 71 55 5f be
       -0.04843578 -0.17328632 -0.12572038 -0.21809937
0001f0 6c 6c 37 3d 79 cf ba bd ca 47 90 bd 9b 68 30 bd
       0.044781134 -0.091216035 -0.07044943 -0.04306851
000200 f8 4e e9 bd bf 7a f9 bd d3 cf 5f bd df f7 09 bd
       -0.11392015 -0.12181615 -0.054641556 -0.033683654
000210 73 16 02 be 16 ee db 3d f5 5d f2 bd f1 15 b1 bc
       -0.12703876 0.10738771 -0.11834327 -0.021616908
000220 96 ee 05 be 27 24 6c bd c9 6f 44 be bb cc 90 bd
       -0.13079295 -0.057651665 -0.19183268 -0.07070299
000230 6c f0 2a 3d f4 a9 31 3d 26 f3 22 bc c8 ec 45 be
       0.04173319 0.04337497 -0.009945666 -0.19328606
000240 0f 6c d5 bd 41 e9 f8 bd 40 c0 31 bd 92 f6 34 bd
       -0.10421001 -0.12153865 -0.043396235 -0.04418046
000250 1f 4f 34 bd 96 df 2d 3c eb 74 2d be cf 25 1f 3d
       -0.04402077 0.010612389 -0.16939132 0.038854416
000260 fc 4e 5b bd ae b6 2c be e2 79 04 3b a9 36 02 bd
       -0.053542122 -0.16866562 0.002021425 -0.03179041
000270 49 2b 55 be f4 cb 9d bd 6f c2 e2 bd fe dc 00 be
       -0.20817293 -0.077049166 -0.110722415 -0.12584302
000280 8c 38 12 bc 9e 15 96 bd 42 5e 1b bd 92 45 9a bc
       -0.008924615 -0.07328342 -0.037931688 -0.018832002
000290 cd dd 2b be 35 18 af bc b0 66 95 bd 22 2d a6 bd
       -0.16783829 -0.021373847 -0.07294977 -0.08114077
0002a0 98 5f 00 3d a2 12 14 be 6c 53 93 bd b8 c2 38 be
       0.031341165 -0.14460233 -0.07193646 -0.1804303
0002b0 a7 8c 02 bd 85 3e 95 bd b0 a6 ee bd fc 1e 15 bd
       -0.031872418 -0.07287315 -0.11652887 -0.036406502
0002c0 69 ad f1 bd 6c 2f a9 bd 03 d1 c5 bd d3 9c d3 bc
       -0.118006535 -0.08260998 -0.096590064 -0.025831616
0002d0 bd 08 cd bd 77 40 48 be 13 5d 69 bd dd d4 1b be
       -0.10011432 -0.19555841 -0.056973528 -0.1521792
0002e0 f2 1f ea 3c f2 73 23 bd ce 2a 12 be 35 d9 8f bd
       0.028579686 -0.039905496 -0.14274141 -0.07023851
0002f0 95 f3 03 be 22 9c c1 bc f9 78 b6 bd 77 8a ec bd
       -0.12885888 -0.02363402 -0.089097925 -0.115498476
000300 58 9e c5 bd 5d c8 e7 bd 9b 14 e9 bd 71 cb ae 3c
       -0.09649342 -0.11317513 -0.11380883 0.021337243
000310 11 dc 2a 3a 65 31 2c be 65 af f6 bd 82 96 88 3d
       0.0006517778 -0.16815718 -0.120451726 0.06669332
000320 29 93 57 bd 14 30 07 be 65 44 da bd 63 45 15 3d
       -0.052630577 -0.13201934 -0.106575765 0.036443125
000330 38 1c 86 bc 6a 15 20 be 99 01 5f bd 97 e7 fa 3c
       -0.016370878 -0.15633169 -0.054444883 0.030628009
000340 f5 48 1d bd b0 f0 18 bd 76 52 76 bd b0 3e e0 bd
       -0.038399655 -0.037338912 -0.060137235 -0.10949457
000350 53 d8 f8 bc 5e 70 9f bc 6a c7 9e bd 80 80 91 bd
       -0.030376589 -0.01946276 -0.07752879 -0.071045876
000360 a2 13 07 be 8b 39 2a bd 15 36 67 3b 3b 0e 73 bd
       -0.13191083 -0.041558784 0.0035280038 -0.059339743
000370 7a ff c0 bd 37 83 ae bc 16 9d 08 be 3b c4 92 3b
       -0.09423728 -0.021302802 -0.13341174 0.004478959
000380 5d 0e fd 3b bd f9 85 3d da cf e1 bd a8 a3 bb bd
       0.0077226595 0.065417744 -0.11025973 -0.09162074
000390 0e d5 52 bd 10 99 b3 bc 16 a1 82 bd 59 a2 5c bd
       -0.051472716 -0.021923572 -0.06378381 -0.053865764
0003a0 b7 1d 47 bd 41 85 9a bb 26 29 20 be 32 66 d1 bd
       -0.048612323 -0.004715592 -0.15640697 -0.1022457
0003b0 55 cc cf bd 39 35 1a be 0a e7 35 bb f4 87 d8 3a
       -0.10146395 -0.15059365 -0.0027756118 0.0016520009
0003c0 8f 84 c7 bd f5 ae a4 3c 5e 42 e7 bd bf e9 f5 3c
       -0.097420804 0.020102957 -0.112919554 0.030018685
0003d0 fc fd 1d be be d5 ab bd 58 68 70 3b 35 75 04 be
       -0.15428919 -0.083903775 0.0036683287 -0.12935336
0003e0 44 a9 b7 bd 9a b8 23 3c b2 ed 4f bd 8b 73 81 bc
       -0.08967832 0.009992743 -0.050763793 -0.015802165
0003f0 c5 8c 81 bd 74 8e b7 bd 01 b0 68 bd 76 60 ce bd
       -0.06325678 -0.08962718 -0.056808475 -0.10076992

network_body._body_endoder.seq_layers.2.weight f4 [256, 256]
000000 da 23 02 3e 96 7a 61 3d 48 d2 c4 3d 9c 87 e8 3c
       0.12708989 0.055048548 0.096104205 0.028384976
000010 f8 32 00 be 3f 31 d2 3d bc 8d 19 3d 9f ee 23 3e
       -0.12519443 0.10263299 0.037488684 0.16008995
000020 c0 08 cd 3b 66 f6 7a 3d 7c 75 c3 3a bc f3 8a 3d
       0.0062571466 0.06127014 0.0014912332 0.0678477
000030 25 1c 85 3d f5 11 2a bd da 14 17 3e a9 16 7a 3d
       0.06499509 -0.04152103 0.14754048 0.061056767
000040 cb 67 bd 3d 6c 64 83 bd 9f b7 2b be a5 92 a7 3b
       0.092483126 -0.06415638 -0.16769265 0.005113917
000050 96 d2 4d bd 45 55 01 3e ca b8 99 3c d1 c7 36 3b
       -0.05024966 0.12630184 0.018764872 0.0027890096
000060 58 59 aa 3d 3c ef 95 3e d6 8e fb 3d 73 ce 8d 3d
       0.08317822 0.29284084 0.12283103 0.06924143
000070 44 08 38 3e b5 03 e1 3d 3b 4d ae 3d 6c 96 3d be
       0.17971903 0.10987035 0.08510824 -0.18514413
000080 3e 17 7f 3d 07 e1 02 be 5a 80 6a 3b 0b 46 11 3e
       0.062278025 -0.12781154 0.003578207 0.14186876
000090 1f 2f 92 3d b7 2e b9 bd bd e8 04 3d 3e 35 19 3e
       0.07137894 -0.09042113 0.03244852 0.14961717
0000a0 78 f6 17 3e a5 1a 9d be e6 a9 53 3d af 76 71 3c
       0.14840114 -0.3068439 0.0516757 0.014737769
0000b0 f2 7c 15 be f8 90 b2 bd 4d 74 0b be 45 57 9d bd
       -0.14598444 -0.08719057 -0.13618584 -0.07682661
0000c0 63 42 dd 3d 3e 6b 2e be f4 db 31 3e f9 f3 9f bd
       0.10803678 -0.17033097 0.17369062 -0.07810206
0000d0 47 88 ad bd 42 3f 80 bd ef 14 79 be 49 19 5b bc
       -0.084732585 -0.062620655 -0.24324392 -0.013372728
0000e0 7b 65 4d bd ba a2 fa 3d cd 5b 37 3d 57 57 30 3d
       -0.050145607 0.12238069 0.044765282 0.043052044
0000f0 ab 7e 2d be 2f 85 a3 bd b3 77 47 3c cd 51 3d be
       -0.16942851 -0.07984387 0.012174535 -0.18488236
000100 d9 59 3a bd 96 ad a0 3d 86 e6 1a 3e 1f 6d b0 3d
       -0.04549584 0.07845609 0.15127 0.08614563
000110 79 5e bc bb 08 07 80 be 6a d4 04 bd 42 ac cf 3d
       -0.0057485667 -0.25005364 -0.032429136 0.101402774
000120 5d 09 dd 3d 67 86 37 bb 28 c9 22 be 6d c2 fe 3d
       0.107928015 -0.0028003694 -0.15897048 0.124394275
000130 14 a9 a7 bd 35 fb da 3c 73 8d db 3c 73 33 72 3e
       -0.08186546 0.026731113 0.026800847 0.23652439
000140 a2 97 d0 3d 30 d0 3b 3e 74 6f 0a 3d 06 51 f7 bc
       0.10185172 0.18341136 0.033797696 -0.030190002
000150 6e 67 c5 3d 89 da 5f bd 25 a2 40 3d 46 08 ee 3d
       0.09638868 -0.05465177 0.047029633 0.11622672
000160 91 69 59 3d 9b ea 20 be 9f e8 f7 bd fa 52 14 be
       0.05307919 -0.15714495 -0.12104916 -0.14484778
000170 07 9b 38 be 40 28 35 bd de db f7 3c 57 39 8c bd
       -0.18027888 -0.04422784 0.030256208 -0.06846874
000180 55 e4 49 3d 1e b4 7a be 63 83 3f bb c0 02 84 bd
       0.04929002 -0.24482772 -0.00292226 -0.06445837
000190 ff c7 1b be 91 b7 9a 3d 6d 7b e9 3d 91 45 df 3c
       -0.15213011 0.07554544 0.11400495 0.027254852
0001a0 78 f9 92 bd 7e 86 9f bd c0 35 cb bd db 92 9c bd
       -0.07176489 -0.07789324 -0.099223614 -0.07645198
0001b0 2e a9 88 3e 01 8e 96 3d e8 53 99 be 0a 09 23 be
       0.26691574 0.07351304 -0.29946828 -0.15921417
0001c0 82 83 a1 bd 36 8e 28 3e 82 f0 e2 bd d6 4f e9 3d
       -0.07886411 0.16460499 -0.110810295 0.113921806
0001d0 33 8d 9e 3c a6 f0 9d bd 4c ec 6e bc 13 cc 9a 3d
       0.019354438 -0.07711916 -0.014582705 0.07558455
0001e0 59 39 8e bd 34 0e 10 3c c7 36 19 3c 46 76 c8 3d
       -0.06944532 0.008792449 0.009351439 0.09788184
0001f0 9e 6b 84 3c 6f 4b b7 3c 70 65 a6 3d 93 94 5c bd
       0.016164597 0.022374837 0.081248164 -0.05385263
000200 d5 a2 5c 3d 96 e3 a5 3e c5 70 0a 3e e0 53 96 bd
       0.053866226 0.32400197 0.1351958 -0.07340217
000210 75 9b 82 bb ee 47 7f 3d 14 d3 f3 3d 51 f5 24 3e
       -0.003985817 0.062324457 0.11905494 0.16109206
000220 9a e7 27 bd f1 3f 00 be 06 57 87 3d d2 a0 c0 bd
       -0.040992357 -0.12524392 0.06608395 -0.09405674
000230 66 00 e4 3d a7 0d 47 3e 04 eb ed 3d 18 ce bb bd
       0.111328885 0.19438802 0.11617091 -0.09170169
000240 44 55 db 3d 7e 5e 86 3e e5 fd 7b bc a9 7a 06 3e
       0.107096225 0.26243967 -0.015380357 0.13132729
000250 56 ea 8a bb 87 dc 39 bb 74 b2 ae bd a0 31 2a bd
       -0.004239361 -0.0028360204 -0.08530131 -0.041551232
000260 9b cb 58 bd 7d 3a 00 bc ba c5 52 3d 35 cd 01 be
       -0.05292855 -0.007826445 0.051458098 -0.12675937
000270 09 e3 65 bd aa 1c 15 3d fa 00 af 3d 1b a3 1f bd
       -0.05612472 0.03640429 0.08545108 -0.03897391
000280 4f 37 86 3d d2 af e1 3c 38 56 7f be a0 c7 da 3d
       0.06553518 0.027549658 -0.24935234 0.10682607
000290 89 e6 2a 3d 8b 7e d6 bd 30 01 72 bd d0 40 08 3e
       0.04172376 -0.10473355 -0.059083164 0.13305974
0002a0 d0 4f da bd a7 d4 a3 bd 31 4c 0e 3e 7c a7 83 be
       -0.10659754 -0.079995446 0.13896252 -0.25713718
0002b0 a1 01 f8 3b 91 59 e1 3c 6e a1 07 3d b6 a7 b0 3d
       0.0075685536 0.027508529 0.033112936 0.08625738
0002c0 4e 7b f4 bd b2 40 df bb d4 b4 d7 3d 63 73 63 bb
       -0.11937581 -0.006813132 0.10532537 -0.0034706227
0002d0 ff 1a 2b 3d f1 97 0e bd 0e 94 33 bd 4b d9 09 3e
       0.041773792 -0.03481287 -0.043842368 0.13461797
0002e0 47 c4 a4 bd d4 14 27 be 47 f7 61 3e f8 54 ff 3d
       -0.080452494 -0.16316539 0.22066985 0.124673784
0002f0 02 d5 f2 3d 61 42 2f bd 8a ca 0d 3e f5 1c 6e be
       0.11857034 -0.042787913 0.13846794 -0.23253234
000300 aa d8 b7 bc 46 1f d3 3c 0f d1 20 3d e5 09 54 39
       -0.02244218 0.025771748 0.039261874 0.00020221582
000310 0b d9 de bd 5c 2a 91 be 0e 40 4c bc 53 31 5b be
       -0.108812414 -0.2835263 -0.012466444 -0.21405534
000320 3e 9f 51 be 7c 75 9a be 32 e9 9f 3d a4 1b 1a bd
       -0.20470902 -0.30167758 0.0780815 -0.037624016
000330 a0 5d df bd e9 7b 6f 3a 16 39 7b 3d d3 d5 8c be
       -0.109065294 0.00091355905 0.06133374 -0.27506885
000340 a4 ab dd bd f1 58 54 3d f7 00 a1 3d fd 7f 9b bc
       -0.108237535 0.051842634 0.07861512 -0.018981928
000350 ca d0 83 3e 83 1e 9e bd c4 b0 84 bd 19 7d 4f be
       0.2574523 -0.077206634 -0.06479028 -0.20262565
000360 c2 2d 02 be 7b 72 8e bc ae 09 82 be 3c af 95 ba
       -0.12712768 -0.017388573 -0.2539801 -0.0011420022
000370 fa ac 87 be 00 be 44 3e 74 83 b5 3c 29 1a 63 3d
       -0.26499158 0.19213104 0.022157408 0.05544487
000380 90 3e c8 bc dc 83 d6 bd 0e 80 8f 3d 69 d5 dc 3c
       -0.024443895 -0.10474369 0.07006846 0.02695723
000390 d8 df 3b be 9a 7c 02 bd 9a 52 10 bd 51 80 5b bc
       -0.18347108 -0.03185711 -0.035235025 -0.013397292
0003a0 d2 2d 85 3d bf 4e 25 bd d5 87 9f bd 92 dd 92 3d
       0.0650288 -0.0403583 -0.0778958 0.071711674
0003b0 ae 84 c1 3d ad a7 89 be 2d ff f1 3d 37 be b4 bd
       0.09449135 -0.2688574 0.11816249 -0.08825343
0003c0 71 80 81 3d e9 10 38 be cd 12 e5 bd 4f 59 aa bd
       0.063233264 -0.179752 -0.111852266 -0.083178155
0003d0 56 1d 03 3d c5 a1 f4 3d 82 cd 29 be 72 ac 1b bd
       0.0320104 0.119449176 -0.16582301 -0.038006254
0003e0 71 b6 ba bb 93 a0 b3 3d 2a e3 a9 3d 44 7d 4c bd
       -0.0056980182 0.087708615 0.08295281 -0.04992415
0003f0 76 51 06 bd e0 d8 57 3e 32 3d de bc 42 b7 80 3d
       -0.03279253 0.21078825 -0.02712879 0.06284954
