results/DalekRun12/DalekBehavior/DalekBehavior-20000035.onnx (onnx, 739093 bytes, 9 tensors)

action_model._discrete_distribution.branches.0.bias f4 [3]
00000000: 2e0c 07be 6d2a e23d e92a 523c
-0.1318824 0.11043248 0.012827613

action_model._discrete_distribution.branches.0.weight f4 [3, 256]
00000000: b4d5 2f3d ef9d 153d 02a6 23bd 6dbc ccba
00000010: 3c02 c6bc 6d11 97bd 825d ecbc 8f93 afbd
00000020: 7d69 0b3d 387d 9c3d 7b7c bbbb ad61 a9bd
00000030: 249c 333d 3016 893d 8dde 123d 243f 85bd
00000040: 0bed db3d 7aa4 413d 0fbc 7fbb 198f 0fbd
00000050: 6d3c 453c 8f21 18be 5159 853c 7cef f9bc
00000060: 02bd 083d d402 333c a891 963c 45c2 4e3d
00000070: e21e c73b 868f 9bbc 84ed 44bc 31a4 073e
00000080: 0593 213d f6e3 0abd 6cc6 6cbc 8f00 c3bc
00000090: dde4 113d ee77 ccbb a096 e9bc de81 6f3d
000000a0: b18a 27bc f71d 9f3c 0bf6 1c3d bc6a 8e3d
000000b0: d937 c2bc 1c10 8a3d 4654 d13c cd5d 90bd
000000c0: e829 7cbd 18d9 9dbc 88cb 1c3d 645c 163e
000000d0: 48ae d43c 3bc9 4dbb 9c8d 93be 056b 813c
000000e0: 3bfb 03bd c167 133d fe06 15bd db86 19bc
000000f0: cdb1 993d d23b f43c 7d41 ca3d 758d 483c
00000100: b83c 443d c884 1c3c a5a7 c23b fcaf 063e
00000110: a8aa d43d 19cc bbbc cc6d 35bd b980 da3d
00000120: 28b7 4dbc 11fc f7bd fed9 823c 1f07 813c
00000130: f6bb 52bd 666c 9bb9 13b2 843d ff30 393d
00000140: e48e 20be 4001 f23c 6e30 353d 69a4 7f3d
00000150: 548d 913c 4b1a f33c 6672 13ba adcc e63d
00000160: b846 11bd 7d7b 693d ca62 b33c 1d75 b0bd
00000170: 02ba 8c3d 9c09 96bd dc7f d4bd 7c9c 9b3d
00000180: 22b0 1fbe a72b 063e 1061 d03c 2af6 b5bc
00000190: 89c5 973d 93f6 dc3c 44b6 963d 7ca3 643d
000001a0: 0c56 acbc c77a 8dbd 341e 8ebd eee2 c93c
000001b0: b217 203d 720d 953c ae3b 20bd 0fcf dd3c
000001c0: 055b 173c 0914 c4bd 030e a23d 0130 423d
000001d0: e969 0f3c 2890 223d a90c 93bc 65e0 c33d
000001e0: d62b 9e3d fef5 413d c694 3a3d de53 ad3c
000001f0: 35fa 413d 2a5c ccbc dc5b 993d 969f 163a
00000200: da66 b0bb 8873 ba3c 58ca c9bd 1cc7 7dbc
00000210: 1591 5b3c 9a5c 8b3c ccec 033e e1b2 b1bd
00000220: f21f 85bb 32f9 4e3b 62af 89bb 91d1 c43c
00000230: 7814 e6bd 9c40 adbc 54a5 7dbc 09f4 7b3c
00000240: 0e61 e73d 2f52 803c d5f7 99bd 30d1 5a3c
00000250: e472 003d 0f58 4a3c bcf6 2a3d bb43 33be
00000260: d330 c1bc 4086 3b3d 162d cd3c 0384 90bd
00000270: f2be c6bc 7633 233d 809e 803d bbb3 b8bd
00000280: 3608 7dbd a1c4 443d 30ca 993d afbb 273d
00000290: 0c5a 0d3d f910 31bc 7673 0e3d 8a61 2abe
000002a0: 9603 3cbd 527e 303d 9c90 ee3c 1231 973d
000002b0: c0cf 663d b173 903d 0338 683d 927e 79bd
000002c0: 0ee5 61bd f985 f43c 80a0 ad3c cf61 cf3c
000002d0: 3c58 623d ab5c 213d 5750 c23d a748 15bc
000002e0: cfd7 683c 2fc3 933d c849 2e3d 1042 acbc
000002f0: 1e38 44bc 4d3b 73bc 542a d8bd 639c d33d
00000300: b59a 863d 05c6 833c a334 243c bbe6 ae3c
00000310: 2cc2 1abe 4a1c be3c 93f9 e0bc b46d 5e3d
00000320: 90dd ad3c 9222 ed3b f3c6 01bc d293 123d
00000330: 2860 99bc aae7 643d d512 09be 634b 00bc
00000340: 937b 49bd c82c 5cbd 56d7 86ba e78d a83c
00000350: 871e 53bd 56cc 90bd 1793 97bd 44b8 003d
00000360: 2b9f a33d 2838 083e 7334 17bd b265 bb3d
00000370: 9533 ed3d b25b f33c 9bd8 4ebd 6f4e 8c3c
00000380: ca25 093d 1152 0abb 55a4 41bd d2df 8f3c
00000390: 49b1 5a3b 441a 3d3d 9f2f 883d 5527 763c
000003a0: 069c b93d 6301 e5bd e21f 8c3d 893f 23bd
000003b0: 3cd5 293d 6329 433d 80b4 fd3c 6b7a 31bd
000003c0: 2c1c ccbc af12 c2bb 3b95 733d 45b4 65bd
000003d0: 4da7 95bc 7056 33bd b18f 513d e6f0 5b3a
000003e0: 2d27 ddbb 3c14 b9bc 8527 033d 9bed 36bd
000003f0: 20b1 423d f86d 5e3d 03a8 cebc 240d 94bb
0.042928413 0.03652757 -0.03995324 -0.001562012 -0.024170987 -0.073763706 -0.028853182 -0.085730664
0.03403615 0.07641071 -0.0057216263 -0.08270583 0.04385008 0.06693685 0.035856772 -0.06506184
0.10738572 0.047275998 -0.0039022004 -0.035048578 0.012038332 -0.14856552 0.016277941 -0.030509703
0.033383377 0.010925967 0.018380001 0.05047824 0.0060766796 -0.018989336 -0.012019519 0.13246228
0.03944685 -0.033908807 -0.014451604 -0.023803977 0.03561865 -0.0062398827 -0.028514206 0.05847346
-0.010225938 0.019423468 0.038320582 0.06953952 -0.02370827 0.06741354 0.02555288 -0.07049141
-0.061563402 -0.019268557 0.03828004 0.14683682 0.02596201 -0.003140046 -0.28818977 0.015798101
-0.032222014 0.03598762 -0.03638362 -0.009370531 0.07504616 0.02981368 0.09875772 0.012240757
0.04790947 0.009553142 0.005940395 0.1315307 0.103841126 -0.02292447 -0.044294164 0.10669083
-0.012555875 -0.12108625 0.015973087 0.015750466 -0.051448785 -0.00029644667 0.064792775 0.045212742
-0.15679508 0.029541612 0.04423564 0.062412653 0.017767586 0.029675623 -0.00056246517 0.112695076
-0.035467833 0.057002533 0.021897692 -0.086160876 0.06871416 -0.073260516 -0.1037595 0.075982064
-0.15594533 0.1310259 0.025436908 -0.022212107 0.07410724 0.026973044 0.07358983 0.055819973
-0.021037124 -0.069081835 -0.069393545 0.024644341 0.039085098 0.018194888 -0.039119415 0.027076272
0.009238009 -0.09574134 0.07912829 0.04740906 0.008753278 0.03968826 -0.017950373 0.09564284
0.07723205 0.047353737 0.045552038 0.021158155 0.047357757 -0.024946291 0.07488224 0.0005745826
-0.0053833546 0.022760168 -0.09853047 -0.015489366 0.0134012895 0.01701193 0.128833 -0.086766966
-0.004062646 0.0031581637 -0.0042018155 0.02402571 -0.11234373 -0.021148972 -0.015481312 0.015378007
0.112978086 0.015664188 -0.07517973 0.013355538 0.03135957 0.012350096 0.04173921 -0.17506306
-0.023582852 0.045782328 0.025045913 -0.07056429 -0.024260972 0.039844 0.062802315 -0.09018656
-0.06177541 0.048039082 0.07509267 0.040950473 0.034509704 -0.010807269 0.03477808 -0.1663877
-0.045901857 0.04308922 0.02912169 0.07382406 0.05635047 0.070533164 0.056694042 -0.060911722
-0.055150084 0.02984904 0.021194696 0.025315193 0.055259928 0.039395016 0.0948798 -0.00911156
0.014211609 0.07214963 0.042550832 -0.021027595 -0.01197627 -0.014845681 -0.105549484 0.10332563
0.06572477 0.016085634 0.010022315 0.021350255 -0.15113133 0.023206849 -0.027462756 0.05430384
0.021223813 0.007236787 -0.007920968 0.035785504 -0.018722609 0.055884995 -0.1338609 -0.007830474
-0.049190115 -0.053753644 -0.0010287564 0.020575477 -0.051542785 -0.07070224 -0.07401102 0.03142573
0.07989343 0.13302672 -0.036915254 0.09150256 0.11582104 0.02970681 -0.05049954 0.017127244
0.033483304 -0.0021106044 -0.04727586 0.01756278 0.003336983 0.046167627 0.06649708 0.015024026
0.09062962 -0.11181905 0.06842019 -0.039855514 0.04146312 0.04764689 0.030969858 -0.043329637
-0.024915777 -0.0059226374 0.05946849 -0.05608012 -0.018268252 -0.043783605 0.051162425 0.00083900837
-0.006749055 -0.022592656 0.03202011 -0.044660192 0.0475322 0.054304093 -0.025226599 -0.004518168

action_model._discrete_distribution.branches.1.bias f4 [2]
00000000: f198 4cbd c498 4c3d
-0.049950544 0.049950376

action_model._discrete_distribution.branches.1.weight f4 [2, 256]
00000000: 5ce9 af3d 81be 55be 3eb8 4c3c 279e 7c3d
00000010: 774e e23d 4645 883d 5c56 043e 4597 833d
00000020: bb4d 3abc 7152 53bd a680 1abe 87c9 803c
00000030: 7a2c ac3a 0412 02bd 6d03 85bd 0d9b 0b3d
00000040: be53 5d3c 58ad 48be 74ca 2c3d b4b0 fcbd
00000050: 8f88 09bc e00d 713d bb8e 0f3e 240b 383d
00000060: b6ac cebd 9140 d0bd b233 253c fe35 6ebd
00000070: 82e6 e1bd 4c60 37bd 9ca5 1f3d df48 003c
00000080: 0ea3 873c 512c 153e 5ffe 13be 967f 093e
00000090: 855a 703d 3200 bebd 5445 b23c 1014 dbbd
000000a0: 86ec b5bd 7e64 633d 8f5c 0b3d f963 223d
000000b0: ff8f 363b 7406 4abe bb00 01be d04a cb3d
000000c0: 0176 e73d 2306 f3bb 6694 0bba f4a9 b9bd
000000d0: 338a 16bd 7993 f63c 442f 893d 50cf a8bd
000000e0: c99f fbbd cf6d 8dbc 91f1 8cbd 791c bebd
000000f0: 3f72 b6bd 329c f7ba ec9f 8abd b57a 12bd
00000100: 76b1 c53b 0eea 883c d64d 973d ec8c aabd
00000110: 7391 bf3d 46cc 993d cff4 8c3c d64f cebd
00000120: 5170 62ba d803 853d 3dda 283c 0e1b 26be
00000130: 5eea b9bd bce9 273d cd91 953d 5ae6 28bd
00000140: 26a8 9a3d 917d c5bb 8483 06bd 55c6 e73c
00000150: 952e ddb9 97db b9bd d710 35bd 6f37 2bbd
00000160: 23bc 05bc 4267 d93c ab6c a73b 723e eb3d
00000170: 5a2a 943d f70d d33c f850 203d ee45 dbbc
00000180: 8d43 ee3c 1e6d 323c 00c1 07bd 5786 43bc
00000190: 58c7 d7bd f2f5 bb3b 9fcd 72bd 9b08 c83b
000001a0: 94e5 0fb9 9e6c 0f3e d03c 533d 31a8 c4bc
000001b0: fed7 dcbd 8f71 5dbd 3f97 bd3c 1ec9 52be
000001c0: 4948 dcb9 ddaa d33d d088 1c3d 9281 873b
000001d0: 4a60 39be fb06 0f3d 4b49 a7ba a452 ef3c
000001e0: 6404 753d 7c7c 1c3c 1173 c33c 9c24 17bc
000001f0: a9d2 21bd 26d2 b2bc 57e5 e4bd 9a0f 663a
00000200: 06c4 07bc 410e afbd 7551 1cbd 7516 563d
00000210: 9b2a 063e 48bd 31be 615e 313d 977d c13d
00000220: 3705 443d 89f3 34bd 20d1 783d adfc 013e
00000230: b91c d5bd 8aa7 9ebd 1a4d afbd 497b 203d
00000240: 31de 263d 460d 943d bdd9 3c3d 7669 2a3d
00000250: 2bbd 7fbd 5df3 acbc 5306 bf3d d4fa 96bc
00000260: cde5 8a3c 64a8 6b3d e843 8cbd e88b 6f3d
00000270: e2a1 733c 80ac f93c e142 8c3d 5537 a83d
00000280: 048c ecba 6dec 3a3d 1b3b 8fbb 5361 5dbc
00000290: 9aeb b53d 0756 30bd c7e3 47bd 6f4c d63c
000002a0: 507c 31be 7e86 453c 55c2 94bd e4ee 0f3d
000002b0: 6975 57bc f0af 0cbd 5966 ae3c 92c6 003d
000002c0: 10b1 f63d 5520 49bd 6efc 4abc 7bd5 0bbe
000002d0: 90f8 3dbd 153d 4d3d ed63 033d 5a1f 3d3d
000002e0: e8dd b7bd 91d1 bdbc dc95 71bb 4a60 213d
000002f0: e90d a23c 56b1 4cbd c1cf b73d c8d0 3c3d
00000300: 87dd 01be 9c56 573c b1d1 52bd ce86 8dbd
00000310: 990a 103e be66 363c 5383 ac3c c7f1 93bd
00000320: 911a 19be 7b07 51bd 5746 ac3c 883a babd
00000330: ad27 8fbb f948 8b3c 12b8 a53d 6581 b4bd
00000340: 40c5 da3c 6c31 263d 54ac 9d3b c084 e13d
00000350: 7e7d 053e 12f7 a2bc 9464 683c 1056 ecbc
00000360: 886d 2b3d 487f f8bc ea66 c2bb f318 bf3c
00000370: 8f3b 793c 3bcb b2bd 5851 053d d05c c3bd
00000380: 5ab9 c3bd 2896 f0bd 3b23 4a3d e060 31bc
00000390: b43c 8abc e254 3e3c 2ccb c13d c89e a6bd
000003a0: 310d f1bd 3978 693d 3ffb 3c3d b971 abbb
000003b0: 994d 833d e6ef edbc c606 403a 747a 11be
000003c0: 6758 303d d86f 3dbe a2b3 b73b 6cc7 6ebc
000003d0: 0690 923c 85cb 75bc 33f8 43be 8b20 93bd
000003e0: c72a 28bd 1858 18ba 19bb 213d e837 f63d
000003f0: ed3e a3bd e074 b03d 2150 48bd f131 3a3d
0.08589432 -0.20873453 0.012495099 0.061674263 0.11050122 0.06653838 0.12923568 0.06425337
-0.011371071 -0.051592294 -0.15088138 0.015721096 0.0013135814 -0.031755462 -0.06494794 0.034083415
0.013508735 -0.19597375 0.04218526 -0.12338391 -0.0083943745 0.058851123 0.14019291 0.0449325
-0.10091536 -0.10168565 0.010083126 -0.05815696 -0.11030294 -0.04476957 0.038976297 0.007829874
0.016557243 0.14567687 -0.14452504 0.13427576 0.058680076 -0.09277381 0.021761574 -0.10697186
-0.08883004 0.05551576 0.034023818 0.039646123 0.0027856824 -0.19729024 -0.12597935 0.09926379
0.11301804 -0.007416503 -0.0005324542 -0.09065619 -0.03675289 0.030099617 0.06698468 -0.08242667
-0.12286336 -0.017264275 -0.06882013 -0.092827745 -0.089085095 -0.0018891154 -0.06768784 -0.035761554
0.006033118 0.016713168 0.07387893 -0.0832766 0.09353914 0.07509665 0.017206578 -0.10073821
-0.0008637952 0.06494874 0.010305938 -0.16221258 -0.09077905 0.04099439 0.073032 -0.041235305
0.07551603 -0.0060269316 -0.032840267 0.028292814 -0.0004218711 -0.090750866 -0.044205513 -0.041800912
-0.008162531 0.026538495 0.00510939 0.1148652 0.072346404 0.025763495 0.039139718 -0.026766744
0.029084945 0.010890273 -0.033143044 -0.011933885 -0.10536069 0.005736106 -0.059278127 0.0061045415
-0.00013723067 0.14006278 0.051571667 -0.024005981 -0.10783385 -0.054063376 0.023143409 -0.20584533
-0.00042015527 0.10335324 0.038216412 0.004135319 -0.18103138 0.034918766 -0.0012762932 0.02921421
0.05981864 0.009551164 0.023858579 -0.009225037 -0.03950754 -0.021828722 -0.111765556 0.00087761285
-0.008286482 -0.085476406 -0.03816362 0.05226751 0.1310219 -0.17357361 0.043302897 0.094477825
0.047856536 -0.044177566 0.060746312 0.12694044 -0.10405869 -0.07746799 -0.08559628 0.039180074
0.040739242 0.07229094 0.04610609 0.04160448 -0.062436264 -0.021112138 0.09327378 -0.018430151
0.01695528 0.057533637 -0.068488896 0.058483034 0.014870139 0.030477762 0.06848694 0.08213679
-0.0018047099 0.04563563 -0.0043710596 -0.013511973 0.08882828 -0.043050792 -0.04880121 0.026159493
-0.17332578 0.012055991 -0.072636284 0.035139933 -0.013150551 -0.034347475 0.021289038 0.03143937
0.12045491 -0.0491031 -0.0123892855 -0.13655655 -0.046379626 0.05010708 0.03207772 0.046172477
-0.08977872 -0.023171218 -0.0036863005 0.03939847 0.019782024 -0.04997381 0.08975173 0.046097547
-0.12682162 0.013143208 -0.05146951 -0.069104776 0.14066543 0.011132894 0.021058714 -0.0722385
-0.1495154 -0.051032525 0.021029634 -0.09093195 -0.0043687434 0.01700257 0.08091749 -0.088137425
0.026705384 0.040574476 0.004811803 0.11011648 0.13036153 -0.019893203 0.014184136 -0.028849632
0.041852504 -0.03033413 -0.0059326785 0.023327326 0.015211954 -0.087301694 0.03254828 -0.09539187
-0.095568374 -0.1174739 0.049350005 -0.010826319 -0.016874649 0.011616917 0.0946258 -0.08135754
-0.11770094 0.05699942 0.046138044 -0.0052320627 0.06411285 -0.029045057 0.0007325228 -0.14206868
0.043053057 -0.18499696 0.0056061307 -0.014573913 0.017890941 -0.015002136 -0.19137649 -0.071839415
-0.04105642 -0.0005811467 0.03948507 0.12022382 -0.079709865 0.08616042 -0.048904542 0.045457784

discrete_action_output_shape f4 [1, 2]
00000000: 0000 4040 0000 0040
3.0 2.0

network_body._body_endoder.seq_layers.0.bias f4 [256]
00000000: c72c 38bd 89d5 38bd 7b0b 01bc 1b43 a1bd
00000010: 1830 d5bc 8371 35bd 9ff0 88bd 2971 87bc
00000020: ad46 49bd c72e 21bd 46e3 62bd 4822 f3bc
00000030: dda3 fbbb 1007 80bd 03c6 03bd cc66 62bd
00000040: 33c7 14bc b878 d7bd 3230 e4ba c80b b0bb
00000050: 7773 69bd 3b6c 68bd c403 2b3d e966 d6bd
00000060: 2d98 d8bc 5e7c a6bc 2e03 b53b 8c00 ecbd
00000070: 091d abbd 8a05 f8ba f321 9cbd ef9e 03bd
00000080: cfb1 1cbd f121 40bc 88ba 52bc 7004 06bc
00000090: 3ddc 61bd f588 94bd b4d5 8fbc a731 15be
000000a0: b2e9 79bd e1ab b5bc 39a5 49bd 4c28 2abd
000000b0: 702f 9fbd 003d f6bc a4ee 8539 cab1 81bc
000000c0: d1b1 21bd 9895 21bd 2d09 5fbc 1c09 cabc
000000d0: 485d 943b 3bd6 0dbd 90e4 9a3c 5434 14bd
000000e0: d56a 98bd e24d 0bbe 6fa1 9ebd 5359 4cbd
000000f0: 5ff8 57bd 3df9 0cbe 5926 d2bb a67c a0bd
00000100: eb2f cebb b8f1 b9bd 316a 3bbd fc3b 39bd
00000110: d40d e93b b67a 7fbc 91ea 20bd 2da5 febc
00000120: 7eb5 41bd f427 04bc 7cbb 29bd 6558 96bc
00000130: 5fe1 7bbd 3a5a 17bd 9a8a aebd ba5d d5bd
00000140: ea47 89bd b738 6abd 07e9 e6bc e938 0cbd
00000150: 49c9 d3bc 5525 bbbd 8adc 44bd e82e 8fbd
00000160: 5b1d 803c 86c1 ca3c f764 4c3c 4f47 1abd
00000170: f523 95bc 2a9e 03bd ed3b 3abd 4639 20be
00000180: c124 67bd 0379 ecbc 387f a2bc 2b04 ebbc
00000190: f604 fdbb c2b6 9fbd 8a3b f73b 1ca9 96bd
000001a0: 8cde 0abe bc9e 93bd fa90 0bbd f2dc 08bd
000001b0: 1dcf c4bc 9bca 2bbd 8454 ffbc 022d 81bc
000001c0: 9d22 50bd 31ed 3abd 7927 dabc e982 4bbb
000001d0: 47da 22bd 70d9 ccbc 8489 26bd e71e 8a3c
000001e0: ba45 93bc 569f bebd 687d c1bd 4906 26bd
000001f0: 082e dbbc 9e9c 08bd 8b84 2fbd 7e00 46bd
00000200: 9891 54bc ddd8 ec3c ece1 aebc 4578 02bd
00000210: 23cb 9ebd f7fc 2bbd 3af0 6ebc 2778 55bc
00000220: c491 6abd 9f77 b8bb 05f1 993c 90a6 3bbd
00000230: 2aed 7bbd 8e7c 13bd a387 54bd 9e3b 11bd
00000240: 238a 97bd c1bd 05bd 40d5 b33c 2990 4cbd
00000250: ff5e 22bd ba30 23bd 53b3 3bbc 3d93 61bc
00000260: 12f4 55bd 8f28 8abd a66b fcbc b962 87bc
00000270: c431 57bc 442e cebc d49d cdbc a014 90bd
00000280: d6d0 30bd c37f 53bd ea11 16bc e20c 23bd
00000290: 8fac d9bd 5109 06bd 5b98 0bbc 035c debc
000002a0: 911d 8fbd fbc0 25bd 8817 ddbc 72af b1bc
000002b0: 2488 513c 5180 5dbd 5924 79bc ebf6 13be
000002c0: ae9b 49bd 496e b1bc 7212 96bd b092 a9bd
000002d0: 3eaa 84bc d007 25bc cebf a0bb 73b5 35bd
000002e0: 6559 d1bc 2589 a7bd a64a 2ebd 7b48 05bd
000002f0: 567f 1fbe 5936 ecbc 816c 23bd 8709 81bc
00000300: 3728 5ebc 9bd7 61bd 912e 25bd 1eea 6fbd
00000310: 0c67 aebc dce3 b8bb 1932 76bc 7266 8ebd
00000320: 28ab b1bb 92c4 fcbc 8da2 05bd 1762 8ebd
00000330: 82e6 8e3b 001e 85bc 6e1e ecbd 61c3 823c
00000340: e488 6bbc 9f8e 3abd 2fb4 f1bb a0d5 46bd
00000350: 9fa7 a6bc 3cb7 b3bc 2bfa 8bbb 4d8f 29bd
00000360: 04da 94bd c0d4 7dbc 5ce3 0abd 5d5b 78bd
00000370: b7f7 c53c 85c7 7dbd e613 693c 7e98 0bbd
00000380: b7b5 ecbc 93a1 4abd 38c3 b7bc 689b 26be
00000390: 1d9d 38bd b67c 4abe ba42 91bc 55a2 c5bc
000003a0: a1b1 9e39 8f22 f3bc afa9 5fbd 6c30 d53b
000003b0: 0451 21bd 5c5b 2abd 1a38 7c3a 70d0 01bd
000003c0: 3f3b 053c 3bef 4dbd 1cf2 e4bd e067 e1bb
000003d0: c7f6 9ebd bf87 37bd 42ab bebb bccf 93bd
000003e0: 5014 4fbd e146 89bc 3508 9fbc 8ce2 93bc
000003f0: 779f 31bd 9504 febd ed6f 88bd ddde c9bc
-0.044964578 -0.045125518 -0.007876272 -0.078741275 -0.02602391 -0.044297706 -0.0668652 -0.016533451
-0.049139667 -0.03935125 -0.055392526 -0.029679433 -0.007679446 -0.06251347 -0.03217126 -0.055273816
-0.009080696 -0.10521072 -0.0017409383 -0.005372498 -0.05699488 -0.05674384 0.041751638 -0.10468847
-0.02643975 -0.020322975 0.0055240607 -0.11523542 -0.083551474 -0.0018922549 -0.07623663 -0.032133993
-0.03825551 -0.011726842 -0.012861855 -0.008179769 -0.055141676 -0.07252685 -0.017557956 -0.14569722
-0.061013885 -0.022176685 -0.049229834 -0.041542336 -0.0777272 -0.030058384 0.00025545538 -0.015831847
-0.03947622 -0.039449304 -0.0136130275 -0.024662547 0.0045277216 -0.034628134 0.018907815 -0.036182716
-0.074422516 -0.13603929 -0.07745635 -0.049889874 -0.0527271 -0.13766952 -0.006413263 -0.07836275
-0.0062923334 -0.09079307 -0.04575557 -0.04522322 0.007112244 -0.015593221 -0.0392862 -0.031084621
-0.047292225 -0.008066166 -0.041438565 -0.018352697 -0.061494227 -0.03695128 -0.0852253 -0.104182675
-0.0670317 -0.057182994 -0.028187288 -0.03423396 -0.025852816 -0.0913798 -0.048061885 -0.069913685
0.015638998 0.024750482 0.012475244 -0.03766566 -0.018205622 -0.03213326 -0.045467306 -0.15646848
-0.056431536 -0.028866297 -0.019836053 -0.02868851 -0.0077215387 -0.0779853 0.0075449394 -0.07356474
-0.13561457 -0.072080106 -0.034073807 -0.033413835 -0.02402454 -0.041941267 -0.03116823 -0.015768532
-0.05081426 -0.04563636 -0.02663015 -0.003105337 -0.039758947 -0.025006026 -0.04065849 0.016860439
-0.017977584 -0.09307735 -0.094477475 -0.040533338 -0.026755348 -0.033352487 -0.042851012 -0.048340313
-0.012974165 0.028912002 -0.021347962 -0.03185298 -0.07753589 -0.041989293 -0.014583642 -0.013029135
-0.05726792 -0.0056294943 0.018791685 -0.045813143 -0.061505474 -0.036007456 -0.051887166 -0.035457246
-0.07399394 -0.032651667 0.021952271 -0.04994217 -0.039641377 -0.03984139 -0.011456328 -0.0137680145
-0.052234717 -0.06746017 -0.03081305 -0.016526567 -0.013134424 -0.025168546 -0.025099672 -0.07035184
-0.04316791 -0.051635515 -0.0091595445 -0.039807208 -0.10628616 -0.03272373 -0.008520211 -0.027143484
-0.06988061 -0.040467244 -0.02698876 -0.021690104 0.012788806 -0.05407745 -0.01520642 -0.1444966
-0.049220733 -0.021659033 -0.07327737 -0.082799315 -0.016194459 -0.010072663 -0.0049056774 -0.044362497
-0.025555322 -0.08180455 -0.04255166 -0.032539826 -0.15575919 -0.028834509 -0.0398984 -0.015751613
-0.013559393 -0.055137258 -0.040327612 -0.05857288 -0.021289371 -0.0056423973 -0.015026593 -0.06953134
-0.0054220147 -0.03085545 -0.032625724 -0.06952303 0.0043609748 -0.016249657 -0.115292415 0.015962305
-0.014375899 -0.04554617 -0.007376216 -0.048543572 -0.0203436 -0.021937959 -0.0042717657 -0.041396428
-0.07268146 -0.015492618 -0.033908233 -0.060634006 0.024165971 -0.061957855 0.014225936 -0.034080975
-0.028895242 -0.049470495 -0.022431955 -0.1627022 -0.04507171 -0.19774136 -0.017732013 -0.024125258
0.00030268452 -0.029679565 -0.054605182 0.0065060165 -0.039383903 -0.041591033 0.0009621397 -0.031692922
0.008131801 -0.050276976 -0.11178991 -0.006878838 -0.07761913 -0.044807192 -0.0058187554 -0.072173566
-0.05055648 -0.01675743 -0.019413093 -0.018052362 -0.04336497 -0.12403218 -0.06661973 -0.024642402

network_body._body_endoder.seq_layers.0.weight f4 [256, 456]
00000000: 717e 83bc 4f5b ccbc 0f5e 5ebe 1bd8 8dbc
00000010: 97bb 3ebd d512 b2bd b0d9 25bc 7560 44bc
00000020: f591 ccbe 8dc2 84bc 49e2 89bd 1510 4fbc
00000030: 1cf0 2d3d d9d6 f73d d41c 25bd 07cd e0b9
00000040: a979 72be 0828 95be 1ba6 8d3d 774a 70bd
00000050: ccee 64be 556a a13d 0a97 953d ce35 afbd
00000060: a9d7 c23d 8994 c13d 6b3c 603c 7c41 36be
00000070: cbdd 56be 7d74 61be eb4d 423e 5d0c 8fbb
00000080: 842b 0b3d 297d 34be 536d 523d 2404 21bd
00000090: 30ee 0b3e ea69 96bd 6085 813c a110 42be
000000a0: d731 c73d 0dae 983b 1ad0 8abd a5e6 a2bd
000000b0: eb71 1cbe de9b 923e 61d3 6b3d dec8 513d
000000c0: e758 1f3d 009d afbd 57e2 84bd 5706 13be
000000d0: cf89 893d 8853 96bd 101f d33d d79b fdbd
000000e0: eb91 8c3d e028 96bc b40a bcbc 4bd8 e13b
000000f0: 9793 2bbe 36ca 813d fa61 d83d 0806 65bd
00000100: 5c1a e03d edca 77bd b230 2b3d 75b6 8ebc
00000110: 1b31 97be 2049 d1bd f559 a73b 2923 39be
00000120: 9037 bbbd 712f b83d edce 8dbe dc2e 7ebd
00000130: 26c9 b6bd 8cc0 26be d3fd b93d c534 823d
00000140: 9776 43be e518 303b 4269 15be 246c c6be
00000150: 3696 253c a24f 7b3d 9d7e 17be 987c cfbd
00000160: 506c 55be 28f6 5cbe 843b b03d 2dd0 003b
00000170: a670 41bd dc55 efbc 9327 ddbd d7ee c0bd
00000180: 05dd 273e 6ab4 0dbe 328f adbd d250 d7bc
00000190: 3c65 c63d 57ba b5bd 3634 ea3d 8f2a 24be
000001a0: cb4f c63c eed5 f9bc 8945 f2bc fb67 83bd
000001b0: 321e 913d 1bc3 c13c b70b 4a3d e464 293d
000001c0: 5f50 49be d693 debd 444d 0b3e 1c8b eabd
000001d0: a33e ccbd 4575 4bbe e761 1abe 0c8b 5ebe
000001e0: f04b ea3d 3079 89bd 433c 05bc b49c 973e
000001f0: 6a8d 48be 0322 81bd 2c7a f73c d32d 3a3d
00000200: 1e34 d0bd af0c 71be 5b90 583c 54e1 b7bd
00000210: f3fb 733c 1ff6 0cbd 46b8 bdbd 31dd 17be
00000220: 63e3 c2bb 706d 85be e549 c0bd b47b 643d
00000230: ca27 84be cd91 16be 5c8a b43d c47d 8e3c
00000240: 4997 c63d 2ab8 2cbc 873f 4abe 6294 94bd
00000250: 22f7 63be 3238 3dbe fb5d 933c 83ef d2bd
00000260: cff2 5dbe 7ffc f23b 6e82 873a 75f9 54bc
00000270: b86e cc3d a264 a6bd d9aa edbd 0fa0 d73d
00000280: 0368 6abd e0d8 53be a972 183e adcf 363c
00000290: 82f9 82be 567c 443b 2174 90bd 8dc9 073d
000002a0: 1c90 8f3d 2357 353d b894 36bd 131e c3bd
000002b0: d265 79be a492 34be b262 8c3d 62fd 933c
000002c0: 8112 5b3e d03b 333e dd12 59be 66da 8dbd
000002d0: 1cad ca3c e4f0 3a3c 1ff0 72bd c7be 50bd
000002e0: 773e 2bbe ffe4 80be e9d9 b63d 9769 07be
000002f0: b0b4 2fbe adfd 7d3e 5284 67be fa17 e73b
00000300: ebbb 203b 8010 14be a8cd d93d c08f 4fbd
00000310: 1f1c bf3c 808e 54bd 4204 e9bc 1171 5a3d
00000320: 7c69 74be fb36 c6be 2ba5 28bd a9af 2cbe
00000330: 8706 36bd a9b5 f63d b3b7 04be 4a1f 6dbb
00000340: 9787 c6bd 7771 eabd 31d3 7ebc 8cc7 8d3d
00000350: 93d3 96be 365b a0bd 12dd 19bd dc5f cabd
00000360: 4343 563d d711 1fbd db81 59be 6c7e ef3d
00000370: 6d50 d5bb 1aec ba3c 3d21 263c 3c2c fe3c
00000380: d9a0 28be cc4a 863d 5f2c cabd 394b 54be
00000390: f6bc 023c 5391 e4bd 20fd 5abe 422a 4c3e
000003a0: 123d 803d 0bc6 a83d e2ba d83d e1e8 30bd
000003b0: 320b 2dbd 9ca1 3dbd 0c52 92be c3f2 83be
000003c0: 0a80 99bd d9d5 51be 9ff7 1dbe 9c8a 503e
000003d0: d0f4 17be c1f7 143d 9688 c0bd c37d 573d
000003e0: 5c13 983e 1a2e 14bc 0fa2 813a cc83 fdbc
000003f0: 4af0 423e 2b69 eebd 9e33 3dbe 33ef 0cbe
-0.016051503 -0.024945883 -0.21715568 -0.017314961 -0.04656562 -0.08694998 -0.0101227015 -0.011985888
-0.39955106 -0.01620605 -0.067326136 -0.012638112 0.042465314 0.12101526 -0.040310696 -0.00042877367
-0.23679222 -0.29132104 0.06916448 -0.058664765 -0.22356719 0.07881609 0.07304199 -0.08555184
0.0951379 0.09452159 0.01368628 -0.17798418 -0.20983045 -0.22017093 0.18975036 -0.0043654875
0.033977047 -0.1762587 0.05137379 -0.03931059 0.1366508 -0.0734442 0.015810668 -0.18951656
0.09726303 0.0046594203 -0.067779735 -0.07954148 -0.15277831 0.28634542 0.057574634 0.051216953
0.038903143 -0.08574867 -0.064884834 -0.14357887 0.06715738 -0.07340151 0.10308659 -0.1238324
0.06863769 -0.018330038 -0.022954322 0.006892239 -0.1675552 0.06337397 0.105655625 -0.055913955
0.10942528 -0.06049626 0.041794486 -0.017420987 -0.29529652 -0.102190256 0.0051071593 -0.18079819
-0.09141457 0.08993424 -0.27696934 -0.062056407 -0.08925085 -0.16284388 0.09081616 0.06357721
-0.19088207 0.0026870307 -0.14590934 -0.3875438 0.010106614 0.06135524 -0.14794393 -0.10131186
-0.20842099 -0.21578276 0.08605102 0.0019655332 -0.04722657 -0.029215746 -0.10798564 -0.09420555
0.16392906 -0.13838354 -0.08474578 -0.026283655 0.09687278 -0.08873432 0.1143574 -0.1603186
0.02420797 -0.030497517 -0.029574173 -0.06416317 0.070858374 0.023652604 0.04932758 0.041355982
-0.19659565 -0.10868041 0.13603693 -0.11452314 -0.099728845 -0.19868954 -0.1507641 -0.2173273
0.11440265 -0.06712568 -0.008132043 0.29611742 -0.19585195 -0.06305315 0.030209623 0.045453858
-0.101661906 -0.23539995 0.013218011 -0.08978525 0.014891612 -0.034414407 -0.09263663 -0.14830472
-0.0059475168 -0.26060057 -0.09389094 0.055782035 -0.25811607 -0.14704056 0.088154525 0.017393954
0.09696824 -0.010541955 -0.19750796 -0.07254864 -0.22262242 -0.18478468 0.01798915 -0.102995895
-0.21674655 0.007415354 0.0010338554 -0.012998928 0.099820554 -0.08124663 -0.11604852 0.10528576
-0.0572281 -0.206882 0.1488749 0.011157912 -0.25580984 0.0029981337 -0.070534 0.0331512
0.070099086 0.044272553 -0.044575423 -0.095272206 -0.24355248 -0.17634064 0.06854762 0.018065158
0.21393777 0.17503285 -0.21198602 -0.06926422 0.024740748 0.011409972 -0.05931103 -0.05096319
-0.16723047 -0.2517471 0.08928282 -0.13223873 -0.1715877 0.24803801 -0.2260907 0.007052419
0.002452607 -0.14459419 0.10634929 -0.0506742 0.023328839 -0.05189371 -0.028444413 0.053330485
-0.23868364 -0.38713822 -0.04117314 -0.16863884 -0.04443982 0.12046368 -0.129607 -0.003618198
-0.096938305 -0.11447423 -0.015553282 0.06922826 -0.29458293 -0.07829897 -0.037564345 -0.09881565
0.05231024 -0.038835373 -0.21240942 0.11694035 -0.0065098316 0.02281766 0.010139761 0.031026952
-0.16467609 0.06557235 -0.09871744 -0.2073182 0.007979622 -0.11160531 -0.21385622 0.19937995
0.06261648 0.08240899 0.1058252 -0.04319084 -0.042247005 -0.0462967 -0.28578222 -0.2577115
-0.07495125 -0.20491733 -0.15426491 0.20365375 -0.14839482 0.03636909 -0.09401052 0.05261017
0.2970227 -0.009044195 0.0009890216 -0.030946635 0.19036976 -0.11641153 -0.18476722 -0.13763122

network_body._body_endoder.seq_layers.2.bias f4 [256]
00000000: 1e31 a3bd dbd1 083d c7b6 01be edeb 9dbd
00000010: ff02 80bd 091c ca3c ea13 86bd 451f 11bc
00000020: ca9f 3cbd abe4 d3bd 1ba5 cbbc 8b4f febc
00000030: a220 ccbc fd42 b3bd 46b6 93bd 95e3 9dbd
00000040: 1e58 ddbd 45c1 f73c 68d4 d03c 5777 a63b
00000050: 1fec b5bd 2ff8 95bc 61fe 46be c32f 80bd
00000060: 3f0c 40bd cbd9 31bd 3f64 e5bd 025d 2fbd
00000070: 6fac 37bc 0ff1 e6bc 005d 00be 3797 81bd
00000080: 2699 43be bafb 33be 1ccc 15bd 7dd4 35bc
00000090: 02b3 27be 8e6e 3c3c 42fa a9bd ca18 ca39
000000a0: e0cb eabc c408 bebd 944c 6cbe 2253 2abe
000000b0: 432e 4bbd d296 f53c a838 8ebc d312 01be
000000c0: aa60 6f3c 9743 0ebe 99f0 8cbd e722 efbd
000000d0: b76a c3bc f51b 11bd 7d68 593d 390b 3c3d
000000e0: ebdc abbd c52e 44be 5e67 a8bd 71cb 31bc
000000f0: 3eac a1bd e3f7 d0bd 4370 04be c727 8ebd
00000100: c96e 10be 68d0 48be cdf0 05be d287 f5bc
00000110: 5644 f7bd 7951 33be b8f4 25be 3eed a0bd
00000120: 3fd0 503c fd49 6abc 43e4 f1bd 56db 0e3d
00000130: 0b42 563d 5f7a 07be efc7 bdbd 7583 7abd
00000140: 8133 92bc 5259 3ebd e3b8 13bd 9584 80be
00000150: 1157 15be 81fa 51bd 1f3a d33c 33d2 fabd
00000160: 7ee1 18bd 58a5 28be 2055 67be 4eab fdbd
00000170: c78f 26be cfea 9fbd d19a 05be 6022 d8bd
00000180: c9d9 98bd 83ce a1bd 535a 32bd 6595 7ebd
00000190: 5073 543c d4d5 18be efb6 87bd 1858 efbd
000001a0: 3abf 17be 7278 89bc 7f5f c5bd eaf2 70bc
000001b0: 63ca a33c 3238 7e3c 8a17 3f3c 8d44 2ebd
000001c0: 5bf2 78be f225 16bd 6734 dfbd 96c1 4bbe
000001d0: de0a 31bc 25c8 3dbe 7b57 01be 8897 1bbe
000001e0: e3c2 4abd 3747 2fbe cd46 febd a446 5ebe
000001f0: eb2f 3a3d 426c b9bd d12b 91bd 04e2 2fbd
00000200: eb2b eabd 8e3a fabd 5643 5ebd 268f 01bd
00000210: b185 02be 2d7e dc3d 3fda f2bd cb40 a9bc
00000220: 5f82 05be c183 6abd 6043 44be 3c11 92bd
00000230: b36e 293d 6f33 303d f989 05bc d820 46be
00000240: 8128 d7bd 0678 f7bd d7e1 26bd 629b 37bd
00000250: 1d9b 30bd 4344 2e3c 417d 2bbe 7e76 213d
00000260: de50 5abd da3f 2ebe c605 2d3b ab8e 00bd
00000270: d81b 56be 97f7 9bbd e38f e0bd 6c68 fcbd
00000280: df46 0cbc d10c 96bd edb0 1ebd 1ac4 9bbc
00000290: e845 2abe 8c9e afbc 4e1f 96bd 164e a6bd
000002a0: f115 013d 79d3 11be d278 96bd 9d56 37be
000002b0: ec20 e8bc e45c 94bd 3489 ecbd 6d5b 12bd
000002c0: ca34 ecbd f2d6 a6bd 37e4 c7bd 7e65 d1bc
000002d0: 0adf ccbd 64a4 47be 41a6 62bd be43 1cbe
000002e0: 6448 f73c 0759 22bd 94bf 12be f33d 8dbd
000002f0: 5fbd 03be 312b bbbc 7b7d b5bd 906d edbd
00000300: e48b c6bd fee6 e3bd dc91 e7bd 6f33 bc3c
00000310: 84a2 ce3a bdfc 2cbe 51f4 fabd 2662 8a3d
00000320: b996 59bd c0e3 08be 02fc d6bd 5860 1b3d
00000330: 60b4 81bc fcc1 20be df55 5cbd d093 fc3c
00000340: e751 17bd 8b35 25bd 166a 7bbd 5535 e0bd
00000350: 4d45 03bd 1905 96bc b3f2 9cbd 83d9 90bd
00000360: 6101 09be 59d9 27bd c421 503b caee 78bd
00000370: bb7b bdbd 69fa adbc 5f08 05be 38b8 b83b
00000380: e4c0 0c3c f779 843d 9fa9 e0bd 9a71 bcbd
00000390: e951 46bd 9ec9 a9bc c8fd 84bd 3b52 55bd
000003a0: 8717 45bd 8abe 80bb 7b6d 21be 83f1 d2bd
000003b0: 8c5b d1bd 4cc4 1cbe 5e42 00bb 8f61 443b
000003c0: d935 c8bd 4009 a93c 2e38 e6bd 7f80 f63c
000003d0: 87de 1bbe 4669 acbd 97ac 2a3b d6c6 04be
000003e0: e9f8 b7bd b766 103c 2fdc 47bd 9f74 76bc
000003f0: d68e 81bd 6e01 b3bd e357 61bd b6d2 c6bd
-0.07968353 0.03340326 -0.1266738 -0.07711015 -0.062505715 0.024671571 -0.06546767 -0.008857553
-0.046050824 -0.10346349 -0.024859002 -0.031043788 -0.024917904 -0.087530114 -0.072125 -0.077094235
-0.10807823 0.030243525 0.025491908 0.0050801444 -0.08882927 -0.01830682 -0.19432975 -0.0625911
-0.04688668 -0.043420594 -0.11200761 -0.04281331 -0.011210545 -0.028191118 -0.12535477 -0.0632767
-0.1910139 -0.17576495 -0.036571607 -0.011098024 -0.1637688 0.011500968 -0.08299686 0.00038546912
-0.028661668 -0.09279016 -0.23076087 -0.16633275 -0.049604665 0.029979143 -0.017361 -0.12604837
0.014610449 -0.13892971 -0.06881828 -0.11676579 -0.023854597 -0.035427053 0.053078163 0.04590914
-0.08391746 -0.19158466 -0.08222841 -0.010851727 -0.07894181 -0.10203531 -0.1293345 -0.06941181
-0.14104761 -0.1961075 -0.1308014 -0.02997199 -0.12073581 -0.17511548 -0.16206634 -0.0785775
0.012744962 -0.014299867 -0.118111156 0.034877144 0.052309077 -0.13230275 -0.0926665 -0.061160523
-0.017846825 -0.0464719 -0.036064994 -0.25101152 -0.14583994 -0.05126429 0.02578455 -0.122471236
-0.03732442 -0.16469324 -0.22591066 -0.123861894 -0.16265784 -0.07808458 -0.13047339 -0.105534315
-0.07463414 -0.07900717 -0.04354317 -0.062154192 0.012966946 -0.14925319 -0.06626689 -0.116867244
-0.14819041 -0.016781066 -0.09637355 -0.014706353 0.019993966 0.015516328 0.011663327 -0.042545844
-0.24311201 -0.03665728 -0.10898667 -0.19898066 -0.010805814 -0.1853338 -0.12631027 -0.15194523
-0.049502265 -0.1711701 -0.12415848 -0.21706635 0.045455854 -0.09053852 -0.070884354 -0.042940155
-0.11434158 -0.122182 -0.054263435 -0.031630658 -0.12746312 0.107662536 -0.118580334 -0.020660779
-0.13038014 -0.057254557 -0.19166327 -0.071321934 0.041365337 0.0430178 -0.008150571 -0.19348466
-0.105057724 -0.120834395 -0.04074272 -0.04482592 -0.043116678 0.010636392 -0.16747 0.039419644
-0.053299777 -0.17016545 0.0026401146 -0.03138606 -0.20909059 -0.076155834 -0.10964944 -0.123246044
-0.008561819 -0.07326663 -0.03874295 -0.019014407 -0.1662823 -0.021437906 -0.0733019 -0.081203625
0.031515066 -0.14240827 -0.073472634 -0.17904134 -0.02833601 -0.0724428 -0.11549607 -0.03573172
-0.11533506 -0.08146466 -0.097603254 -0.02556109 -0.10003479 -0.19496304 -0.055334333 -0.15260217
0.030185886 -0.039635684 -0.14330894 -0.068965815 -0.12865208 -0.022847744 -0.08861824 -0.11593163
-0.09694651 -0.11128043 -0.11307117 0.022973744 0.0015764986 -0.16893287 -0.12253631 0.067570016
-0.053122256 -0.1336813 -0.104972854 0.037933677 -0.01583308 -0.15698999 -0.05379283 0.030832201
-0.036943343 -0.040334266 -0.06138047 -0.10947672 -0.032048512 -0.018312978 -0.07663479 -0.07072737
-0.13379432 -0.040978763 0.0031758407 -0.060774602 -0.09252115 -0.021237569 -0.12991475 0.005637195
0.008590911 0.064685754 -0.10969853 -0.09201355 -0.04841796 -0.020726021 -0.064937174 -0.052080374
-0.04811814 -0.003928964 -0.1576442 -0.10299971 -0.10222539 -0.15309256 -0.0019570808 0.0029965376
-0.097758956 0.020634294 -0.11241184 0.030090569 -0.15221606 -0.08418517 0.0026042813 -0.12966475
-0.08983023 0.008813552 -0.048793968 -0.015042453 -0.06326072 -0.08740507 -0.055015456 -0.09708159

network_body._body_endoder.seq_layers.2.weight f4 [256, 256]
00000000: 4e3f 023e 56a9 633d d94d c93d 735b f43c
00000010: 3df5 fbbd b59f d23d 9afd 1c3d 5ed6 233e
00000020: e41f ef3b c045 753d 3651 a2ba 1b44 8e3d
00000030: 0b57 883d c734 29bd 9c45 173e 9251 783d
00000040: c231 bc3d 1755 83bd ed2c 2dbe 42a1 d63b
00000050: 8e25 4fbd 0be0 ff3d 49da aa3c 9ced 3f3b
00000060: 98c5 ab3d 8e94 963e e336 fc3d 3355 8c3d
00000070: 4ec8 383e d2a1 dd3d fee3 ac3d 7046 3dbe
00000080: e585 7f3d fa0b 01be 4fa9 c53a ef27 103e
00000090: 50b8 923d 7c83 bbbd 0650 033d 73ae 173e
000000a0: f439 163e 1f4e 9dbe 3a5a 5b3d 34e1 8f3c
000000b0: 18b8 14be 8890 b2bd 6df4 0ebe 990e a1bd
000000c0: c62f de3d ef18 2ebe 365f 353e cdc7 9fbd
000000d0: 3b89 adbd 6667 83bd 76a4 78be 1752 73bc
000000e0: 6d0a 5dbd c535 fc3d 7efa 2f3d da4e 3e3d
000000f0: 9dc3 2dbe 915d a0bd 9f6f 5b3c a40f 3cbe
00000100: 6fee 46bd 4806 a03d e657 193e 4c8d b23d
00000110: fd0c bcbb ba9d 7dbe e1cc 02bd 57e4 ce3d
00000120: 572e db3d 9f15 01bb 28cf 25be 2b16 fe3d
00000130: 8c20 a4bd 01d9 da3c a1dc dd3c de85 713e
00000140: 3763 cd3d d426 3b3e 587d 063d e257 f4bc
00000150: f077 c23d 7c9e 56bd 1e43 323d 3f8e ec3d
00000160: bfaf 563d 9df5 1ebe e252 f9bd ffbd 12be
00000170: 305f 38be dc09 3abd 9220 ef3c 5067 8cbd
00000180: 31c4 483d 5eb8 7abe b42a 89bb ce92 85bd
00000190: ca01 1ebe f1a3 9b3d 33d5 e93d d9c3 ec3c
000001a0: e9f3 91bd 73fc a1bd 294f cebd 43ad 99bd
000001b0: de94 883e 2070 963d 07a8 99be 2e79 23be
000001c0: ead6 a2bd 2014 283e 285f dfbd 0f4e e83d
000001d0: 99c7 9c3c 193c 9fbd b694 52bc 352a 9d3d
000001e0: 0326 8dbd a77d 113c cb23 043c d44e c93d
000001f0: 4be7 7c3c 006e ae3c 2047 a63d 993e 55bd
00000200: 4fac 5d3d 558e a63e 43e4 093e 7e81 95bd
00000210: 8f6b 6cbb 5b97 833d 3b13 f33d 7fab 243e
00000220: efc2 2abd 72ab 02be ef6a 893d 9d33 c5bd
00000230: 221c e33d 1589 453e b80e f03d e45a bbbd
00000240: 4b7c db3d e267 863e b081 6bbc a57b 063e
00000250: c3bb a3bb 559a cdba 7fde aabd c6b3 2dbd
00000260: a82c 56bd 0c13 12bc dac2 4b3d e917 04be
00000270: 5e3b 60bd ef53 103d dbdf af3d e171 2cbd
00000280: 9573 823d fa76 e13c e423 7fbe 8228 e43d
00000290: cdbc 293d 233b d6bd 40a8 73bd e066 083e
000002a0: 88d1 d9bd a80a a4bd f598 0e3e 5a67 84be
000002b0: 6282 e23b bebe d73c 2c2b 073d 3d17 ae3d
000002c0: 3ebd f2bd 8d95 53bb 099b d63d 983f 6ebb
000002d0: 17a2 293d 0e18 10bd 3583 2abd 9581 0c3e
000002e0: 859e a6bd 4234 27be 0ca8 613e 39d4 fc3d
000002f0: b463 f33d d298 2fbd 95a9 0d3e 4ed0 70be
00000300: 79f2 c0bc 4003 d03c d87b 1d3d dc71 7337
00000310: b47b ddbd 9fb6 90be e3c8 4fbc 80ad 5bbe
00000320: 6803 52be d6d0 9bbe 9e09 9e3d 5de5 17bd
00000330: 1c40 e1bd c6ce a33a 01e8 7c3d 400f 8bbe
00000340: 6dfe dcbd 7fd1 573d 7190 a73d 25f0 a5bc
00000350: 9446 843e b7dd 9dbd c031 85bd e2a3 4ebe
00000360: 642b 05be 2d74 92bc a422 82be a011 60ba
00000370: de5a 88be df90 433e 0727 d23c e242 5b3d
00000380: 00a8 babc 7f85 d7bd 5761 933d 059e d73c
00000390: 4ddf 3ebe a122 07bd c344 0dbd 4df7 73bc
000003a0: 28f3 833d 50c4 28bd e732 9fbd c9a0 903d
000003b0: d493 bc3d 91d5 89be fc1a f23d 2883 b2bd
000003c0: 4450 803d acc0 36be 5b2e e4bd 72f6 abbd
000003d0: 0baa 013d 2c81 f53d 1b13 2bbe d784 1fbd
000003e0: ad85 8dbb c712 b73d 3f91 ab3d 7e8a 52bd
000003f0: 195c 08bd 7e00 563e 0474 cfbc c6c5 7d3d
0.12719461 0.055581413 0.098293014 0.029828763 -0.12302635 0.10284368 0.03832779 0.15999743
0.007297503 0.059880972 -0.0012383822 0.06946584 0.06657227 -0.041310098 0.14772648 0.060624667
0.09189178 -0.06412714 -0.16911669 0.006549985 -0.050572924 0.12493905 0.02085604 0.0029285913
0.083872974 0.29410213 0.12315156 0.06852188 0.1804516 0.108218804 0.084419236 -0.18483901
0.06238355 -0.12602225 0.0015080365 0.14077733 0.07164061 -0.09155938 0.03205874 0.14812641
0.14670545 -0.30723664 0.053552844 0.01756344 -0.14523351 -0.087189734 -0.13960429 -0.078641124
0.10848956 -0.17001699 0.17712101 -0.07801781 -0.0847344 -0.06416206 -0.24281487 -0.014851115
-0.05396502 0.12314943 0.042963497 0.046461917 -0.16969152 -0.078303464 0.013393312 -0.18365341
-0.04856723 0.07813698 0.14974937 0.087183565 -0.005738853 -0.24767199 -0.03193367 0.10102146
0.10702198 -0.0019696725 -0.16192305 0.12406572 -0.0801402 0.026714804 0.027082743 0.23586223
0.10028689 0.1827653 0.03283438 -0.029827062 0.094955325 -0.052397236 0.04352104 0.11550569
0.0524137 -0.15523382 -0.12174012 -0.1433029 -0.18005061 -0.04541956 0.029190335 -0.06855643
0.049015228 -0.24484393 -0.004185999 -0.065221414 -0.1543037 0.07599629 0.11417618 0.028901981
-0.071266 -0.07909479 -0.10073692 -0.0750375 0.26676077 0.07345605 -0.30011007 -0.15964195
-0.07951148 0.16413927 -0.109068215 0.113430135 0.019138144 -0.077751346 -0.012852838 0.07674066
-0.06892016 0.0088800555 0.008065174 0.098294884 0.015436004 0.021292686 0.08119035 -0.05206165
0.054119404 0.32530466 0.13465981 -0.07300089 -0.0036074852 0.06425353 0.11868902 0.16081046
-0.04168981 -0.12760714 0.06709849 -0.09628985 0.1108935 0.19290574 0.117215574 -0.091481954
0.107170664 0.2625113 -0.014374182 0.13133104 -0.004996748 -0.0015686253 -0.08343219 -0.042407773
-0.05228868 -0.008915674 0.04974637 -0.12899746 -0.054744117 0.035236295 0.08587619 -0.04210079
0.06369702 0.027522553 -0.24916035 0.11140539 0.04143982 -0.10460498 -0.059486628 0.13320494
-0.10635668 -0.08009845 0.13925536 -0.258601 0.0069125155 0.02633607 0.033000156 0.08500526
-0.11852501 -0.0032285184 0.10478789 -0.0036353823 0.041414347 -0.03517919 -0.041629035 0.13721307
-0.08135704 -0.16328529 0.22036761 0.12345166 0.11884251 -0.04287035 0.13834222 -0.23516962
-0.02355312 0.025392175 0.038448185 1.4510439e-05 -0.1081461 -0.2826433 -0.0126821725 -0.21452904
-0.20509112 -0.30432767 0.07716678 -0.037083972 -0.10998556 0.0012497536 0.061744694 -0.27160072
-0.10790715 0.052690025 0.08181847 -0.020256111 0.25835097 -0.077083044 -0.0650363 -0.20179704
-0.13004833 -0.017877663 -0.25417054 -0.0008547548 -0.26631826 0.19098233 0.025653375 0.05353058
-0.022785187 -0.10523509 0.071963005 0.026320467 -0.1863987 -0.03299201 -0.034489404 -0.014890504
0.06442863 -0.041202843 -0.07773381 0.07061917 0.092078835 -0.2692075 0.11821553 -0.08716422
0.062653095 -0.17846936 -0.11141654 -0.08396615 0.031656306 0.11987528 -0.16706507 -0.038945045
-0.004318914 0.08939128 0.08377313 -0.051401608 -0.033290956 0.20898625 -0.025323875 0.06195619
